model/model_400.pth (torch, 39383 bytes, 6 tensors)

linear.0.weight f4 [128, 6]
0.16214548 0.48689845 -0.4422291 -0.6261629 -0.0802419 0.15586108 0.11673539 -0.68783236
0.40496463 0.24481086 0.20448697 0.093640566 -1.252625 0.23996432 -0.90785533 -0.35921997
-0.41835532 -0.25022748 -1.7489123 -0.46215862 -0.044771403 -0.54429585 -0.04332226 0.015817879
-0.955539 -0.27065647 -0.5024808 -0.04669911 0.7432776 0.030525336 0.4986344 -0.027748577
0.3077457 0.4407251 0.23905738 -0.18607819 -0.35413447 -0.91965765 -0.55021036 0.3864235
-0.030953614 -0.047336854 -0.59824973 0.5510442 0.567649 0.3752508 -0.69249475 -0.35225222
-0.117071494 0.48130974 -1.2282637 0.041073676 -0.28729746 0.050122503 0.28903368 -0.066866316
0.05042905 0.49792463 -0.20700285 -0.060800727 0.18013395 -0.13131037 -0.086630106 -0.6592221
0.7685898 0.45888773 -1.3329924 0.31628796 0.104804724 0.64876705 0.3226796 0.20318675
-0.07632252 0.27278483 0.08200481 0.099364564 -0.15549418 -0.043920897 0.007355317 0.28607652
0.43340042 0.18297274 0.05058987 0.2747956 -0.610682 0.78460956 -0.64072335 0.10780713
-0.39866835 0.18618047 -1.296131 0.85015446 -0.6225903 0.2233464 0.058884013 0.23142128
-1.1248189 0.90931267 -0.05045873 -0.046271734 -0.3082134 -0.35255072 -0.87209785 -1.2019793
-0.13629271 -0.6635712 0.56268924 0.22320744 -0.07682917 0.193267 -0.107741214 -0.034026206
0.16605288 0.09516649 -0.51998985 0.26417375 -1.0663209 -0.4786815 0.5987536 0.38430357
0.45114103 -0.57676655 0.6109816 -0.57273936 -0.12290784 0.24413589 -0.83085924 -0.92912287
0.06978874 -0.60022515 -0.31065816 -0.3773559 -0.984777 0.2814184 -0.72252065 0.47870412
0.057351522 0.2796058 -0.4644548 1.2866814 -0.49103495 -0.465619 0.1198092 0.48614436
0.4665718 0.39810044 0.35840163 0.14829423 0.027067779 -0.11382364 -0.03598244 0.50001854
0.08760243 -0.4002951 -0.10315254 -0.038644485 -0.9231132 0.48888385 -0.04240958 0.13918363
-0.59291613 -0.44598278 -0.07341404 0.29929885 -1.0515597 0.5709613 0.4869735 0.0053150365
-0.24332236 -0.082656115 0.1077585 0.16765799 -0.57842314 -0.2830134 -0.97308505 0.25426814
-0.33218765 -0.23413718 0.38313657 0.4287448 0.23105204 -0.71123123 -0.073424265 0.3306411
0.0668466 0.06814282 -0.8002783 0.34564653 0.07275164 0.1766863 -0.59756 -0.09930965
-0.7244093 -0.053910695 -0.28496706 -0.63332653 -0.21267594 0.2713619 -1.949843 -0.7237923
0.47300684 0.14836118 0.3238381 0.06952351 0.08458103 -1.1447947 -0.008227498 0.5303697
0.2633263 -0.2543808 -0.3646322 0.96564335 -1.2827866 -0.09812302 0.121652305 0.29271767
0.92217666 -0.61472726 0.12123338 -0.13637887 0.17025064 0.117162235 0.7557685 -0.3462755
-0.39584157 0.34458798 -0.10902018 -0.010497836 0.39610004 0.5325182 0.42187905 0.2727605
-0.31480527 -0.06836596 -0.040196817 0.31546614 0.06709466 0.3303927 0.07746375 -0.022132056
-0.90631866 0.32994512 -0.11273591 0.33233842 -0.4165988 -0.35666695 -1.2498157 -0.22698872
-0.48707503 -1.2284642 -0.4234495 0.12652822 -0.20658448 1.3686962 -1.1669564 0.021039918
00000000: 7709 263e c14a f93e da6b e2be 364c 20bf
00000010: de55 a4bd 0c9a 1f3e f712 ef3d c815 30bf
00000020: 8657 cf3e b3af 7a3e 0865 513e a0c6 bf3d
00000030: 0456 a0bf 35b9 753e 3569 68bf aeeb b7be
00000040: ab32 d6be d11d 80be 5cdc dfbf 0ea0 ecbe
00000050: 3862 37bd f956 0bbf af72 31bd 7f94 813c
00000060: 349e 74bf 7c93 8abe 95a2 00bf 9147 3fbd
00000070: 7147 3e3f 4510 fa3c 024d ff3e fc50 e3bc
00000080: d890 9d3e b8a6 e13e 75cb 743e 488b 3ebe
00000090: 1d51 b5be af6e 6bbf 96da 0cbf 4dd9 c53e
000000a0: 6f92 fdbc 4ae4 41bd e526 19bf 3c11 0d3f
000000b0: 7251 113f df20 c03e 5647 31bf 675a b4be
000000c0: 2ec3 efbd 3b6e f63e bf37 9dbf df3c 283d
000000d0: a718 93be 414d 4d3d 39fc 933e 35f1 88bd
000000e0: b18e 4e3d faef fe3e 8ef8 53be 2f0a 79bd
000000f0: 0975 383e 3a76 06be 206b b1bd c8c2 28bf
00000100: 4dc2 443f 55f3 ea3e 7f9f aabf 7ff0 a13e
00000110: dca3 d63d 9915 263f 4336 a53e 3010 503e
00000120: fb4e 9cbd 74aa 8b3e 23f2 a73d a67f cb3d
00000130: de39 1fbe 66e6 33bd df04 f13b 9f78 923e
00000140: a9e6 dd3e 355d 3b3e 5337 4f3d 02b2 8c3e
00000150: a855 1cbf 2cdc 483f 7206 24bf fcc9 dc3d
00000160: 421e ccbe 18a6 3e3e 9fe7 a5bf b9a3 593f
00000170: 1462 1fbf ebb4 643e 5d30 713d b3f9 6c3e
00000180: 11fa 8fbf b7c8 683f d0ad 4ebd 6e87 3dbd
00000190: 26ce 9dbe 8781 b4be ce41 5fbf 75da 99bf
000001a0: 5190 0bbe cddf 29bf 670c 103f 7e90 643e
000001b0: 9d58 9dbd c9e7 453e 6da7 dcbd 105f 0bbd
000001c0: c409 2a3e a6e6 c23d 0e1e 05bf c841 873e
000001d0: 347d 88bf be15 f5be ea47 193f 70c3 c43e
000001e0: f5fb e63e f9a6 13bf 4a69 1c3f 0c9f 12bf
000001f0: 1bb7 fbbd c2fe 793e 31b3 54bf ffda 6dbf
00000200: 66ed 8e3d 5ba8 19bf 960e 9fbe cb34 c1be
00000210: 581a 7cbf 1316 903e 1df7 38bf b518 f53e
00000220: 6ee9 6a3d 7e28 8f3e 05cd edbe fab1 a43f
00000230: ef68 fbbe 9d65 eebe 875e f53d eae7 f83e
00000240: 80e2 ee3e d2d3 cb3e 6b80 b73e 71da 173e
00000250: 3fbd dd3c 5e1c e9bd 5362 13bd 3701 003f
00000260: e768 b33d 7bf3 ccbe a441 d3bd ae49 1ebd
00000270: 2651 6cbf fc4e fa3e abb5 2dbd 2786 0e3e
00000280: 5ac9 17bf db57 e4be 1a5a 96bd b33d 993e
00000290: 8299 86bf 852a 123f 9754 f93e c229 ae3b
000002a0: 7f29 79be 9c47 a9bd 7db0 dc3d 89ae 2b3e
000002b0: 8a13 14bf 22e7 90be 1a1c 79bf 6f2f 823e
000002c0: 8014 aabe a8c1 6fbe 7a2a c43e 7084 db3e
000002d0: e898 6c3e 4013 36bf 765f 96bd ca49 a93e
000002e0: dfe6 883d 768e 8b3d 0adf 4cbf 95f8 b03e
000002f0: d0fe 943d 41ed 343e b1f9 18bf dc62 cbbd
00000300: e372 39bf 76d1 5cbd 34e7 91be b021 22bf
00000310: b9c7 59be f2ef 8a3e 7594 f9bf 744a 39bf
00000320: f42d f23e feeb 173e 1cce a53e 5862 8e3d
00000330: d238 ad3d a288 92bf a1cc 06bc 4fc6 073f
00000340: b4d2 863e 333e 82be 12b1 babe 6734 773f
00000350: 5a32 a4bf b9f4 c8bd d824 f93d 17df 953e
00000360: c513 6c3f c45e 1dbf 3549 f83d e7a6 0bbe
00000370: 2f56 2e3e c1f2 ef3d 0b7a 413f 064b b1be
00000380: bfab cabe d66d b03e f945 dfbd 1eff 2bbc
00000390: a0cd ca3e 1d53 083f 8800 d83e 44a7 8b3e
000003a0: 282e a1be 7403 8cbd 6ba5 24bd c784 a13e
000003b0: ed68 893d 3b29 a93e 51a5 9e3d 494e b5bc
000003c0: 8004 68bf 91ee a83e 16e2 e6bd 4328 aa3e
000003d0: 704c d5be 0d9d b6be f6f9 9fbf bb6f 68be
000003e0: e661 f9be 513e 9dbf 5fce d8be 9d90 013e
000003f0: e28a 53be 7031 af3f d45e 95bf e85b ac3c

linear.0.bias f4 [128]
0.095838144 0.4701414 -1.0040473 -0.82311374 -1.123405 0.108727194 0.1664379 -1.1321241
-1.516732 0.61960185 -1.0165038 -0.9050392 0.5977414 0.6163888 -1.3447746 -1.0562247
-1.8004326 -0.69157386 0.8053829 -1.885062 -0.16884275 -1.1084294 -1.1580709 -0.08294513
0.6480704 0.6992453 -0.9770267 -0.36112013 -1.2631632 -0.9321567 0.49513745 -1.0232209
-1.571537 -0.54308987 0.1100665 -1.2153103 0.22065195 0.6503454 0.3387329 0.48666897
-1.3441325 -0.35118106 -0.61687857 -0.055241395 -1.6459693 0.1641518 -0.5242579 0.8298024
0.62908876 -1.5807114 0.50103176 -1.0947167 -0.6635666 0.037870727 -1.3439187 -0.3682696
-0.7823308 0.47965264 -1.3303514 -2.020247 -0.8939403 -0.48800766 -0.007688798 0.39133018
-1.7108814 0.60244656 0.085473746 -0.490011 -0.14155142 -1.0923189 -0.09565429 0.46773383
-1.3306007 -1.2125086 0.07490292 -1.6403537 -0.36925867 0.39906198 -1.8316767 -1.5235592
0.24979022 -2.2282193 -1.8704644 -1.6881891 -0.9111243 0.5655606 -1.4546756 -0.303082
-0.9802181 -0.37289175 -0.30108765 0.036339536 -1.781353 -1.037228 0.4055503 0.20687094
-0.8500251 0.46643943 -0.10424654 0.065000795 -0.7314531 -1.2790531 0.040051 -0.74443054
0.37803748 0.18529582 0.33527055 0.1905427 -1.4788224 -0.7404487 -0.6015513 -0.7692377
-0.87740463 -1.4983158 0.50951207 -0.5041283 -0.9550215 -0.55395377 -0.5318891 -1.9541157
-1.243628 -1.304483 0.39021698 -0.8369036 -1.045334 0.44180724 0.4541083 -0.43528965
00000000: ca46 c43d 60b6 f03e 9f84 80bf 95b7 52bf
00000010: bccb 8fbf 5dac de3d b26e 2a3e 71e9 90bf
00000020: 4624 c2bf 3a9e 1e3f cc1c 82bf a6b0 67bf
00000030: 9505 193f a8cb 1d3f 9321 acbf 5f32 87bf
00000040: 9374 e6bf fc0a 31bf 932d 4e3f b649 f1bf
00000050: 1de5 2cbe 04e1 8dbf ab3b 94bf 23df a9bd
00000060: f1e7 253f bd01 333f 6c1e 7abf bde4 b8be
00000070: 55af a1bf d2a1 6ebf a882 fd3e e7f8 82bf
00000080: 2028 c9bf f007 0bbf 8c6a e13d 4a8f 9bbf
00000090: 96f2 613e 097d 263f 666e ad3e ad2c f93e
000000a0: 890c acbf 01ce b3be c1eb 1dbf cd44 62bd
000000b0: 1faf d2bf 6917 283e c435 06bf ee6d 543f
000000c0: f60b 213f c054 cabf 9e43 003f ad1f 8cbf
000000d0: 80df 29bf 561e 1b3d 8705 acbf d58d bcbe
000000e0: d546 48bf 0895 f53e f448 aabf ba4b 01c0
000000f0: 46d9 64bf 24dc f9be 50f2 fbbb 6e5c c83e
00000100: 29fe dabf f039 1a3f dc0c af3d b9e2 fabe
00000110: dbf2 10be 1bd1 8bbf 65e6 c3bd cf7a ef3e
00000120: 2051 aabf 7b33 9bbf b466 993d 1cf7 d1bf
00000130: 790f bdbe da51 cc3e 6274 eabf fd03 c3bf
00000140: 02c9 7f3e 259b 0ec0 616b efbf 9516 d8bf
00000150: 713f 69bf 94c8 103f cf32 babf 902d 9bbe
00000160: 93ef 7abf abeb bebe 2928 9abe c4d8 143d
00000170: 6003 e4bf e3c3 84bf 4aa4 cf3e fad5 533e
00000180: 3f9b 59bf 26d1 ee3e 367f d5bd 231f 853d
00000190: 8340 3bbf 03b8 a3bf 840c 243d 0093 3ebf
000001a0: 218e c13e 30be 3d3e 95a8 ab3e a01d 433e
000001b0: 0d4a bdbf 0c8e 3dbf 44ff 19bf c3ec 44bf
000001c0: 979d 60bf d0c8 bfbf 626f 023f 8d0e 01bf
000001d0: 4a7c 74bf eacf 0dbf e229 08bf 7720 fabf
000001e0: 342f 9fbf 4df9 a6bf 85ca c73e 503f 56bf
000001f0: 81cd 85bf 8f34 e23e e280 e83e 49de debe

linear.2.weight f4 [64, 128]
-0.16572145 0.023166781 -2.2607174 0.42107072 0.057501458 -0.46983573 0.30947578 0.50537205
-0.58227074 0.15715873 -0.0606236 1.0039445 -0.10957567 -0.0714142 -0.874105 -0.28128847
-0.72513556 -0.20274547 0.116653614 -0.27773336 -0.094264105 -2.0701532 0.29153997 0.18407041
0.19741683 0.23752247 -0.049444787 0.124943994 -1.7968855 -0.59343797 0.2974774 -1.0899308
-0.06327384 0.16919534 -0.19565351 0.27832097 0.14318512 0.20037629 -0.04854112 0.024578333
-2.418534 -0.02572182 -0.35235798 0.079133786 -0.55997455 0.08371214 0.8186763 0.19246992
0.27440152 -2.1913245 0.08595141 -1.484903 0.1193415 -0.099834785 -1.7393271 -0.12396436
0.4248765 -0.097766526 -1.102291 -2.67782 -0.21419212 -0.13257135 -0.020704107 0.1166398
-1.5798615 0.012869535 0.07794238 -0.49597403 0.14951229 0.19499914 -0.3033673 0.10316332
-0.60406905 -0.41545063 -0.33622864 -0.32955775 0.5955849 -0.016588582 -1.349927 -2.002203
0.2941901 -3.9697225 0.21285036 -4.884713 -0.48251832 0.1740505 -0.13565995 -0.38926986
-0.16083449 -0.1046382 0.13935062 -0.34209654 -0.31127623 -1.0555165 0.15897594 0.15917009
-0.1666511 0.12012292 -0.2253556 0.4872342 -0.15713271 0.85483915 -0.03585731 -1.5722673
-0.77387583 0.16227421 0.07434605 0.043331623 -0.26395833 0.040998843 -0.44723743 0.22951233
-0.39779395 -1.4744914 0.049308423 0.1176104 2.311887 -0.4077561 0.24360122 -4.163101
-0.94139516 0.21334319 -0.1395739 -0.34893405 0.107100375 -0.119718485 0.14670798 0.044691198
0.15089971 -0.05969399 -1.249825 0.98630714 -0.029238125 -0.13268535 0.19586633 2.0361412
1.1553547 0.26415852 -0.111436926 1.1266373 0.18658113 -0.13710754 -0.6249874 -0.40069252
-0.6421714 -0.0193998 -0.02608709 0.7107376 -0.19360052 -1.5334742 0.9334664 -0.21680607
0.18255828 0.209491 0.91124624 0.062398076 -0.7937253 -0.45286193 0.040346336 -0.67423725
-1.5396457 -1.2168491 -0.10842379 0.33297428 0.09172988 0.024123816 0.20454781 0.18985629
-2.4465554 1.2910877 -0.15225157 -0.13148886 0.59412605 0.020910999 -0.15171735 0.0025399635
0.1838278 -1.6079321 0.013822584 -1.6381204 -0.40025884 0.04987064 -0.4425442 -0.10688562
1.0960263 0.12358792 -1.0532815 -1.9563414 0.16432762 0.25695112 -0.008441637 0.17962134
0.37457553 0.19666292 0.18067576 -0.06933944 0.085656814 -0.7761181 0.48264855 0.08958702
-1.4042974 -0.38777184 -0.37338826 0.5545825 -0.44896623 -0.452848 -0.28533047 -2.255227
-0.11821023 -2.3225458 1.057668 -0.43262517 -2.5289357 0.14244683 -0.9812005 -0.25545216
-1.3687879 0.32485446 -0.12944046 -0.17859426 -2.9020953 1.2312328 0.10049954 0.0017527092
0.623786 -0.15941544 -0.29550847 0.2157783 0.056952473 -1.3220143 -0.06764689 0.16044562
0.25265652 -0.23117109 -0.045525752 0.022419004 -0.19637044 -0.404523 -0.9476725 0.098604105
-0.15086812 0.07528512 0.28337887 0.1208354 -1.4307992 -0.60649717 -0.031019665 -2.0755014
-0.56180036 -0.5792453 -0.32181695 -0.27653226 -1.5367206 -0.32802975 0.03094104 -0.24598408
00000000: e2b2 29be 43c8 bd3c 98af 10c0 9596 d73e
00000010: a686 6b3d 4f8e f0be 9c73 9e3e 1060 013f
00000020: b20f 15bf 38ee 203e 7450 78bd 4181 803f
00000030: 3569 e0bd 9c41 92bd 58c5 5fbf 0b05 90be
00000040: 7ca2 39bf 829c 4fbe 17e8 ee3d 1133 8ebe
00000050: 8a0d c1bd 647d 04c0 ba44 953e f47c 3c3e
00000060: a327 4a3e 1739 733e 9e86 4abd a3e2 ff3d
00000070: 5800 e6bf 8deb 17bf f54e 983e da82 8bbf
00000080: b795 81bd 8b41 2d3e 6559 48be 1680 8e3e
00000090: 1f9f 123e 712f 4d3e 0ed3 46bd 8058 c93c
000000a0: 43c9 1ac0 91b6 d2bc 4468 b4be e510 a23d
000000b0: 7e5a 0fbf 4571 ab3d c594 513f d616 453e
000000c0: 5b7e 8c3e a93e 0cc0 4b07 b03d 4d11 bebf
000000d0: 5169 f43d 2e76 ccbd 45a2 debf 07e1 fdbd
000000e0: 6a89 d93e d139 c8bd df17 8dbf 6761 2bc0
000000f0: 2e55 5bbe c9c0 07be a99b a9bc d9e0 ee3d
00000100: e738 cabf beda 523c 41a0 9f3d 4ff0 fdbe
00000110: c019 193e dbad 473e f552 9bbe 4a47 d33d
00000120: 45a4 1abf f2b5 d4be 2926 acbe cbbb a8be
00000130: 4178 183f c7e4 87bc 68ca acbf 1824 00c0
00000140: 16a0 963e ef0f 7ec0 72f5 593e 924f 9cc0
00000150: a40c f7be 4b3a 323e 71ea 0abe 614e c7be
00000160: ccb1 24be 8d4c d6bd eeb1 0e3e 4727 afbe
00000170: 995f 9fbe 2a1b 87bf 97ca 223e 7cfd 223e
00000180: 96a6 2abe 0103 f63d 9ec3 66be c376 f93e
00000190: 66e7 20be bdd6 5a3f 1ddf 12bd 0e40 c9bf
000001a0: ba1c 46bf 362b 263e be42 983d 807c 313d
000001b0: 8c25 87be 67ee 273d 4efc e4be 4805 6b3e
000001c0: a6ab cbbe 22bc bcbf a1f7 493d b9dd f03d
000001d0: f5f5 1340 68c5 d0be 9972 793e 2038 85c0
000001e0: 46ff 70bf a376 5a3e 76ec 0ebe 7ca7 b2be
000001f0: 7157 db3d f72e f5bd 9e3a 163e 1e0e 373d
00000200: 7485 1a3e af81 74bd 44fa 9fbf a07e 7c3f
00000210: cb84 efbc abde 07be 2f91 483e 2350 0240
00000220: aae2 933f c93f 873e 0b39 e4bd a735 903f
00000230: 200f 3f3e eb65 0cbe 2dff 1fbf 9227 cdbe
00000240: 5865 24bf 54ec 9ebc 98b4 d5bc e6f2 353f
00000250: 373f 46be e248 c4bf a7f7 6e3f 6902 5ebe
00000260: 8ff0 3a3e cf84 563e 6f47 693f 2095 7f3d
00000270: 9531 4bbf 85dd e7be 3342 253d d09a 2cbf
00000280: 1c13 c5bf b6c1 9bbf 4b0d debd 9b7b aa3e
00000290: e0dc bb3d 4f9f c53c fb74 513e b069 423e
000002a0: 5d94 1cc0 5d42 a53f d6e7 1bbe 04a5 06be
000002b0: a518 183f 8b4d ab3c cb5b 1bbe 8475 263b
000002c0: 5b3d 3c3e b8d0 cdbf 1f78 623c eead d1bf
000002d0: baee ccbe 2845 4c3d 2795 e2be d9e6 dabd
000002e0: 974a 8c3f aa1b fd3d eed1 86bf 6569 fabf
000002f0: 8045 283e 198f 833e cb4e 0abc a8ee 373e
00000300: 5dc8 bf3e 0162 493e 1103 393e d601 8ebd
00000310: d76c af3d adaf 46bf b61d f73e 6679 b73d
00000320: 04c0 b3bf 088a c6be bf2c bfbe 1ef9 0d3f
00000330: e7de e5be b1db e7be d616 92be a455 10c0
00000340: 3418 f2bd 97a4 14c0 aa61 873f 0c81 ddbe
00000350: 15da 21c0 95dd 113e f52f 7bbf a0ca 82be
00000360: 7134 afbf 5353 a63e 0a8c 04be 6ae1 36be
00000370: eebb 39c0 0999 9d3f b4d2 cd3d 29bb e53a
00000380: 70b0 1f3f cd3d 23be e34c 97be fdf4 5c3e
00000390: ff46 693d c437 a9bf 748a 8abd db4b 243e
000003a0: 325c 813e 1db8 6cbe 3679 3abd 0fa8 b73c
000003b0: 5515 49be a31d cfbe aa9a 72bf f3f0 c93d
000003c0: 2c7d 1abe 162f 9a3d 0917 913e 8d78 f73d
000003d0: 6e24 b7bf 6643 1bbf f41c febc 04d5 04c0
000003e0: 26d2 0fbf 6c49 14bf 31c5 a4be a395 8dbe
000003f0: 43b3 c4bf 84f3 a7be 1078 fd3c 40e3 7bbe

linear.2.bias f4 [64]
0.39462206 0.34644648 0.05963178 0.37487155 -0.06617618 0.032728963 0.3659231 -0.08678437
0.38030788 0.31818375 0.16116625 -0.057500347 0.48739055 0.5631491 0.4376629 -0.014995898
0.11369748 0.01739146 0.48721698 0.46286917 -0.022788063 -0.085075416 -0.010355714 -0.05997158
0.018944833 0.15377149 0.07447187 0.026920553 -0.056078535 -0.067946695 -0.07618725 -0.01929731
0.47655222 -0.07260608 0.005087533 0.3251509 -0.09056228 0.016622646 0.37139404 -0.15016711
0.4580248 -0.07870746 -0.03114723 0.40827832 0.4897603 0.46716797 0.32456532 0.34573916
-0.17751347 0.50224996 0.3386739 -0.004896295 0.42015132 0.43598953 0.53623843 -0.07134023
-0.0787635 0.46083915 0.39799732 0.45109245 0.404281 -0.037631944 -0.10115351 0.02859941
00000000: e70b ca3e 6f61 b13e 7440 743d 2aef bf3e
00000010: 6187 87bd ce0e 063d 465a bb3e 01bc b1bd
00000020: b7b7 c23e fbe8 a23e c408 253e 7c85 6bbd
00000030: 418b f93e 8a2a 103f 5a15 e03e 5bb1 75bc
00000040: 39da e83d 8978 8e3c 8174 f93e 30fd ec3e
00000050: 08ae babc 053c aebd 03ab 29bc c2a4 75bd
00000060: 3232 9b3c 4676 1d3e b584 983d 7e88 dc3c
00000070: 9bb2 65bd a327 8bbd 1008 9cbd 6415 9ebc
00000080: a7fe f33e 7fb2 94bd 52b5 a63b 2e7a a63e
00000090: b778 b9bd 372c 883c 5c27 be3e 68c5 19be
000000a0: 3a82 ea3e 6031 a1bd 7a28 ffbc db09 d13e
000000b0: ddc1 fa3e a430 ef3e 6d2d a63e b904 b13e
000000c0: 17c6 35be 7493 003f aa66 ad3e 1971 a0bb
000000d0: 131e d73e 053a df3e ec46 093f d41a 92bd
000000e0: c24e a1bd 1cf3 eb3e 4ec6 cb3e 97f5 e63e
000000f0: ebfd ce3e f423 1abd 9229 cfbd 4f49 ea3c

linear.4.weight f4 [3, 64]
-0.2511213 -0.60198575 -1.7441174 -0.2173087 0.0026470695 -2.0236971 -0.12568617 0.052561574
-0.49991518 -0.4935028 1.8609455 -0.08007887 -0.6540044 -0.56602275 -0.042871986 -0.071802564
0.85787255 0.08143476 -0.21147394 -0.5709719 -0.033807762 -0.03221625 -0.03341219 0.07096641
-0.04362695 -0.9143673 0.7007732 -0.0190869 -0.00065204396 0.12229364 -0.041547246 1.7738152
-0.5731241 -0.002050832 0.076745085 -0.39898592 0.091941334 0.050710127 -0.076163225 0.012423349
-0.13040327 0.073117666 -0.0025558956 -0.23866804 -0.63370377 -0.22067921 -0.5090817 -0.478499
-0.29103968 -0.44487023 -0.5448654 0.04813955 -0.31547064 -0.5779624 -0.29754743 -2.372481
-2.043561 0.31343386 -0.54560655 3.474109 -0.4882364 -1.4669722 -0.011216374 0.06430793
-0.23997381 -0.48997185 -2.0274007 -0.12952214 -0.08515298 -1.3606383 -0.57514304 0.016779765
-0.28950518 -0.19867548 2.5814111 0.022718756 -0.05077173 -0.44875342 -0.5375781 0.06837041
1.2499418 -0.03486237 -0.74314755 -0.5678781 -0.01622375 -0.012315962 0.04672463 -0.0108007025
0.08899695 -1.3395246 1.1336658 -0.05458806 0.052118737 0.2870746 0.039848823 1.8600459
-0.6944509 0.0112932855 -0.08087067 -0.28423345 0.00448533 -0.0030493583 -0.24366865 0.12860808
-0.4636837 -0.034958452 0.03075077 -0.29506752 -0.4258212 -0.23104723 -0.17824224 -0.2512549
-0.65844744 -0.3001051 -0.27474865 0.094592944 -0.43994093 -0.10502024 -0.6130842 -1.6992538
-2.5511382 -0.3224376 -0.5433846 2.8743277 -0.5896258 -1.9841067 -0.02249805 0.05591569
-0.75239575 -0.4797633 -2.0673363 0.42352676 0.05475843 -1.3118421 -0.57522416 -0.12738706
-0.3959425 -0.37184724 3.2437937 -0.025973793 -0.29451808 -0.4644245 -0.5261026 0.008975037
1.0161598 -0.06775626 -0.3782955 0.005111438 0.062967114 0.018343667 0.028840376 -0.07739327
0.03138301 -2.0309985 0.62381786 0.11183897 0.0727769 0.2575883 0.101242416 1.2706409
-0.540779 0.05843915 0.05113358 -0.7225186 -0.027035723 -0.10937951 -0.5054706 -0.022519812
-0.3959672 0.02310684 0.100037046 -0.6924428 -0.2842521 -0.49531633 -0.6010837 -0.40044034
-0.5253688 -0.33235705 -0.32450858 -0.016201796 -0.3881806 0.107289314 -0.5326215 -1.6376103
-2.268656 -0.45417023 -0.27954113 -0.18860438 -0.3336776 -2.381016 0.048034783 -0.06834701
00000000: f992 80be bd1b 1abf 3d3f dfbf 2c86 5ebe
00000010: 757a 2d3b 4184 01c0 e0b3 00be ce4a 573d
00000020: e2f4 ffbe 66ac fcbe 7633 ee3f 6400 a4bd
00000030: d56c 27bf dee6 10bf 899a 2fbd 390d 93bd
00000040: 899d 5b3f 44c7 a63d a08c 58be 372b 12bf
00000050: 027a 0abd 30f5 03bd 38db 08bd d656 913d
00000060: 2cb2 32bd fa13 6abf df65 333f 215c 9cbc
00000070: eeed 2aba 1775 fa3d 722d 2abd 600c e33f
00000080: 43b8 12bf 4067 06bb 872c 9d3d e247 ccbe
00000090: bd4b bc3d 6cb5 4f3d 77fb 9bbd 4d8b 4b3c
000000a0: 6f88 05be b7be 953d d080 27bb 6565 74be
000000b0: 693a 22bf bbf9 61be 2e53 02bf d2fd f4be
000000c0: 2703 95be 08c6 e3be 4d7c 0bbf fa2d 453d
000000d0: 5e85 a1be 58f5 13bf 2358 98be bbd6 17c0
000000e0: b4c9 02c0 677a a03e dfac 0bbf cd57 5e40
000000f0: 1ffa f9be bfc5 bbbf e2c4 37bc e0b3 833d
00000100: b2bb 75be 97dd fabe efc0 01c0 74a1 04be
00000110: b064 aebd 6529 aebf 933c 13bf b875 893c
00000120: 063a 94be 9671 4bbe d735 2540 af1c ba3c
00000130: 04f6 4fbd 02c3 e5be b89e 09bf c905 8c3d
00000140: 18fe 9f3f d8cb 0ebd eb3e 3ebf 7660 11bf
00000150: abe7 84bc e4c8 49bc 5362 3f3d 6ef5 30bc
00000160: 0844 b63d 8b75 abbf f61b 913f bb97 5fbd
00000170: 757a 553d 71fb 923e 8538 233d fc15 ee3f
00000180: 89c7 31bf 7907 393c 869f a5bd 0c87 91be
00000190: adf9 923b bed7 47bb 4684 79be d6b1 033e
000001a0: f367 edbe 9830 0fbd 0ae9 fb3c 1713 97be
000001b0: 3c05 dabe a597 6cbe 2285 36be 7ba4 80be
000001c0: 0390 28bf 60a7 99be dbab 8cbe f2b9 c13d
000001d0: f03f e1be da14 d7bd 16f3 1cbf 2681 d9bf
000001e0: d945 23c0 8b16 a5be 411b 0bbf fcf4 3740
000001f0: b7f1 16bf 35f7 fdbf d54d b8bc da07 653d
00000200: 029d 40bf 89a3 f5be 3d4f 04c0 80d8 d83e
00000210: 604a 603d 71ea a7bf e441 13bf c171 02be
00000220: fab8 cabe c362 bebe 519a 4f40 fec6 d4bc
00000230: 13cb 96be 0cc9 edbe a9ae 06bf 090c 133c
00000240: 8611 823f cbc3 8abd f3af c1be da7d a73b
00000250: e7f4 803d 7545 963c a742 ec3c 5d80 9ebd
00000260: 798b 003d e1fb 01c0 87b2 1f3f d40b e53d
00000270: 0e0c 953d 9de2 833e 2f58 cf3d 5ca4 a23f
00000280: 7e70 0abf e45d 6f3d 7271 513d fbf6 38bf
00000290: 057a ddbc 5d02 e0bd 8566 01bf 787b b8bc
000002a0: 36bc cabe 8e4a bd3c 39e0 cc3d ee43 31bf
000002b0: 7e89 91be 1a9a fdbe 9fe0 19bf 8406 cdbe
000002c0: 927e 06bf b42a aabe fd25 a6be a1b9 84bc
000002d0: 9cbf c6be 80ba db3d e259 08bf 379d d1bf
000002e0: a931 11c0 0089 e8be 0420 8fbe 8221 41be
000002f0: cad7 aabe 9162 18c0 1fc0 443d 84f9 8bbd

linear.4.bias f4 [3]
-0.21870245 -0.11246077 0.048347656
00000000: 89f3 5fbe d551 e6bd 3108 463d
