model/model_300.pth (torch, 39383 bytes, 6 tensors)

linear.0.weight f4 [128, 6]
0	0x3dfee194	0.12445369
1	0x3eda6d8a	0.42661697
2	0xbe85b184	-0.26111996
3	0xbf0418bc	-0.5160024
4	0xbd1db69e	-0.038504235
5	0x3e2bf32d	0.16791983
6	0x3d78a291	0.06070191
7	0xbf2c152d	-0.6721981
8	0x3ec0610c	0.3757404
9	0x3db87114	0.09005943
10	0x3e452ddd	0.19255777
11	0x3d70fb5a	0.058833458
12	0xbf60cb1e	-0.8780993
13	0x3dc5ba7c	0.0965471
14	0xbf8d4890	-1.1037769
15	0xbe899468	-0.26871037
16	0xbe9ef654	-0.31047308
17	0xbe3d0519	-0.18458976
18	0xbfca3849	-1.5798427
19	0xbe326165	-0.17419966
20	0xbee8c3d7	-0.45461914
21	0xbf1a04a1	-0.60163313
22	0x3d9b4b9c	0.07582781
23	0xbd2dc670	-0.042425573
24	0xbf415ae1	-0.75529295
25	0xbe728a2b	-0.2368552
26	0xbf3baa17	-0.7330641
27	0xbc600707	-0.01367355
28	0x3f2eea51	0.6832629
29	0x3d99f19c	0.075167865
30	0x3ed5fb4c	0.41793287
31	0xbe0a214d	-0.13489266
32	0x3e609ac8	0.21934044
33	0x3ed4e723	0.41582593
34	0x3e6bf109	0.23041166
35	0xbe477ed7	-0.1948198
36	0xbeb6cf5d	-0.3570508
37	0xbf2f0df6	-0.6838068
38	0xbe615eb5	-0.22008784
39	0x3ef5954c	0.47965467
40	0x3d15e9ab	0.036599796
41	0xbdc56798	-0.096388996
42	0xbf4ea697	-0.80722946
43	0x3e7624c9	0.2403747
44	0x3f2baf5c	0.6706445
45	0xbd4518d0	-0.048119366
46	0xbf02d61c	-0.51107955
47	0xbea78991	-0.32722142
48	0x3d94423c	0.07239196
49	0x3f02022a	0.5078455
50	0xbf888c23	-1.0667766
51	0x3d928ae3	0.07155397
52	0xbe9ccc3b	-0.30624565
53	0x3d2dee62	0.042463668
54	0x3e7f2cc6	0.24919423
55	0xbc8807db	-0.016605308
56	0x3daa7657	0.08323353
57	0x3ede0184	0.4336053
58	0xbe14ece1	-0.14543487
59	0xbdac3fbf	-0.08410596
60	0x3e21d83c	0.15805143
61	0x3ded576d	0.11588941
62	0xbe95bb4d	-0.29244462
63	0xbebe7d7f	-0.3720512
64	0x3f42f4a7	0.7615456
65	0x3edf3dca	0.4360183
66	0xbf942311	-1.1573201
67	0x3ea9243b	0.33035454
68	0xbeba43ba	-0.36379796
69	0x3f4add51	0.7924395
70	0x3e9a3c52	0.30124146
71	0x3e6aa959	0.22916164
72	0xbdaf4d65	-0.08559684
73	0x3df5cb60	0.12001681
74	0x3d5943dd	0.053043235
75	0x3d7033c8	0.058643132
76	0xbe09e390	-0.13465714
77	0xbd29cd4a	-0.041455545
78	0xbe1a0fa6	-0.15045032
79	0x3e59f8f3	0.21286373
80	0x3eceb7fa	0.40374738
81	0x3e9564de	0.29178518
82	0xbcbcb92a	-0.023037512
83	0x3e5f8bb2	0.21830633
84	0xbebcb8d5	-0.36859766
85	0x3f483eda	0.78220904
86	0xbf4d88ae	-0.8028668
87	0x3f0782a8	0.5293374
88	0xbe84eb63	-0.25960836
89	0x3df05b77	0.117361955
90	0xbf7cdf56	-0.98778284
91	0x3f139d00	0.5766144
92	0xbf3ff0c4	-0.74976754
93	0xbc2fdcd0	-0.010733798
94	0xbdab436a	-0.083624676
95	0x3e90a3d2	0.28249985
96	0xbf8c1845	-1.0944906
97	0x3f829f0c	1.0204787
98	0xbde0efdc	-0.109832495
99	0xbee73e7e	-0.45164865
100	0xbec3dadd	-0.38252917
101	0xbe9faff0	-0.31188917
102	0xbef5321a	-0.47889787
103	0xbf4f8091	-0.8105555
104	0x3c171b01	0.009222747
105	0xbf135b2a	-0.5756098
106	0x3f1c9cca	0.6117674
107	0x3e3f5536	0.18684849
108	0xbdf0373b	-0.117292844
109	0x3e97b64b	0.29631266
110	0xbe38bb3d	-0.18040176
111	0x3e162b47	0.14664946
112	0x3e104592	0.14089039
113	0x3de9dc56	0.11418979
114	0xbee14c4e	-0.44003528
115	0x3ea21272	0.31654698
116	0xbfaaf2b5	-1.3355318
117	0xbe8ca99c	-0.27473152
118	0x3f0aa548	0.5415845
119	0x3ec83ee7	0.3911049
120	0x3eade223	0.3396159
121	0xbf7dbadf	-0.9911327
122	0x3ed54806	0.41656512
123	0xbf096172	-0.53664315
124	0xbdea1dad	-0.114314415
125	0x3da18175	0.0788602
126	0xbf90f677	-1.1325215
127	0xbf880e8d	-1.062944
128	0xbe4affcf	-0.19824146
129	0xbeee6d87	-0.46567938
130	0xbc364a20	-0.011126071
131	0xbe88e319	-0.26735762
132	0xbf8ec540	-1.1153946
133	0x3dd9ec5f	0.10640787
134	0xbf4da1df	-0.8032512
135	0x3e3689ae	0.17825958
136	0x3e6cc11f	0.23120545
137	0x3eb6bc7a	0.3569067
138	0xbf2c6093	-0.6733486
139	0x3f652e93	0.8952419
140	0xbf01e953	-0.5074665
141	0xbf1561f0	-0.58352566
142	0x3e87e73b	0.26543602
143	0x3eba7b0e	0.36422008
144	0x3eb0c3e6	0.3452446
145	0x3ee0d921	0.43915656
146	0x3ea17b7d	0.31539527
147	0x3e68b568	0.22725451
148	0xbd445f18	-0.04794225
149	0xbe4e1105	-0.2012368
150	0xbd16ee8e	-0.036848597
151	0x3f03762f	0.5135221
152	0x3db6dca7	0.08928805
153	0xbefce7e8	-0.4939568
154	0xbdc5b420	-0.09653497
155	0xbd5d22f8	-0.053988427
156	0xbf1c8893	-0.61145896
157	0x3ef0398f	0.46918914
158	0xbedf9572	-0.43668705
159	0x3ebcc181	0.36866382
160	0xbf242525	-0.6411918
161	0xbed2abf2	-0.4114681
162	0x3e01174b	0.12606542
163	0x3f1441ea	0.57913077
164	0xbf436e02	-0.76339734
165	0x3f3a3059	0.7273002
166	0x3ef72de1	0.4827719
167	0xbddad6ce	-0.10685502
168	0xbf2c0770	-0.6719885
169	0xbec3e73e	-0.3826236
170	0x3cebca81	0.028783085
171	0xbdc63366	-0.09677772
172	0xbf0fa1b0	-0.5610609
173	0xbe4b750b	-0.19868867
174	0xbf946149	-1.1592189
175	0x3e19060d	0.14943714
176	0xbe92cb8c	-0.2867092
177	0xbd3a9d59	-0.045560215
178	0x3ee7ecf3	0.45297965
179	0x3ede4ca3	0.43417844
180	0x3e4d14c1	0.20027448
181	0xbf486b28	-0.7828851
182	0x3a4545d1	0.0007525357
183	0x3ea9b5d5	0.3314654
184	0x3cf0b6bc	0.02938401
185	0x3cd83e36	0.026396852
186	0xbf0ab208	-0.54177904
187	0xbe416c24	-0.18888909
188	0xbebfa760	-0.37432384
189	0x3ed43ecd	0.41454163
190	0xbf15df7a	-0.58544123
191	0xbcd07000	-0.02544403
192	0xbf576616	-0.84140146
193	0xbe741b8e	-0.23838636
194	0xbea0369d	-0.31291667
195	0xbe84d62d	-0.25944653
196	0xbe82fb0a	-0.25582153
197	0x3e8bcb12	0.27303368
198	0xbfe16d41	-1.7611467
199	0xbf1ee8be	-0.62073886
200	0x3f17066c	0.58994174
201	0x3f00e8e0	0.5035534
202	0x3ef0ef0a	0.47057372
203	0x3d929b7b	0.07158562
204	0x3e9b74ac	0.3036245
205	0xbf3fb05e	-0.7487849
206	0x3eaa41ed	0.33253422
207	0x3f21575a	0.6302391
208	0x3d7b93af	0.06142014
209	0xbe9a894a	-0.30182868
210	0xbe84fc50	-0.2597375
211	0x3f4426ae	0.7662152
212	0xbf5552ce	-0.83329475
213	0xbe7bf03a	-0.24603358
214	0x3e7878b8	0.242648
215	0x3ec4d07e	0.38440317
216	0x3eb204b4	0.34769213
217	0xbf3dd4ae	-0.7415265
218	0xbd8ae6b9	-0.06782288
219	0x3b8e4a38	0.0043423437
220	0x3e2df313	0.16987257
221	0x3e1f61f3	0.15564708
222	0x3f1b1277	0.6057505
223	0xbf11f7db	-0.5701882
224	0xbe8cc51c	-0.27494133
225	0x3ee3c655	0.44487253
226	0xbdac23e6	-0.084052846
227	0xbe1c6661	-0.1527343
228	0x3ea9ed26	0.33188742
229	0x3ec06256	0.37575024
230	0x3eda67b5	0.42657247
231	0xbdde470d	-0.108533956
232	0xbe814003	-0.2524415
233	0xbdc2cf7c	-0.09512231
234	0xbbd4def3	-0.006496304
235	0x3e95f770	0.29290342
236	0x3d54194a	0.05178193
237	0x3e6a4835	0.22879107
238	0x3b8cf90c	0.0043021496
239	0x3ca6054f	0.020266203
240	0xbf8db498	-1.1070738
241	0x3eaa4a65	0.33259884
242	0xbec82d8d	-0.39097252
243	0x3e42d791	0.19027545
244	0xbf03721f	-0.5134601
245	0xbeabedf9	-0.33579996
246	0xbf9e4081	-1.2363435
247	0xbe1bf039	-0.15228356
248	0xbe628687	-0.2212163
249	0xbf7fa791	-0.9986506
250	0xbee0c498	-0.4389999
251	0x3a1c13ff	0.00059539074
252	0x3ea87a44	0.3290578
253	0x3f9d4892	1.2287772
254	0xbf8f178a	-1.1179059
255	0xbe0445de	-0.12917277

linear.0.bias f4 [128]
0	0x3e520c09	0.20512404
1	0x3ed4be61	0.41551498
2	0xbf96631e	-1.1748998
3	0xbf38e305	-0.72221404
4	0xbf57f618	-0.84359884
5	0x3ddaae7e	0.10677813
6	0x3e85d0d2	0.2613588
7	0xbfa2f848	-1.273202
8	0xbfa3dc17	-1.2801541
9	0x3f241e2b	0.6410853
10	0xbf682ed0	-0.9069643
11	0xbf42ffb6	-0.76171434
12	0x3f1b2801	0.60607916
13	0x3f15c983	0.5851061
14	0xbf88c1b5	-1.0684115
15	0xbf5a7eba	-0.8534962
16	0xbfcf6f73	-1.6205887
17	0xbf21bd8c	-0.6317985
18	0x3f42a79f	0.7603702
19	0xbfe5328b	-1.790605
20	0xbbdcf4c1	-0.006743044
21	0xbf82cb0c	-1.0218215
22	0xbf2784ee	-0.6543721
23	0xbdf6d829	-0.12052948
24	0x3f128567	0.57234806
25	0x3f28557a	0.65755427
26	0xbf82f3b6	-1.0230625
27	0xbdb3ccad	-0.08779273
28	0xbf1b6982	-0.6070787
29	0xbf53b55a	-0.82698596
30	0x3eec5f07	0.4616625
31	0xbf07b1ac	-0.5300548
32	0xbfc34e14	-1.5258203
33	0xbf219287	-0.6311421
34	0x3e099404	0.1343537
35	0xbf95185b	-1.1648058
36	0x3e675d4f	0.22594188
37	0x3f170b03	0.5900118
38	0x3e9feea4	0.31236756
39	0x3f0b4029	0.54394776
40	0xbf9e9f9e	-1.2392461
41	0xbef2bd57	-0.4741008
42	0xbeee0e19	-0.4649513
43	0x3c8bb293	0.017052924
44	0xbfb2a07c	-1.3955226
45	0x3e7bf5a2	0.2460542
46	0xbf48648e	-0.78278434
47	0x3f410380	0.75395966
48	0x3f241751	0.6409808
49	0xbfc50e4a	-1.5394986
50	0x3f051d1e	0.51997554
51	0xbf73129f	-0.9495029
52	0xbef09e7d	-0.46995917
53	0x3e21d56a	0.15804067
54	0xbf9df5e8	-1.234067
55	0xbeab677a	-0.33477384
56	0xbf49b794	-0.78795743
57	0x3eb24931	0.34821466
58	0xbf98b2cb	-1.1929563
59	0xbff613f6	-1.9224842
60	0xbf4fa7eb	-0.811156
61	0xbe270977	-0.16312204
62	0x3d766976	0.06015917
63	0x3f00b6ff	0.5027923
64	0xbfbe393c	-1.4861217
65	0x3f164467	0.58698124
66	0x3e87dacc	0.26534116
67	0xbdd2d916	-0.10295312
68	0xbd6f203c	-0.05838035
69	0xbf805546	-1.0026023
70	0xbde198cc	-0.11015472
71	0x3eb78268	0.3584168
72	0xbf80c2d4	-1.0059457
73	0xbf86da4d	-1.053537
74	0xbd98a090	-0.074525
75	0xbfbce74e	-1.4758089
76	0xbe86a0a3	-0.2629443
77	0x3ec278ab	0.37982687
78	0xbfd6b05d	-1.6772572
79	0xbfd49c88	-1.661027
80	0x3e009dea	0.1256024
81	0xc00419fc	-2.064086
82	0xbfe5e406	-1.7960212
83	0xbfc240a3	-1.5175976
84	0xbf30bf04	-0.69041467
85	0x3f0b65dd	0.54452306
86	0xbfac9fc8	-1.3486261
87	0xbe7a9dcf	-0.24474262
88	0xbf6c1bf1	-0.92230135
89	0xbe0ab5f9	-0.1354598
90	0xbeae624a	-0.34059364
91	0x3e3968af	0.1810634
92	0xbfd5c64b	-1.6701139
93	0xbf78584e	-0.9700974
94	0x3ebaf6b8	0.36516356
95	0x3e86fb5d	0.2636365
96	0xbf54599c	-0.82949233
97	0x3eb66cd1	0.35629895
98	0xbd4260d6	-0.04745563
99	0x3d36b22d	0.044603515
100	0xbf2bc40c	-0.6709602
101	0xbf9b0045	-1.2109457
102	0x3d2e4c54	0.04255326
103	0xbf56d444	-0.8391764
104	0x3eba60e2	0.3640204
105	0x3e03050b	0.12794892
106	0x3ee24a39	0.44197252
107	0x3e9ce4ff	0.3064346
108	0xbf941130	-1.1567745
109	0xbea7cf28	-0.32775235
110	0xbf0d3d9a	-0.5517212
111	0xbf571437	-0.8401522
112	0xbf8a591c	-1.0808444
113	0xbfcdcf20	-1.6078835
114	0x3eed0fc0	0.4630108
115	0xbeca5ec2	-0.3952542
116	0xbf83bc67	-1.0291871
117	0x3d8a8e4f	0.067654245
118	0xbf4818cf	-0.78162855
119	0xbfdfcca0	-1.7484322
120	0xbf99384e	-1.1970308
121	0xbf987186	-1.1909645
122	0x3ebea4c3	0.37235078
123	0xbf02e047	-0.5112347
124	0xbf1f9c9a	-0.6234833
125	0x3ef7a6ba	0.4836939
126	0x3ef598e6	0.47968215
127	0xbeb6ecb2	-0.3572746

linear.2.weight f4 [64, 128]
0	0xbdefbfed	-0.11706529
1	0x3d3c784f	0.046013173
2	0xbe8d68b5	-0.27618948
3	0x3e8c8100	0.2744217
4	0x3ecce70b	0.40020022
5	0xbe68a591	-0.22719409
6	0x3d9eaf50	0.07748282
7	0x3d0cdd13	0.03439052
8	0xbe4c6d42	-0.19963554
9	0x3dfc4244	0.12317327
10	0xbcf650ce	-0.030067828
11	0x3f9bfa66	1.218579
12	0xbcfac718	-0.030612513
13	0xbce519c8	-0.027966395
14	0xbf00324b	-0.5007674
15	0xbecb588a	-0.39715987
16	0xbf658fa2	-0.8967229
17	0xbda9b053	-0.08285584
18	0x3e1e7fee	0.15478489
19	0xbe9a6d7d	-0.30161658
20	0xbe18b83c	-0.1491403
21	0xbf918fa4	-1.1371961
22	0x3d832af6	0.064046785
23	0x3d8b1e23	0.067928575
24	0x3e1ae71c	0.15127224
25	0x3e9eba40	0.31001472
26	0x3ea4a938	0.32160354
27	0xbcb4d8a4	-0.022075959
28	0xbf6a0955	-0.9142049
29	0xbf398367	-0.7246613
30	0x3e696b9f	0.2279496
31	0xbf0babdb	-0.54559106
32	0xbd86c50c	-0.065805525
33	0xbdd3ebe2	-0.103477255
34	0xbd8ef81a	-0.06980915
35	0x3d8ef3db	0.069801055
36	0x3e004053	0.12524538
37	0x3e161fac	0.1466052
38	0x3cce53b9	0.025186406
39	0x3d99d074	0.075104624
40	0xc00e9488	-2.2278156
41	0x3d8228d4	0.063554436
42	0xbee4bbf2	-0.4467464
43	0x3de864b3	0.11347332
44	0x3aee2bc3	0.0018171001
45	0x3e076642	0.13222602
46	0x3f49c265	0.7881225
47	0x3e0d2091	0.13781954
48	0x3e9ba4e7	0.30399248
49	0xbf501ab9	-0.81290776
50	0x3cb018be	0.021496173
51	0xbf9fd2ab	-1.2486166
52	0xbde95501	-0.11393166
53	0xbdf70260	-0.12061
54	0xbf82ef46	-1.022927
55	0xbd2f3a18	-0.042780012
56	0x3f4942d2	0.78617585
57	0x3d4a0f9d	0.049331296
58	0xbead9a33	-0.33906707
59	0xbf20223c	-0.6255224
60	0xbd2cc981	-0.042184357
61	0x3dac43d3	0.08411374
62	0xbcf58107	-0.029968752
63	0x3e2c7b0f	0.16843818
64	0xbf133dfa	-0.57516444
65	0x3da38b32	0.07985534
66	0x3e1fc42c	0.15602177
67	0xbf0e219f	-0.5552005
68	0x3e4085bf	0.1880102
69	0x3e7e7ea4	0.24852997
70	0xbe297657	-0.1654905
71	0x3e2bca97	0.167765
72	0xbed1386a	-0.40863353
73	0xbf33f3f4	-0.7029412
74	0xbe4c25be	-0.19936273
75	0x3ebb5091	0.36584905
76	0x3df8b8fe	0.121446595
77	0x3e0dc371	0.13844086
78	0xbf70a161	-0.93996245
79	0xbf528c5a	-0.8224541
80	0x3e840a04	0.2578889
81	0xc0699e0a	-3.650271
82	0x3e530149	0.20605959
83	0xc0982277	-4.754207
84	0xbf306e47	-0.6891827
85	0x3e5418b9	0.20712556
86	0xbeb98f93	-0.3624235
87	0xbe4299d6	-0.19003996
88	0xbe4cfc8b	-0.20018212
89	0xbe9671d2	-0.29383713
90	0x3e3575ea	0.17720762
91	0xbe82a166	-0.25513762
92	0xbf3e7c09	-0.7440801
93	0xbfddd32d	-1.7330071
94	0x3e352707	0.17690669
95	0x3e3e21e6	0.18567619
96	0xbcd3d78a	-0.025859613
97	0x3e2c8509	0.16847624
98	0x3e3105db	0.1728739
99	0x3ea26feb	0.31726012
100	0xbbfbdb9d	-0.007686092
101	0x3f4f18c4	0.80897164
102	0xbe1cab0e	-0.15299627
103	0xbf6f1244	-0.93387246
104	0xbee31127	-0.44349024
105	0x3e388b5c	0.18021911
106	0x3d78e2fd	0.060763348
107	0x3dcc9e7a	0.099911645
108	0xbe9fd539	-0.31217363
109	0xbdbbfe46	-0.09179358
110	0xbe8cc97d	-0.27497473
111	0x3e64a6a1	0.22329189
112	0xbe462b26	-0.19352397
113	0xbf87cf4d	-1.0610138
114	0x3db76c59	0.089562126
115	0x3de92aa2	0.11385085
116	0x3ecd16bd	0.4005641
117	0xbe61e1f2	-0.22058848
118	0x3ddb610b	0.10711869
119	0xc0331ac3	-2.7985084
120	0xbf925c3b	-1.1434397
121	0x3e274473	0.16334705
122	0x3d7dc4c5	0.061955232
123	0x3ccd9ca4	0.025099106
124	0x3e625dea	0.22106138
125	0x3a42f404	0.0007436874
126	0x3e36927e	0.1782932
127	0x3d3eef3d	0.046614874
128	0x3c7e6da9	0.015529075
129	0x3befe0b0	0.007320486
130	0xbfae93fa	-1.3638909
131	0xbeaa807f	-0.3330116
132	0x3e2ddf58	0.1697973
133	0x3d66e119	0.056367014
134	0x3e26db69	0.16294636
135	0x3ff23128	1.8921251
136	0x3f4ea146	0.80714834
137	0x3e7ebb72	0.24876192
138	0xbe013252	-0.12616852
139	0x3f63ba71	0.8895636
140	0x3e2fb1bd	0.17157646
141	0xbce47726	-0.027888846
142	0xbe9f070c	-0.31060064
143	0x3dbde86b	0.09272846
144	0xbfdecbc7	-1.7405938
145	0xbda2adde	-0.07943319
146	0x3d3c28c2	0.045937307
147	0x3f0a5d48	0.54048586
148	0xbdd1fa61	-0.10252834
149	0xbef751ea	-0.48304683
150	0x3f16632c	0.58745074
151	0xbdc8c71a	-0.098036006
152	0x3e28ac39	0.16471948
153	0x3e4161f7	0.18885027
154	0x3ed95ecc	0.42455137
155	0x3d119398	0.035541147
156	0xbeabecb0	-0.33579016
157	0xbf23b3ba	-0.63946116
158	0x3dd6c94b	0.10487612
159	0xbf39104d	-0.722905
160	0xbfad617e	-1.3545377
161	0xbfac193e	-1.3445203
162	0x3bf0b677	0.0073459703
163	0x3e4f9526	0.2027174
164	0x3e115ab6	0.1419476
165	0xbcdf5b1e	-0.027265128
166	0x3e0812ef	0.13288473
167	0x3e79ee7b	0.2440738
168	0xc0516aa9	-3.272135
169	0x3f86475b	1.0490526
170	0xbeab9001	-0.33508304
171	0xbdb99215	-0.09061066
172	0xbe027366	-0.12739334
173	0x3dab9773	0.08378496
174	0x3f02bb4b	0.51067036
175	0xbd4c4a09	-0.049875293
176	0x3e34ecbd	0.17668433
177	0xbfeb2f8e	-1.8373888
178	0x3db22581	0.086985596
179	0xbf772053	-0.965337
180	0xbf09951f	-0.53743166
181	0xbc1b68ff	-0.009485482
182	0x3f2bac2c	0.6705959
183	0xbd0a80a7	-0.0338141
184	0x3f6a4f17	0.9152693
185	0x3d4c36b3	0.049856853
186	0xbecd9219	-0.40150526
187	0xbf9132c2	-1.1343615
188	0xbf4bbce0	-0.79585075
189	0x3ec4986f	0.38397548
190	0xbda2db85	-0.07952026
191	0x3e4eedfa	0.20207968
192	0x3eba68c4	0.36408055
193	0x3e56647a	0.20936766
194	0x3d0eae73	0.034834336
195	0xbe17c861	-0.14822532
196	0x3e568f9e	0.20953223
197	0xbf8c60c8	-1.0967035
198	0x3ef2558a	0.47330886
199	0x3e0e9409	0.13923658
200	0xbf06c7aa	-0.52648413
201	0xbd2b0274	-0.041750386
202	0xbef9be4a	-0.48777992
203	0x3cd00f65	0.025397966
204	0xbf2fd3de	-0.6868266
205	0xbe653b82	-0.22385982
206	0xbbd9527b	-0.006632147
207	0xbf09474c	-0.53624415
208	0x3cb44618	0.02200608
209	0xc0002bf0	-2.0026817
210	0x3f591efb	0.848129
211	0xbe994687	-0.2993662
212	0xc04f2cea	-3.2371163
213	0x3e0efb12	0.13962963
214	0xbf837e84	-1.0272985
215	0x3d54f3b8	0.05199024
216	0xbfed8bfd	-1.8558346
217	0x3ea086f5	0.31352964
218	0xbd470433	-0.04858799
219	0xbe614155	-0.21997578
220	0xbfdf9af4	-1.7469163
221	0x3f318f64	0.6935942
222	0x3df82f17	0.12118357
223	0xbc0b1c20	-0.008490592
224	0x3e9b114d	0.30286637
225	0xbdab8f0c	-0.083768934
226	0xbed4f5b0	-0.41593695
227	0x3e4f8054	0.20263797
228	0xbd70af40	-0.05876088
229	0xbf8cc760	-1.0998344
230	0x3b373067	0.0027952434
231	0x3ebda1b9	0.37037447
232	0x3e28fbd2	0.16502312
233	0xbde91fe7	-0.11383038
234	0x3e3a4a0c	0.18192309
235	0x3df1ddb3	0.11809864
236	0xbe14dab7	-0.14536558
237	0x3e935eac	0.28783166
238	0xbf3bc2be	-0.7334403
239	0x3df7462a	0.120739296
240	0xbedc9558	-0.4308269
241	0xbf365a86	-0.7123188
242	0x3e5fcb46	0.21854886
243	0x3e2b3917	0.16720997
244	0xbfb878c5	-1.4411856
245	0xbef2607a	-0.4733923
246	0xbcc62d8e	-0.024191644
247	0xbff7a8c6	-1.934838
248	0xbf0fd226	-0.56180036
249	0xbf1d2d95	-0.6139768
250	0xbe842773	-0.25811347
251	0xbe94db05	-0.2907335
252	0xbf79115b	-0.9729211
253	0xbd7c094d	-0.061532307
254	0x3d786058	0.060638756
255	0xbea8899e	-0.32917494

linear.2.bias f4 [64]
0	0x3ec772dc	0.38954818
1	0x3eb45fad	0.35229245
2	0x3cf73b42	0.030179624
3	0x3eb91b7d	0.36153784
4	0xbd878761	-0.06617618
5	0x3cfa7c96	0.030576985
6	0x3eb4503e	0.3521747
7	0xbdb1bc01	-0.08678437
8	0x3e9b6732	0.3035217
9	0x3e9720d5	0.29517236
10	0x3da9ed37	0.08297198
11	0xbd6b857c	-0.057500347
12	0x3efca224	0.49342453
13	0x3efb6a3b	0.49104485
14	0x3ede89f6	0.4346463
15	0xbc75b15b	-0.014995898
16	0x3de8da39	0.11369748
17	0x3c8e7889	0.01739146
18	0x3ed6bb85	0.4193994
19	0x3ef4ac51	0.47787717
20	0xbcbaae08	-0.022788063
21	0xbdae3c05	-0.085075416
22	0x3caea110	0.021317035
23	0xbd75a4c2	-0.05997158
24	0x3c9b3232	0.018944833
25	0x3e52a7b5	0.20571788
26	0x3d9884b5	0.07447187
27	0x3cdc887e	0.026920553
28	0xbd65b29b	-0.056078535
29	0xbd8b27a3	-0.067946695
30	0xbd9c0810	-0.07618725
31	0xbd06f61b	-0.03294955
32	0x3edcfbf5	0.43160978
33	0xbd94b27f	-0.07260608
34	0x3ba6b552	0.005087533
35	0x3ea2e984	0.31818783
36	0xbdb978b7	-0.09056228
37	0x3c882c37	0.016622646
38	0x3eb6ba4d	0.3568901
39	0xbe19c568	-0.15016711
40	0x3ec38c98	0.38193202
41	0xbda13160	-0.07870746
42	0xbcff287a	-0.03114723
43	0x3ebffb7f	0.37496564
44	0x3edd18f7	0.4318311
45	0x3ed5a293	0.41725597
46	0x3e94d3fc	0.2906798
47	0x3e95afdd	0.29235736
48	0xbe35c617	-0.17751347
49	0x3ef77933	0.48334655
50	0x3ead5682	0.33855063
51	0xbba07119	-0.004896295
52	0x3ece3a60	0.40278912
53	0x3ebf2c9b	0.3733872
54	0x3f0518a5	0.5199073
55	0xbd0b6e8e	-0.03404098
56	0xbd2d6edc	-0.042342052
57	0x3ef954be	0.48697466
58	0x3ec5e062	0.38647753
59	0x3ed1d831	0.40985253
60	0x3ec74522	0.38919932
61	0xbbc041d8	-0.005867224
62	0xbdcf2992	-0.10115351
63	0x3cea494f	0.02859941

linear.4.weight f4 [3, 64]
0	0xbe2f2ffa	-0.17108145
1	0xbedb2cbc	-0.42807567
2	0xbfd8d8cb	-1.694116
3	0xbed01418	-0.4064033
4	0x3b2d7a75	0.0026470695
5	0xc002f3ce	-2.0461307
6	0xbd33a3fe	-0.043857567
7	0x3d574ace	0.052561574
8	0xbe91a491	-0.28445867
9	0xbedf8c6c	-0.4366182
10	0x3fcb8546	1.5900047
11	0xbda40064	-0.08007887
12	0xbf196de5	-0.5993331
13	0xbed479f8	-0.41499305
14	0xbcb1a09b	-0.021683028
15	0xbd930d39	-0.071802564
16	0x3f5b9d89	0.85787255
17	0x3da6c744	0.08143476
18	0xbe89904e	-0.26867908
19	0xbeedd22e	-0.46449417
20	0xbd0a7a02	-0.033807762
21	0xbd03f530	-0.03221625
22	0xbd08db38	-0.03341219
23	0x3d9156d6	0.07096641
24	0xbd32b22c	-0.04362695
25	0xbf521aa9	-0.8207193
26	0x3f3365df	0.7007732
27	0xbc9c5c21	-0.0190869
28	0xba2aedee	-0.00065204396
29	0x3dfa7517	0.12229364
30	0xbd2a2d72	-0.041547246
31	0x3fbbcda8	1.4672136
32	0xbf196646	-0.5992168
33	0xbb066740	-0.002050832
34	0x3d9d2c87	0.076745085
35	0xbe99eeed	-0.30065098
36	0x3dbc4bbd	0.091941334
37	0x3d4fb56c	0.050710127
38	0xbda1891c	-0.0788748
39	0x3c4b8b4d	0.012423349
40	0xbe090b09	-0.13383116
41	0x3d95beb7	0.073117666
42	0xbb2780d0	-0.0025558956
43	0xbe9dc843	-0.3081685
44	0xbeec3776	-0.46136063
45	0xbe0fc2ec	-0.140392
46	0xbf0f667c	-0.56015754
47	0xbee4f01c	-0.4471444
48	0xbe950327	-0.29103968
49	0xbea0aa6a	-0.31380016
50	0xbecf1cd7	-0.4045169
51	0x3d452dfa	0.04813955
52	0xbe835d00	-0.2565689
53	0xbef62e88	-0.48082376
54	0xbe8646b0	-0.26225805
55	0xbff2e016	-1.8974636
56	0xbf940af9	-1.1565849
57	0x3e6f037e	0.23341176
58	0xbf254637	-0.64560264
59	0x40445f7e	3.0683284
60	0xbee01b96	-0.43771046
61	0xbfbbc5bf	-1.4669722
62	0xbc37c4e2	-0.011216374
63	0x3d83b3e0	0.06430793
64	0xbe0d4b7b	-0.13798325
65	0xbed02eca	-0.40660697
66	0xbfa23624	-1.2672772
67	0xbeb3f400	-0.35147095
68	0xbdae64b0	-0.08515298
69	0xbfb6689b	-1.4250673
70	0xbec17e5f	-0.37791726
71	0x3c8975b8	0.016779765
72	0xbe92f793	-0.2870451
73	0xbe4ba347	-0.19886504
74	0x400ca2b9	2.1974318
75	0x3cba1caf	0.022718756
76	0xbe53e4cd	-0.2069275
77	0xbebcdfb1	-0.36889413
78	0xbed71ce0	-0.42014217
79	0x3d8c05c9	0.06837041
80	0x3f9ffe18	1.2499418
81	0xbd0ecbd8	-0.03486237
82	0xbf19a343	-0.6001474
83	0xbef2acc2	-0.4739743
84	0xbc84e7ab	-0.01622375
85	0xbc49c8e4	-0.012315962
86	0x3d9fd0eb	0.0780352
87	0xbc30f56e	-0.0108007025
88	0x3db64408	0.08899695
89	0xbf972f69	-1.1811343
90	0x3f911bf6	1.1336658
91	0xbd5f97bb	-0.05458806
92	0x3d557a75	0.052118737
93	0x3e92fb71	0.2870746
94	0x3d233885	0.039848823
95	0x3fd1dd19	1.6395599
96	0xbf1610a0	-0.5861912
97	0x3c390779	0.0112932855
98	0xbda59f86	-0.08087067
99	0xbe465f0e	-0.19372198
100	0x3b92f9ad	0.00448533
101	0xbb47d7be	-0.0030493583
102	0xbec36097	-0.3815963
103	0x3e03b1d6	0.12860808
104	0xbed97867	-0.42474672
105	0xbd0f3098	-0.034958452
106	0x3cfbe90a	0.03075077
107	0xbe823438	-0.25430465
108	0xbec4c79e	-0.38433546
109	0xbea88829	-0.32916382
110	0xbe8488b7	-0.25885555
111	0xbe8a6bbf	-0.2703533
112	0xbf289003	-0.65844744
113	0xbd5bc0db	-0.05365072
114	0xbe3a5ac4	-0.18198687
115	0x3dc1b9f2	0.094592944
116	0xbec4f32d	-0.38466778
117	0xbdd60a52	-0.10451187
118	0xbee746f2	-0.45171314
119	0xbfe42f4c	-1.7826934
120	0xbf68458d	-0.90731126
121	0xbe32c52d	-0.17458029
122	0xbed72248	-0.42018342
123	0x3fbb8ec5	1.4652945
124	0xbecfc8e1	-0.40582946
125	0xbffdf735	-1.9841067
126	0xbcb84dd5	-0.02249805
127	0x3d6507da	0.05591569
128	0xbf053e9f	-0.5204868
129	0xbecd0b4c	-0.4004768
130	0xbffa0ac2	-1.9534533
131	0x3d5f9ec0	0.054594755
132	0x3d604a60	0.05475843
133	0xbf941240	-1.156807
134	0xbeec91d9	-0.46205023
135	0xbe0271c1	-0.12738706
136	0xbe5cc988	-0.21561253
137	0xbe96ff98	-0.29491878
138	0x4046d844	3.1069498
139	0xbcd4c6fe	-0.025973793
140	0xbde12d0d	-0.10994921
141	0xbed145ba	-0.4087351
142	0xbeeb57ed	-0.4596552
143	0x3c130c09	0.008975037
144	0x3f821186	1.0161598
145	0xbd8ac3cb	-0.06775626
146	0xbeb24ce6	-0.34824294
147	0xbd92aa47	-0.07161384
148	0x3d80f4e7	0.062967114
149	0x3c964575	0.018343667
150	0x3cec42a7	0.028840376
151	0xbd9e805d	-0.07739327
152	0x3d008b79	0.03138301
153	0xbfae192b	-1.3601431
154	0x3f1fb287	0.62381786
155	0x3de50bd4	0.11183897
156	0x3d950c0e	0.0727769
157	0x3e83e29d	0.2575883
158	0x3dcf582f	0.101242416
159	0x3f897271	1.073805
160	0xbf1a6f81	-0.6032639
161	0x3d6f5de4	0.05843915
162	0x3d517172	0.05113358
163	0xbf0ee88a	-0.55823576
164	0xbcdd7a05	-0.027035723
165	0xbde0025d	-0.10937951
166	0xbec362bb	-0.38161263
167	0xbcb87b78	-0.022519812
168	0xbe95bc96	-0.29245442
169	0x3cbd4a8e	0.02310684
170	0x3dcce039	0.100037046
171	0xbeb35014	-0.35022032
172	0xbdd2f83a	-0.10301252
173	0xbefe08c6	-0.4961607
174	0xbee56b41	-0.4480839
175	0xbea7958b	-0.3273128
176	0xbf067e92	-0.5253688
177	0xbec0342d	-0.37539807
178	0xbe6bcaa9	-0.23026527
179	0xbc84b9a1	-0.016201796
180	0xbe7688ac	-0.24075574
181	0x3c520cc9	0.012820431
182	0xbef75aa9	-0.48311356
183	0xbfbcbc34	-1.4744935
184	0xbf9429fd	-1.1575314
185	0xbeb63f9b	-0.35595402
186	0xbe888d3b	-0.2667025
187	0xbec5447a	-0.38528806
188	0xbe86a922	-0.26300913
189	0xc01a6a52	-2.4127393
190	0x3d44c01f	0.048034783
191	0xbd8bf984	-0.06834701

linear.4.bias f4 [3]
0	0xbe0b1964	-0.13583905
1	0xbd9560a4	-0.07293823
2	0xbdf74bb2	-0.120749846
