model/model_0.pth (torch, 39383 bytes, 6 tensors)

linear.0.weight f4 [128, 6]
00000000: 849c 4a3e 14a4 013e 24af 5c3e 0636 8b3e
00000010: dcc2 9e3d a6d2 bdbe 08d8 953e 048f 98be
00000020: 6819 c63d 8e52 6ebe f095 7e3d f20f 89be
00000030: 247c 383e 3ccd 323e ae80 a93e 94fc 0d3e
00000040: 546d a8be f840 1ebe 2c3a 543e 00ec a33d
00000050: 0aec cc3e 1870 c6bd 22df d0be 3894 a33e
00000060: d83c cb3e 705f febd 82f3 a63e c8b6 23bd
00000070: a01e c13d a2fc 16be 18fd d43d d237 10be
00000080: 1b38 38be 0a8c 9d3e e3e1 72be 742f 1e3e
00000090: 8b47 60be 645b debd 4081 c23b e4a2 333e
000000a0: 506a 76be 8072 613c 7049 683e 24b1 96be
000000b0: 44ab ac3d 22e0 a83e a850 593d 28a3 723e
000000c0: 5876 693e d01f f33d f0ae a33c d4d7 85bd
000000d0: 805c 43bd 2ae5 2ebe 0060 abb8 d916 6ebe
000000e0: 8349 91be 9655 953e a402 72be 463d aa3e
000000f0: c8ac 803e 0b8f bcbe 78a4 f43d 4085 7e3e
00000100: 445a 3abe 3604 52be 3704 a9be 88d5 543e
00000110: 19b1 9dbe 7c86 c5be 1b4c 50be 3825 62bd
00000120: 470b b7be 1863 92be 7356 4dbe 84b6 eebd
00000130: 888e 71be 1e0b 08be 0096 4bbd 2563 93be
00000140: 3000 38bd 487b 9dbe d47a 2c3e 6eeb 84be
00000150: cf77 a6be 3425 343e 2ccc 95be 10d6 cfbe
00000160: 388e 0a3e b06c 6e3e 2878 7abd d2de 74be
00000170: e496 f8bd fd22 6bbe e29f a8be 0401 6f3e
00000180: 7ad4 00be c89d 69bd 601e b63e f58a 7fbe
00000190: f4f5 87be 703d a4be 5ae4 a03e 625b 60be
000001a0: 5004 9d3d 0637 01be ba17 0abe 1c37 9dbd
000001b0: 38d5 33be 28b2 683e e087 55bc 3871 ae3e
000001c0: e5a6 41be 180a 2a3e 12d0 19be b0be bf3d
000001d0: 938a 7bbe b08d 013d 6af4 b9be e0f0 68bc
000001e0: 409f df3c 50b6 b93e 40a1 02bd 1044 253e
000001f0: a084 ddbd 048f 4b3e 360d 27be 2b3a 47be
00000200: c0af d63d eca6 983e 4bc7 acbe 805d 813c
00000210: 283e 503e 4417 d6bd a0b9 99bd 2024 f53c
00000220: 5ccf b83e 8c76 ecbd 5c28 1b3e 4447 b4bd
00000230: 4adf 3abe a869 e73d f8bb 393d e6be b3be
00000240: 3e54 803e 203b 04bd a008 af3d 5034 c13e
00000250: c10b 2cbe 120f ac3e e029 7abc ccf2 693e
00000260: c000 453c a03a f43c 0c95 453e 080e 9a3d
00000270: 08c2 d23d 97bb 8bbe 865c bebe d0b3 2e3d
00000280: 57a0 96be 1c20 923e 8a27 1bbe 3820 cc3e
00000290: 80c3 193e 9269 a43e 18c4 3f3e 2006 443c
000002a0: 194a 29be 3333 3fbe 7f71 7fbe eca8 bcbd
000002b0: 0040 73bd 8838 7f3d 2c25 cbbd d3af cfbe
000002c0: c068 2a3d d6fd bdbe 7061 ec3c deec ad3e
000002d0: d8d7 04bd 122a acbe dccf aa3d c092 513c
000002e0: d232 c13e 1cb2 2ebe 94e5 1b3e a421 963d
000002f0: 7ea1 a1be 7025 883e bcb4 8f3d 7462 f0bd
00000300: 6ee0 61be 0b23 c5be da76 8c3e a096 9d3e
00000310: fc3f efbd 4095 a13d 60d0 203e 8c24 6c3e
00000320: 309a fd3d 3aad c73e 8d52 78be 8815 c23e
00000330: d4a6 3b3e d047 a13e 726d b93e 6428 783e
00000340: 98a3 49be 784d b33d d8b8 2ebd 470f 90be
00000350: 9246 c03e d487 babe 0822 e23d 0652 59be
00000360: 6064 4abe 8cec b63e d0b3 74be 15fb 4ebe
00000370: 4ea0 a6be 86d3 9ebe a0c1 5f3e 9c67 893e
00000380: 74d5 5ebe 9457 5c3e d8f6 a1be 80a2 18bc
00000390: b0af aebe f089 b5bc acc4 843e 28bb 7d3d
000003a0: 6053 d43c 70d1 d83d 50d0 1c3e 0029 33be
000003b0: 15ff b3be 9aee be3e d853 f33d 742b a63e
000003c0: 8844 0bbe c06e c53c 1f84 24be b16c 38be
000003d0: 009e 6a3e d310 afbe 0cf0 9bbd f80e 55be
000003e0: 000c 5b3a ae25 4bbe 1499 363e bc79 993d
000003f0: a77f 4ebe 288c cabd b4aa 0f3e fcd7 c8bd
0.19786268 0.12660247 0.21551186 0.27189654 0.0775201 -0.37074775 0.2926638 -0.29796612
0.096728146 -0.2327368 0.06215471 -0.26769978 0.18016106 0.17461103 0.33105987 0.13865882
-0.3289591 -0.15454471 0.20725316 0.08003998 0.40023834 -0.09689349 -0.40795237 0.3194902
0.39694858 -0.12420547 0.32607657 -0.039969236 0.094296694 -0.1474481 0.10399836 -0.14083794
-0.17990153 0.30770904 -0.23718981 0.1544779 -0.21902291 -0.10857275 0.005935818 0.17542607
-0.24063993 0.013760209 0.22684264 -0.29432023 0.08431104 0.329835 0.053055435 0.23695052
0.22799051 0.11871302 0.019980878 -0.065353066 -0.047695637 -0.17079607 -8.171797e-05 -0.23250903
-0.28376397 0.2916686 -0.2363382 0.33249873 0.25131822 -0.36827883 0.119454324 0.24855518
-0.18198496 -0.20509419 -0.33011028 0.2078458 -0.30799177 -0.38579166 -0.20341532 -0.055211276
-0.3575079 -0.28591228 -0.20052509 -0.11655906 -0.23589528 -0.13285491 -0.049703598 -0.2878658
-0.044922054 -0.3075812 0.1684373 -0.2596087 -0.32513282 0.17592317 -0.29257333 -0.40593004
0.13530815 0.23283648 -0.061149746 -0.23913124 -0.12138155 -0.22962566 -0.3293448 0.23340231
-0.12581053 -0.057035238 0.3557005 -0.24955352 -0.26554835 -0.32078123 0.31424218 -0.2190986
0.07666838 -0.12618646 -0.13485613 -0.07676527 -0.17561805 0.22724211 -0.013032883 0.34070754
-0.18911321 0.16605413 -0.15020779 0.09362543 -0.2456458 0.031629264 -0.36319286 -0.014217585
0.027297616 0.36271906 -0.03189206 0.16139245 -0.10816312 0.19878775 -0.16313633 -0.19455783
0.104827404 0.2981485 -0.33745798 0.015791655 0.2033621 -0.10453656 -0.07506108 0.029924452
0.36095703 -0.115460485 0.15152115 -0.08802655 -0.1824924 0.11299449 0.045345277 -0.3510658
0.25064272 -0.03228295 0.08546567 0.37735224 -0.16801359 0.33605248 -0.015268773 0.22846526
0.012024105 0.02981311 0.19295138 0.075222075 0.10290915 -0.27291557 -0.37179965 0.04265195
-0.29419205 0.28540123 -0.15151802 0.3986833 0.15015984 0.32111794 0.18727148 0.011964351
-0.16532172 -0.18671875 -0.24945639 -0.09211907 -0.059387207 0.06230977 -0.09919199 -0.4056383
0.041603804 -0.37107724 0.028855056 0.33969778 -0.032432407 -0.33625847 0.08340427 0.012791336
0.37734085 -0.17060131 0.15224296 0.07330635 -0.3156852 0.26591063 0.07016894 -0.117375284
-0.2205827 -0.38503298 0.27434427 0.3077898 -0.11682126 0.07889795 0.15704489 0.23060817
0.123829246 0.3899935 -0.2425024 0.37907052 0.18325359 0.315001 0.36216313 0.24234158
-0.19691312 0.0875501 -0.04265675 -0.28136656 0.3755384 -0.36431754 0.11041647 -0.21222696
-0.19764853 0.35727346 -0.23896718 -0.20212968 -0.32544178 -0.31020755 0.21851206 0.2683686
-0.21761113 0.21517783 -0.3163364 -0.009316087 -0.34118414 -0.0221605 0.259313 0.061946064
0.025918663 0.10586822 0.1531384 -0.17496109 -0.3515555 0.37291414 0.11881226 0.32455027
-0.13600361 0.024100661 -0.16066025 -0.18010212 0.22911835 -0.34192523 -0.07614145 -0.20806491
0.0008355975 -0.19838592 0.17831832 0.07493922 -0.20165883 -0.09890014 0.14029962 -0.09806821

linear.0.bias f4 [128]
00000000: f8e5 5d3d e85e 8d3d 24c7 a4be 8460 c73e
00000010: 6047 123e 66b8 a73e 1000 a0bd 0090 63bd
00000020: e3bd 29be 8097 653d a260 8fbe f2b4 c23e
00000030: 9787 48be e05a 7e3d f352 c9be ed9c a0be
00000040: d0a1 c83d a8b6 853d dca3 073e d00f 59bd
00000050: ffb8 46be c00f c6be 2a21 0bbe 128a b93e
00000060: 6832 5b3d 0a38 82be 802b a03e 9c54 1fbe
00000070: 81b5 bdbe cc9a 86be 2b0d 96be 9e6b 9e3e
00000080: ec5e 8abd b83a c2be b862 9d3d a466 773e
00000090: dee2 a43e e848 02be f229 b0be fcfc 3e3e
000000a0: 7c69 2d3e ee65 8b3e 081c 8ebd 0884 4d3d
000000b0: 6c9c 40be f482 9f3e 0787 6dbe cc6b 5a3e
000000c0: 9c74 2c3e 2090 943d eeac babe 3fa7 d0be
000000d0: 8c50 cabe 7888 1a3e fca2 fabd 3c53 ac3e
000000e0: 9621 73be 002a ce3e 009d 753b 48ca d43d
000000f0: 2072 0ebd 3baa c3be c052 cfbc 524c afbe
00000100: a821 b2be 84cb 98bd 2472 4f3e 6e71 0dbe
00000110: 735c 3dbe cc6c 393e e047 f93d 8811 aebd
00000120: 868f b63e 1c82 483e 46e1 13be ff3f a1be
00000130: b01f 763e 6c4b bd3e b0a9 9b3e 3c94 303e
00000140: dc81 073e 400a 2abd 027e 6dbe 606a 09bc
00000150: a33a 75be 187a 8f3d 245c ac3e f874 4e3e
00000160: bc33 a13e 5ca0 61be 985a b9be 22f0 27be
00000170: 28b1 503d 80b0 3cbd fd85 c0be b28b c3be
00000180: 2856 23be 6e8c b63e 0430 053e 3a5a 853e
00000190: d0d1 8f3e 1419 97be f469 b3bd 3472 073e
000001a0: 20cf 4c3c d0a5 0b3e 6877 a43d 0ee5 ce3e
000001b0: 3069 11be e8e3 cabd 94aa 9b3d cc84 8fbd
000001c0: bb24 c1be d08f af3e d9d5 98be 00e3 81be
000001d0: e0ba 91bc 245b efbd 9da1 95be 5065 c5bc
000001e0: 16a0 b53e 38db 8d3e 5941 9dbe de41 863e
000001f0: c83d 443e 4072 19bd 92d7 85be 48b4 9d3d
0.054174393 0.069028676 -0.32183182 0.38940823 0.1428504 0.32757872 -0.07812512 -0.05555725
-0.16576342 0.056052685 -0.28003412 0.38028675 -0.19582973 0.062098384 -0.39321098 -0.31369725
0.09796488 0.065289795 0.13246101 -0.052993596 -0.19406508 -0.3868389 -0.1358687 0.36238152
0.053514868 -0.2543338 0.31283188 -0.1555962 -0.3705254 -0.26289976 -0.2930692 0.3094148
-0.06756386 -0.37935424 0.07684845 0.24160248 0.32204336 -0.12723124 -0.34407002 0.18651193
0.1693477 0.27226204 -0.0693894 0.050174743 -0.1880967 0.31154597 -0.2319604 0.21330184
0.16841358 0.07254052 -0.3646006 -0.407526 -0.39514577 0.15091121 -0.12238118 0.33657253
-0.23743281 0.40266418 0.0037477612 0.103901446 -0.034776807 -0.38215813 -0.025308013 -0.34237915
-0.34791303 -0.074606925 0.20258385 -0.13812801 -0.18492298 0.18107909 0.12171912 -0.084994376
0.35656375 0.19580883 -0.14441404 -0.31494138 0.24035525 0.36971605 0.304029 0.17244047
0.13233131 -0.04151368 -0.231926 -0.008387178 -0.2394815 0.070057094 0.33664048 0.20161808
0.31484783 -0.22033828 -0.3620193 -0.16400197 0.0509502 -0.04606676 -0.37602225 -0.38192517
-0.15950835 0.35654014 0.13006598 0.260454 0.28089762 -0.2951132 -0.08760443 0.13227159
0.012500554 0.13637471 0.080305874 0.4040913 -0.14200282 -0.09906751 0.076008946 -0.07007751
-0.37723336 0.34289408 -0.29850653 -0.253685 -0.017789304 -0.116873056 -0.29224864 -0.024096161
0.35473698 0.27706313 -0.3071392 0.26222128 0.19164193 -0.037462473 -0.2614103 0.077004015

linear.2.weight f4 [64, 128]
00000000: 1f16 65bd cae8 4e3d 72d0 173d f26b 52bd
00000010: 1826 bebc a443 b03c 5614 6b3d da76 703d
00000020: dc4f b2bc 7c4a a13c a034 39bc 7ee3 653d
00000030: 8e42 2b3d 02c9 43bd 35be 96bd 490c 933d
00000040: c024 1f3c 9a19 473d 951f 62bd a474 8bbd
00000050: f804 d63c 213a 933d ec1d af3c 1d93 a03d
00000060: f4f2 f03c a87f 973c 10c2 a3bc 92db aebd
00000070: 9606 00bd 0018 203c 1dcd 8f3d 38ce 973c
00000080: 53f6 9abd 3ca2 d83c a84e bebc 20f5 b1bc
00000090: bbfe 55bd bc98 97bc fa57 643d 673a 863d
000000a0: f6bf 533d 409e 1a3c 01cb 95bd e2df 163d
000000b0: 329f 563d 1ba0 873d 2446 92bc deee 3f3d
000000c0: 1600 35bd bd44 aa3d 4053 faba 5ab1 053d
000000d0: b01e e13b 00b8 75b9 40cc 97bc 6424 89bd
000000e0: d05d 7e3c e14b 51bd 6ff0 4fbd 707f de3c
000000f0: e820 2c3c e8dc 44bc 0020 3bb8 1aa3 253d
00000100: 4e7c 433d ff1d 943d 1f60 933d 709b 79bc
00000110: e8a2 6dbc 8e62 72bd 2921 9abd 3a73 613d
00000120: 0042 793a 4642 6dbd 1739 863d 60a7 c9bb
00000130: c004 92bb aa48 613d 90ce 9ebd 707c 463c
00000140: 64a8 22bd 2669 7cbd f73b 9d3d a0f0 cd3c
00000150: ee09 1b3d 604a 05bb ba6e 733d 3aaf 2c3d
00000160: beaf 2ebd f419 f63c 1624 a6bd d8e1 8abd
00000170: 5e6a 103d 78f0 3ebd 768c 173d 4e96 5a3d
00000180: cf41 953d de09 733d 6dd3 78bd 5899 ad3c
00000190: 375b abbd e7e7 89bd 943c d83c bed0 543d
000001a0: 25f5 72bd 40d6 96bd 465f 81bd 94c2 ea3c
000001b0: 081e a0bd 42c3 f6bc aa61 8ebd 7796 a9bd
000001c0: a33a adbd c85b c93c b4e5 81bc ec27 95bc
000001d0: 7069 b0bb 8ac4 163d 46b9 0bbd 3da6 2cbd
000001e0: a002 f03b 9c0c 76bd 1022 7ebd 2573 64bd
000001f0: ad06 1bbd dc8c a1bc 40bd 043b a9e8 aa3d
00000200: 9870 10bc 20f3 96bb 008f a539 a06f 243b
00000210: 3070 adbb cc01 893c 74a9 a7bc a057 b1bd
00000220: f5b0 a83d c8f6 c23c 36f4 783d fa4b 243d
00000230: 8238 77bd 601a fd3c aefc a8bd 00ed 813a
00000240: 9085 ffbb 0089 cebb 5e0e 8fbd 5a19 473d
00000250: 18fd 1d3c 040e 93bc 2db2 abbd a8d3 89bc
00000260: 98b2 203c d5ba 93bd 00ba 3bbb 8075 333a
00000270: 9fc7 05bd b07d 74bc 00b6 c13a 6a65 72bd
00000280: 225c 1f3d 0146 65bd 893f 873d 0092 d239
00000290: 90cf 8b3c 705f 5b3c 4027 74bb c07a 053c
000002a0: e1e6 51bd c11e 823d b46c b0bc a433 ac3c
000002b0: fe75 06bd 00a4 f838 406e 39bb aace 00bd
000002c0: 7b09 4abd 2137 18bd 7b9d 8cbd fb7d 4dbd
000002d0: 016b 923d d8e1 8a3c 20a7 2fbc a25c 7f3d
000002e0: 0695 3c3d a888 50bc 2c44 f03c 4eb6 163d
000002f0: 2733 a93d db94 ab3d 6214 2dbd 0ded 9e3d
00000300: 086a 8d3c 10fa efbb 4004 74bb e862 18bc
00000310: b342 8bbd eaed 94bd c2eb efbc a8fd 063d
00000320: bd83 ad3d 2821 c33c aa3e 173d 408c 62bb
00000330: 4068 5a3c 89e4 16bd 8ef8 513d bd87 81bd
00000340: 4d60 9e3d 7f99 b1bd 0e6e 113d 2c6d a1bd
00000350: cc4e 05bd 3c0e 87bc ba6a afbd d549 23bd
00000360: 0748 9b3d 26a2 7f3d 3085 6b3c bdf1 85bd
00000370: 40c0 80bd 3136 a63d 8075 7ebb a839 313c
00000380: 939a 89bd 33f7 883d adde 00bd c0f9 45bb
00000390: d66f 0c3d 402c 78bc e45f a5bd 08d3 543c
000003a0: 4f0c a8bd 001a ea3c 10fe 283c 709f b3bb
000003b0: 4a69 583d c416 eb3c f40d 97bd 88c6 6f3c
000003c0: 99df 9d3d 4f24 13bd c2e7 583d 854a 46bd
000003d0: d5ab 4bbd d026 e2bb 002a 74bb d632 733d
000003e0: 1e63 d4bc e8f5 233c ae5b 7e3d ab4c 7ebd
000003f0: 18a1 29bc 4455 153d 5cc5 8c3c 02e8 b0bd
-0.0559293 0.050514974 0.037064023 -0.051372476 -0.023211524 0.021516629 0.05739244 0.058707096
-0.021766596 0.019688837 -0.011304051 0.056125157 0.04181152 -0.047799118 -0.07360498 0.071800776
0.009713352 0.0486084 -0.0552059 -0.06809357 0.026125416 0.071888216 0.021376573 0.0784056
0.029412724 0.018493488 -0.019989997 -0.085379735 -0.03125628 0.009771347 0.07021544 0.01853095
-0.07566514 0.026444547 -0.023230866 -0.02172333 -0.052244883 -0.018505447 0.055747963 0.06554108
0.05169674 0.009437144 -0.073141105 0.036834605 0.052397914 0.066223346 -0.017855711 0.04685866
-0.044189535 0.08313892 -0.0019098297 0.03263984 0.0068701133 -0.00023433566 -0.018530011 -0.06696394
0.015525296 -0.051097754 -0.050766405 0.027160376 0.010505892 -0.012015559 -4.4614077e-05 0.04043875
0.047725968 0.07232284 0.07196068 -0.015234813 -0.014504172 -0.05917602 -0.07525856 0.05504153
0.0009508431 -0.05792453 0.06553858 -0.006153986 -0.0044561327 0.05500094 -0.077542424 0.012114629
-0.03971137 -0.061623715 0.07677453 0.025139153 0.037851267 -0.002033852 0.05943177 0.042159297
-0.04264807 0.030041672 -0.081123516 -0.067813575 0.03525769 -0.046616048 0.03699919 0.053365998
0.072879426 0.059335582 -0.060748506 0.021191284 -0.08367007 -0.06733685 0.026396073 0.051956885
-0.05931582 -0.07365084 -0.06317 0.028657235 -0.07818228 -0.030122403 -0.06952222 -0.08280652
-0.0845845 0.024579898 -0.015856601 -0.018207513 -0.005383663 0.036808528 -0.034112237 -0.042150725
0.0073245317 -0.06007062 -0.062044203 -0.055773873 -0.037848163 -0.019720487 0.0020254403 0.08345158
-0.008815907 -0.0046066195 0.00031577796 0.0025090948 -0.005292915 0.01672449 -0.020466544 -0.08659291
0.08236877 0.023799315 0.060779773 0.04011152 -0.060356624 0.030896366 -0.0825132 0.000991255
-0.0077979043 -0.0063029528 -0.06985162 0.04860816 0.009642862 -0.01795102 -0.08383594 -0.016824558
0.009808205 -0.0721337 -0.00286448 0.0006845817 -0.032661077 -0.014922544 0.0014778972 -0.059178747
0.038906224 -0.055974964 0.06603915 0.000401631 0.017066747 0.013389453 -0.003725484 0.008146942
-0.051245574 0.06353522 -0.021536209 0.021020718 -0.03282737 0.00011856109 -0.0028294474 -0.03144709
-0.049325448 -0.03716195 -0.068659745 -0.050168972 0.071493156 0.016953394 -0.010720998 0.0623442
0.046040557 -0.012727894 0.029329382 0.036794953 0.0826171 0.08378001 -0.042255767 0.077600576
0.017262474 -0.007323511 -0.0037233979 -0.009300925 -0.06799831 -0.07271941 -0.029287223 0.03295675
0.08472393 0.023819521 0.036924995 -0.0034568459 0.013330519 -0.03683904 0.05126243 -0.06324718
0.07733212 -0.08671855 0.035505347 -0.07882151 -0.03254585 -0.01648628 -0.08565278 -0.039865334
0.075820975 0.062410496 0.014375016 -0.065402485 -0.06286669 0.08115805 -0.003882736 0.010816969
-0.06718936 0.066877745 -0.03146236 -0.0030208677 0.034286343 -0.015147269 -0.0807493 0.012989767
-0.08205473 0.02857685 0.0103144795 -0.005481653 0.052834786 0.028697379 -0.07375708 0.014634736
0.077086635 -0.0359233 0.052955396 -0.04841091 -0.04972442 -0.0069015995 -0.003725648 0.059374653
-0.025926169 0.010007359 0.06209915 -0.062084835 -0.010353349 0.03645827 0.017183952 -0.08638002

linear.2.bias f4 [64]
00000000: fe31 5d3d 5cb2 a73c e819 d5bc 6888 8b3c
00000010: 8b21 9b3d 0ec3 f8bc 30a9 4abd c34a b03d
00000020: 7222 e0bc 0089 d9b9 4e3b 2a3d 2609 39bd
00000030: 4cdc 9dbd 7434 93bc e6dc 4bbd a4ae 99bd
00000040: fe5d 773d de3d 77bd 3812 d93c 3ccf fb3c
00000050: 044b 14bd 468b 7a3d d6f7 493d 998b 8cbd
00000060: 865d 5a3d 04a7 e23c 5c39 d0bc 89d1 a53d
00000070: 08f5 95bd 70df 4a3c 18c5 ef3c 6064 7d3b
00000080: c223 763d 00c3 eb3a 4db1 a13d a469 083d
00000090: 8d77 973d 464f fabc 318a aebd 48e6 c3bc
000000a0: 388c c73c 3ba1 20bd 35a3 40bd e61f 693d
000000b0: 5504 aa3d b641 93bd 2750 9a3d 28ae 5b3c
000000c0: 6423 a73c 1078 05bd fcea 95bd a63b 40bd
000000d0: 7d34 b0bd 6028 1fbd 98df fa3c 4abc 80bd
000000e0: d0db 95bc 20bb 033c 7708 883d 5dbb 2abd
000000f0: 28b7 4dbd ccdf e8bc 8c84 80bd 00d1 cd39
0.054002754 0.02047079 -0.02601333 0.017032817 0.07574757 -0.030366447 -0.049477756 0.0860801
-0.027360175 -0.00041491538 0.041560464 -0.04517474 -0.07708034 -0.017969348 -0.049771212 -0.07504013
0.060392372 -0.060361736 0.026497945 0.030738465 -0.036204353 0.061167978 0.04930862 -0.06862564
0.053311847 0.02766753 -0.025417976 0.08096606 -0.073221266 0.012382373 0.029268786 0.0038664564
0.060092695 0.0017987192 0.078951456 0.03330387 0.073958494 -0.030555379 -0.08522452 -0.023913518
0.024358854 -0.03921626 -0.047030646 0.056915186 0.083016075 -0.07190268 0.07534819 0.013408221
0.020402618 -0.032585204 -0.0732021 -0.046931885 -0.08603761 -0.038856864 0.030624196 -0.06285913
-0.018293291 0.00804022 0.066422395 -0.04168259 -0.0502235 -0.028427027 -0.06275281 0.00039256364

linear.4.weight f4 [3, 64]
00000000: 9050 44bd f417 bfbd 6239 b93d ca16 bbbd
00000010: 0047 6fba 94a6 7f3d 8a3e fd3d b05d 093c
00000020: 4019 d2bd c0d1 79bd 7cae ddbd 60d7 babd
00000030: fc96 0e3d 5e25 f63d f075 bd3c 2c32 7abd
00000040: 80a6 173b 80be 213b 206f fe3d 3030 50bd
00000050: d2d0 ae3d 045b da3d cce4 e6bd e024 7d3c
00000060: 7ca8 673d 7044 4e3c c4e1 a43d 0049 f6ba
00000070: 4847 a0bd 906e f13c 30dd 583d ca2a c03d
00000080: acf1 c0bd 7035 d03c 6cfd 4d3d f0b5 763d
00000090: 16c0 99bd f86c 4bbd d084 8abc dc80 8d3d
000000a0: 728c e7bd 60a7 6abd b8fb f43d c830 7e3d
000000b0: a825 a83d c4ff 30bd 1eb1 ffbd 7632 cf3d
000000c0: 008d 32ba b67b bbbd 48c3 c73c 4845 8c3d
000000d0: 1020 c33c 58d9 a9bc d43b 65bd 480a 8b3d
000000e0: 7a77 8d3d 7e80 d2bd 4c36 0f3d 808d 153d
000000f0: 5af9 f0bd 9011 33bc 10e6 2bbc 5477 e73d
00000100: 3c0d 473d 285a ac3c 62a1 90bd 5e87 a73d
00000110: 442d 1b3d 6c6d 2fbd 7800 593d 3a32 d6bd
00000120: 206c cf3b e4f1 57bd 787e 0f3d b078 c43d
00000130: 003e cdba e032 e13c 3072 00bc 821e 9d3d
00000140: 6418 7e3d 0004 8fbd 9886 08bd 28a5 1cbd
00000150: 5c93 513d f047 f03d 4036 343c 54e4 78bd
00000160: c02c 73bb 1a34 b2bd 6026 4a3d 94b3 bc3d
00000170: 448e 0e3d 0c26 563d 3442 113d b043 16bd
00000180: 20e8 4c3d d690 f43d b865 efbd c033 a63d
00000190: b6e3 d43d 28b3 4ebd 68df c0bd a851 8e3c
000001a0: aef4 abbd 180a e93d 5a07 e13d 1aa3 d5bd
000001b0: bc06 e7bd 8485 e0bd f2c2 913d b439 823d
000001c0: c687 eb3d dc27 dd3d 9296 a73d 8ac1 9a3d
000001d0: 606c 20bc 86b7 8ebd a87e a2bc 1820 23bd
000001e0: f05d 163c 8898 2d3d b43b e8bd 1c1c 8e3d
000001f0: c2f6 f5bd 50e2 3cbc 1ccb 803d e67a e23d
00000200: b860 ad3d 44b5 3dbd 34ac 443d e44e 043d
00000210: e074 b4bb 00e3 b13d 04c7 8f3d 300e 5e3d
00000220: e675 dbbd 40ae 743b 80d7 0cbb 00b0 4abb
00000230: 906c e8bc cccc c6bd 00b5 d4bc 10bc a23c
00000240: 60d8 86bd d8c7 943d 0cb8 fcbd a859 9bbc
00000250: 2037 ac3b 70b3 72bd 40a3 4fbd 88bf 443d
00000260: fae9 b4bd 2e8a a63d 7eac ba3d 6a6d 903d
00000270: 129c debd 00ce 783a 90d1 4dbc b860 fdbd
00000280: 5895 a6bc 749d 06bd 8e99 81bd c0fd 8ebc
00000290: e034 c8bb ce9d f9bd 80b0 943d a001 c63d
000002a0: 52c9 873d c081 d1bc 1042 783d 645e ec3d
000002b0: b03d 0c3c 1a2f f6bd 00c4 56bc 1c09 98bd
000002c0: 622f fdbd 88c8 d63c 4008 ebbb 104b b4bc
000002d0: a006 71bc 3280 883d c6f0 d53d 4002 543b
000002e0: 6cf4 18bd 60f4 db3d 3cf5 823d 9436 59bd
000002f0: eca5 0abd ac95 5b3d 8e27 993d 80ab f43d
-0.047928393 -0.093307406 0.09044148 -0.09135206 -0.0009127706 0.06241472 0.12365444 0.008384153
-0.10258722 -0.06099105 -0.10824296 -0.09123111 0.03481196 0.12018846 0.023127526 -0.061083004
0.0023140013 0.0024680197 0.12423539 -0.050827205 0.08535923 0.10661891 -0.11274108 0.015450686
0.056557164 0.012589559 0.08050874 -0.0018790066 -0.07826096 0.029471666 0.052945316 0.09383161
-0.09421095 0.025416106 0.05029051 0.060232103 -0.075073406 -0.049664468 -0.016909033 0.069093436
-0.11306085 -0.057288527 0.11962074 0.06205824 0.08210307 -0.043212667 -0.12484954 0.101170465
-0.0006811172 -0.09154455 0.02438511 0.06849152 0.023819 -0.02073352 -0.05596526 0.0678907
0.06907554 -0.10278414 0.03496389 0.036511898 -0.1176631 -0.01092948 -0.010491863 0.11302057
0.048596606 0.021039084 -0.07062031 0.08180116 0.037884966 -0.042828962 0.052978963 -0.10458799
0.006330028 -0.05272092 0.03503272 0.09593332 -0.0015658736 0.02749008 -0.007839724 0.076718345
0.06203498 -0.06983185 -0.033331484 -0.038243443 0.051165923 0.11732471 0.010999262 -0.060764626
-0.003710553 -0.08701344 0.049353004 0.09213939 0.034803644 0.052282378 0.035463527 -0.036685646
0.05002606 0.11941688 -0.11689323 0.08115339 0.10394995 -0.050463825 -0.09417611 0.017372921
-0.08396278 0.11378878 0.1098773 -0.104315 -0.11280581 -0.10962966 0.07117261 0.06358662
0.11500506 0.10798618 0.08183016 0.07556446 -0.009791464 -0.06968598 -0.019835785 -0.03982553
0.00917767 0.042381793 -0.113395125 0.06938955 -0.12009956 -0.0115285665 0.0628874 0.11058597
0.08465713 -0.046315446 0.04801579 0.0323018 -0.0055070966 0.08685875 0.07020381 0.05421275
-0.10715847 0.0037335306 -0.0021490753 -0.0030927658 -0.02837208 -0.09707031 -0.025965214 0.019865066
-0.06584239 0.0726468 -0.12339792 -0.01896365 0.005255595 -0.059253156 -0.050692797 0.04803422
-0.0883369 0.081318244 0.091149315 0.07052119 -0.10869612 0.00094911456 -0.012562171 -0.12371963
-0.020334885 -0.032865003 -0.06328116 -0.017454982 -0.006109819 -0.12188302 0.07260227 0.09668279
0.06630196 -0.025574565 0.060609877 0.11541441 0.008559629 -0.12020703 -0.0131082535 -0.074236125
-0.12362553 0.026218668 -0.0071726143 -0.022008449 -0.014711052 0.06665076 0.104463145 0.0032349974
-0.037342474 0.1073997 0.06394431 -0.053030565 -0.03384964 0.053609535 0.074782476 0.119467735

linear.4.bias f4 [3]
00000000: b84c 71bd ee49 95bd d00c 6b3c
-0.058911055 -0.072894916 0.014346316
