model/model_500.pth (torch, 39383 bytes, 6 tensors)

linear.0.weight f4 [128, 6]
0.25815597 0.71259016 -0.3448479 -0.68249595 -0.0064597856 0.1249225 0.31896344 -0.61010855
0.4892814 0.13122675 0.18912365 0.07148581 -1.3233937 0.1245539 -0.9450211 -0.49447766
-0.4297269 -0.2590362 -1.6544963 -0.17336975 -0.13725863 -0.51653934 -0.026314415 0.09839836
-0.9720994 -0.46472427 -0.5534865 -0.12667511 0.7420313 0.048740044 0.48359185 -0.18787007
0.4557241 0.40174022 0.26112708 -0.14942019 -0.32165822 -0.8079238 -0.71769255 0.020078445
-0.09616677 0.0063140183 -0.55907613 0.5718594 0.741804 0.43930906 -0.7056978 -0.41667885
0.037164662 0.33189955 -1.3581218 -0.09967716 -0.33171582 0.031985883 0.35781357 -0.035938572
0.07732001 0.44387293 -0.20961466 -0.06892023 0.07789579 -0.06305704 -0.21343057 -0.88784885
0.7977932 0.44343337 -1.3069956 0.4415674 -0.009663072 0.62612724 0.24873462 0.25580192
-0.00616349 0.40566543 0.044553585 0.061086215 -0.21230769 -0.056439698 0.019603174 0.34063497
0.62520605 0.046469346 -0.07848059 0.27400267 -0.34951308 1.0632191 -0.9795958 0.29309615
-0.19096284 0.2640426 -1.3827251 1.0354518 -0.5165717 0.4953318 0.2164759 0.19156368
-1.3208851 0.69425416 0.29983285 0.033870816 -0.19997855 -0.34095135 -0.91155577 -1.3113112
-0.104944535 -0.44498062 0.6779739 0.27083257 -0.017245403 0.20857312 0.041618608 -0.056425914
0.21492669 0.12327336 -0.3428811 0.39179134 -1.1753323 -0.690935 0.62584203 0.30920792
0.60029227 -0.4587699 0.5343508 -0.64872307 -0.25768894 0.1961301 -0.8638714 -0.975477
-0.28148392 -0.57917845 -0.39420044 -0.42738813 -0.86142147 0.4452109 -0.5179794 0.38042873
0.17501298 0.33795884 -0.41500124 1.4817455 -0.48792395 -0.2796852 0.06075099 0.45501995
0.4694376 0.37720177 0.32311055 0.28804353 -0.00028507021 -0.12174137 0.064310744 0.47841874
0.13688244 -0.22528501 -0.029608754 -0.06650967 -1.401075 0.4427689 -0.08956176 -0.41598174
-0.40115687 -0.45396116 -0.11883976 0.32955414 -0.92956465 0.34491438 0.5753672 -0.1303337
-0.22391085 -0.07416217 0.101117894 0.18949294 -0.6122452 -0.33236712 -0.8287658 0.18027782
-0.49659672 -0.26886916 0.18622947 0.4439651 0.33312535 -0.76800036 -0.012202643 0.24896812
0.13657792 0.108554326 -0.7369318 0.25902864 -0.041632444 0.29667386 -0.6961164 -0.14471185
-0.7951838 0.09336431 -0.28480598 -0.90248907 -0.17463255 0.29636535 -2.0262444 -0.5846473
0.46909168 0.36378533 0.20445213 -0.03435145 0.1648243 -1.3243161 0.04143527 0.68109024
0.1723158 -0.3174122 -0.17429376 1.1233827 -1.3877084 -0.2651987 -0.043191157 0.31284824
1.0956129 -0.46916744 0.1568921 -0.12927425 0.15267418 0.14926435 0.79429406 -0.31629914
-0.26666602 0.19798179 -0.11752076 -0.0154611515 0.37196925 0.5673338 0.6229612 0.2177634
-0.29598126 -0.062805146 0.018466042 0.41113254 0.10601467 0.5082218 0.022350306 -0.03018277
-0.8328175 0.41083232 0.020993259 0.12743667 -0.4197874 -0.36242542 -1.4857205 -0.5025249
-0.13520433 -1.2550062 -0.4580317 -0.017877866 -0.5482018 1.4264162 -1.312858 -0.19814709
00000000: 052d 843e 4f6c 363f e78f b0be 0eb8 2ebf
00000010: 9cac d3bb 5ed7 ff3d 2d4f a33e 1330 1cbf
00000020: 1783 fa3e 4e60 063e a1a9 413e 2767 923d
00000030: f764 a9bf 1d16 ff3d e7ec 71bf 2d2c fdbe
00000040: 2a05 dcbe 65a0 84be 89c6 d3bf d787 31be
00000050: 878d 0cbe ec3b 04bf 5491 d7bc 1485 c93d
00000060: 82db 78bf 57f0 edbe 4bb1 0dbf 1fb7 01be
00000070: c3f5 3d3f a4a3 473d 5a99 f73e 0361 40be
00000080: ab54 e93e e5b0 cd3e 73b2 853e 9b01 19be
00000090: 63b0 a4be 18d4 4ebf b3ba 37bf 8d7b a43c
000000a0: 15f3 c4bd d3e5 ce3b 9d1f 0fbf 6165 123f
000000b0: dee6 3d3f 1eed e03e 9ca8 34bf ee56 d5be
000000c0: f939 183d bdee a93e efd6 adbf 8a23 ccbd
000000d0: a8d6 a9be a103 033d 5733 b73e 5334 13bd
000000e0: f459 9e3d 5043 e33e 3aa5 56be 0d26 8dbd
000000f0: d487 9f3d 0d24 81bd 8b8d 5abe 104a 63bf
00000100: 2d3c 4c3f b309 e33e a24b a7bf 1f15 e23e
00000110: dd51 1ebc e049 203f 4ab4 7e3e 78f8 823e
00000120: 1af7 c9bb 61b3 cf3e d27d 363d 8a35 7a3d
00000130: 3067 59be 502d 67bd d696 a03c b567 ae3e
00000140: 810d 203f a456 3e3d 6eba a0bd 144a 8c3e
00000150: 61f3 b2be 9017 883f cac6 7abf b310 963e
00000160: c38b 43be 9730 873e 23fd b0bf af89 843f
00000170: 0b3e 04bf 219c fd3e dcab 5d3e 4529 443e
00000180: c312 a9bf a4ba 313f b183 993e 20bc 0a3d
00000190: 2dc7 4cbe 2d91 aebe b85b 69bf 0cd9 a7bf
000001a0: 29ed d6bd 80d4 e3be b38f 2d3f 91aa 8a3e
000001b0: 3b46 8dbc 3194 553e 4678 2a3d dc1e 67bd
000001c0: be15 5c3e be76 fc3d 1d8e afbe e098 c83e
000001d0: 4a71 96bf 1ee1 30bf 2f37 203f 8050 9e3e
000001e0: c1ac 193f e3e3 eabe 37cb 083f b712 26bf
000001f0: ceef 83be 54d6 483e ad26 5dbf dcb8 79bf
00000200: a91e 90be 0a45 14bf a4d4 c9be 9ed2 dabe
00000210: 1e86 5cbf aff2 e33e 4c9a 04bf 8ec7 c23e
00000220: 9a36 333e f108 ad3e 0b7b d4be d6a9 bd3f
00000230: 2bd1 f9be e632 8fbe 08d6 783d 60f8 e83e
00000240: 205a f03e 9720 c13e bf6e a53e 717a 933e
00000250: 7a75 95b9 8a53 f9bd 5ab5 833d 4df3 f43e
00000260: e92a 0c3e 1db1 66be 0f8e f2bc 3936 88bd
00000270: 6d56 b3bf 9bb2 e23e 286c b7bd 8ffb d4be
00000280: 6f64 cdbe 996d e8be 4362 f3bd 52bb a83e
00000290: f3f7 6dbf 9e98 b03e 444b 133f 3376 05be
000002a0: e348 65be 56e2 97bd e616 cf3d 700a 423e
000002b0: 1abc 1cbf 062c aabe ff29 54bf c09a 383e
000002c0: ed41 febe 38a9 89be f0b2 3e3e 654f e33e
000002d0: 688f aa3e ac9b 44bf 98ed 47bc 80f1 7e3e
000002e0: 15db 0b3e bb51 de3d 90a7 3cbf 679f 843e
000002f0: c886 2abd a3e5 973e af34 32bf 582f 14be
00000300: 2a91 4bbf ca35 bf3d 17d2 91be 8609 67bf
00000310: e0d2 32be 33bd 973e fdad 01c0 72ab 15bf
00000320: c92c f03e 1242 ba3e e65b 513e 1bb4 0cbd
00000330: b4c7 283e 3183 a9bf 08b8 293d ee5b 2e3f
00000340: 8e73 303e da83 a2be 107a 32be 01cb 8f3f
00000350: 6ea0 b1bf 20c8 87be 36e9 30bd a52d a03e
00000360: 0b3d 8c3f b736 f0be 53a8 203e 7860 04be
00000370: 9f56 1c3e c1d8 183e db56 4b3f f6f1 a1be
00000380: 7388 88be bdbb 4a3e b9ae f0bd c550 7dbc
00000390: c172 be3e ca3c 113f 637a 1f3f 5efd 5e3e
000003a0: db8a 97be fc9f 80bd 1946 973c f77f d23e
000003b0: 381e d93d d31a 023f fd17 b73c db41 f7bc
000003c0: 8733 55bf 9d58 d23e 0efa ab3c c27e 023e
000003d0: 60ee d6be d38f b9be 172c bebf 79a5 00bf
000003e0: 0173 0abe 0ba4 a0bf 2283 eabe 9a74 92bc
000003f0: f456 0cbf ce94 b63f bb0b a8bf 12e7 4abe

linear.0.bias f4 [128]
0.014802594 0.5165382 -0.79758316 -1.0037017 -1.1283686 0.07095674 0.107317895 -0.95652133
-1.5339831 0.661629 -0.83495873 -0.8984583 0.5834018 0.63444024 -1.308322 -1.044054
-1.849862 -0.7774397 0.7787037 -1.978009 -0.21781372 -1.1878992 -1.3414998 -0.37411627
0.67644477 0.7014108 -0.7963557 -0.47278854 -1.3767705 -1.135276 0.49110594 -0.98240805
-1.530464 -0.56019306 0.12259947 -1.1308453 0.17472216 0.68793726 0.3900333 0.4055139
-1.3789698 -0.36140788 -0.7719891 0.13606931 -1.6539667 0.0007183787 -0.55671006 0.8315162
0.62396234 -1.7480371 0.40311643 -1.1918463 -0.9524931 0.13856214 -1.3646166 -0.36263087
-0.7566028 0.44455752 -1.4131597 -2.0761945 -0.8463717 -0.22144903 -0.029885503 0.4324986
-1.7581383 0.6209141 0.08503215 -0.768918 -0.07753129 -1.2257737 -0.0725735 0.5735867
-1.3330581 -1.353138 -0.2429506 -1.6762589 -0.24861379 0.41541037 -1.9847095 -1.6002842
0.18456297 -2.3013966 -1.9008955 -1.7670873 -0.9289969 0.6089307 -1.3805918 -0.21182512
-0.9163655 -0.33917117 -0.13580403 0.12623349 -1.808667 -1.0419605 0.4440924 0.3965851
-1.0039092 0.5910653 -0.046353966 0.0740084 -0.7305562 -1.2942976 0.053061485 -0.7367614
0.4055303 0.27928722 0.37369266 0.12608507 -1.5314344 -0.8074932 -0.68211067 -1.0591934
-0.9975072 -1.5772874 0.5223089 -0.60451216 -0.82259023 -0.5284581 -0.310467 -2.0094936
-1.2962017 -1.2231605 0.17857656 -0.7715476 -1.1951039 0.40330437 0.39984724 -0.5269375
00000000: 9486 723c d93b 043f 692e 4cbf 4c79 80bf
00000010: 626e 90bf c451 913d 7cc9 db3d 95de 74bf
00000020: 8f59 c4bf 8560 293f dbbf 55bf 5d01 66bf
00000030: d259 153f ad6a 223f 1877 a7bf 90a3 85bf
00000040: 47c8 ecbf 4a06 47bf 2059 473f 662f fdbf
00000050: 8f0a 5fbe 150d 98bf 44b6 abbf 2b8c bfbe
00000060: 7c2b 2d3f a88f 333f f8dd 4bbf 5711 f2be
00000070: 043a b0bf b950 91bf 3d72 fb3e 187f 7bbf
00000080: 3fe6 c3bf d068 0fbf 6e15 fb3d 8abf 90bf
00000090: 5eea 323e a81c 303f 72b2 c73e 859f cf3e
000000a0: 1582 b0bf 740a b9be 14a1 45bf c155 0b3e
000000b0: 2eb5 d3bf 9451 3c3a 8d84 0ebf 3fde 543f
000000c0: ffbb 1f3f aebf dfbf 4765 ce3e 6b8e 98bf
000000d0: 96d6 73bf 3ce3 0d3e c2ab aebf c1aa b9be
000000e0: b9b0 41bf 0b9d e33e 6be2 b4bf 5fe0 04c0
000000f0: d1ab 58bf 89c3 62be 71d2 f4bc 7570 dd3e
00000100: ad0a e1bf 3af4 1e3f 5625 ae3d cfd7 44bf
00000110: bac8 9ebd 27e6 9cbf 6aa1 94bd 94d6 123f
00000120: a6a1 aabf a033 adbf 0bc8 78be a78f d6bf
00000130: 9d94 7ebe abb0 d43e f60a febf 1dd6 ccbf
00000140: 13fe 3c3e 154a 13c0 8b50 f3bf eb2f e2bf
00000150: bed2 6dbf e2e2 1b3f 3bb7 b0bf afe8 58be
00000160: ee96 6abf d8a7 adbe 3610 0bbe 5a43 013e
00000170: 6682 e7bf f65e 85bf 1460 e33e 340d cb3e
00000180: 1980 80bf 0e50 173f a8dd 3dbd b791 973d
00000190: bb05 3bbf 8bab a5bf 0057 593d 659c 3cbf
000001a0: aba1 cf3e bcfe 8e3e a554 bf3e 721c 013e
000001b0: 0b06 c4bf e0b7 4ebf ce9e 2ebf a693 87bf
000001c0: a25c 7fbf 8ee4 c9bf 09b6 053f 4fc1 1abf
000001d0: 4695 52bf 0849 07bf 88f5 9ebe 8b9b 00c0
000001e0: f0e9 a5bf 8690 9cbf c6dc 363e 2584 45bf
000001f0: 2af9 98bf e97d ce3e c7b8 cc3e 60e5 06bf

linear.2.weight f4 [64, 128]
-0.1342953 0.035704315 -2.1043637 0.649095 0.17627443 -0.62789685 0.30748218 1.0115669
-0.563285 0.21537651 -0.023911683 0.72167754 -0.08126306 -0.08426388 -0.9273383 -0.7499667
-1.1169498 -0.28283435 0.12714498 -0.10126171 -0.10848111 -2.198449 0.1368018 0.19650844
0.22162998 0.24904858 -0.81096673 0.057124007 -2.5038815 -0.51310885 0.28579372 -1.5030961
-0.28702065 0.3555341 -0.3457953 0.11361008 0.17061257 0.20482841 0.012220119 -0.011624515
-2.7655327 -0.03895926 -0.34367433 0.118399754 -1.2525232 0.08332187 0.57181925 0.2138742
0.14125971 -2.7882755 0.08396192 -2.114959 0.21131024 -0.06824896 -1.5454185 -0.10677859
0.59654486 -0.1155696 -1.5383466 -3.1326857 0.2067384 -0.39884508 -0.15430726 0.12699313
-1.9259211 0.07127785 0.03664388 -0.46688256 0.12353866 0.30411416 -0.3528519 0.14673497
-0.8973341 -0.52888566 -0.57049096 0.08428965 1.1210698 -0.1750146 -1.3600811 -2.1942215
0.24703671 -4.944586 0.34802678 -4.898001 -0.24829122 0.20403506 0.55809546 -0.42433822
-0.26875794 0.07823549 0.18412751 -0.16159815 -0.17961764 -1.119878 0.18236311 0.14659612
-0.14373036 -0.019187085 -0.3278064 0.4176506 0.007467212 1.1428742 -0.060864482 -2.0102162
-0.7425547 0.10945977 0.062488712 0.013006758 -0.12898847 -0.18506275 -0.38330626 0.1253263
-0.26807436 -1.3703268 0.061509706 0.15223908 2.406669 -0.76333916 0.28722838 -5.4550505
-0.6140984 0.33091974 -0.1318717 -0.20111842 0.78057295 -0.11794994 0.1708223 -0.021048931
0.25850046 -0.06538776 -1.4651891 1.2454821 0.24018902 -0.1430523 0.22240713 2.0380406
0.7923704 0.25258532 -0.25982407 1.0905664 0.17022412 -0.17214482 -0.53914714 0.32286787
-1.2496674 -0.077865705 0.07000571 -0.075643644 -0.208111 -2.386945 0.524149 -0.16856456
0.20951048 0.21284944 0.33962488 0.20550105 -0.70551157 -0.6724545 0.068695836 -0.72447556
-1.318048 -1.3010556 -0.1536718 0.3257056 0.1620241 0.0358363 0.21264556 0.21909572
-2.5206285 1.3038222 0.13414322 -0.13099812 1.0400674 0.005345884 -0.026582954 0.009766377
0.2445784 -1.220496 -0.023844741 -1.936856 -0.5732361 0.015901502 -0.107647754 -0.18480532
0.9372162 0.24175681 -0.71790713 -2.3576384 0.31938836 0.22478645 0.13306032 0.15383399
0.38253686 0.22891305 0.16927245 0.45082757 0.13086969 -1.0582497 0.3900367 0.1013358
-0.6352447 -0.27568042 -0.5055395 0.51582265 -0.48712158 -0.42285508 -0.5196781 -1.4949797
-0.18084252 -2.3108706 0.5564301 -0.4628222 -2.496878 0.1538399 -0.32398576 -0.3937117
-1.2965491 0.6286979 -0.07564056 -0.260206 -2.3950741 1.0282468 0.16338931 -0.09253262
0.25307214 -0.22329578 -0.34792817 0.23632461 0.20307465 -1.7002279 -0.22773747 0.27474353
0.2579444 -0.26921344 -0.108237535 -0.023667768 -0.3078509 -0.20866968 -1.3967903 -0.020771582
-0.4671595 0.07414214 0.30200052 -0.09335234 -0.86559355 -0.5521567 0.060153905 -2.2482407
-0.43705764 -0.52210915 -0.3373677 -0.083827525 -2.0564477 -0.23211597 0.09237211 -0.17529406
00000000: b584 09be b03e 123d e5ad 06c0 172b 263f
00000010: 4981 343e d9bd 20bf 4e6e 9d3e 067b 813f
00000020: 7233 10bf a98b 5c3e 6fe2 c3bc dcbf 383f
00000030: 3f6d a6bd 8b92 acbd 0b66 6dbf d1fd 3fbf
00000040: 36f8 8ebf aacf 90be 4b32 023e 4d62 cfbd
00000050: 582b debd 63b3 0cc0 c515 0c3e 8239 493e
00000060: f8f2 623e 9706 7f3e 849b 4fbf ddfa 693d
00000070: 983f 20c0 1a5b 03bf 8e53 923e 7465 c0bf
00000080: 5ff4 92be 9108 b63e 150c b1be 67ac e83d
00000090: 10b5 2e3e 8abe 513e e536 483c c074 3ebc
000000a0: 7dfe 30c0 bf93 1fbd 15f6 afbe 927b f23d
000000b0: ae52 a0bf a8a4 aa3d bf62 123f d701 5b3e
000000c0: 63a6 103e 1b73 32c0 3af4 ab3d 7d5b 07c0
000000d0: b661 583e 1cc6 8bbd 46d0 c5bf bcae dabd
000000e0: 2ab7 183f c1af ecbd 8be8 c4bf ec7d 48c0
000000f0: 3bb3 533e 6c35 ccbe b902 1ebe 7d0a 023e
00000100: 9584 f6bf 1ffa 913d e517 163d 3b0b efbe
00000110: d601 fd3d dab4 9b3e 01a9 b4be b141 163e
00000120: b0b7 65bf 0d65 07bf b20b 12bf 0da0 ac3d
00000130: 377f 8f3f 0737 33be 2317 aebf 206e 0cc0
00000140: 31f7 7c3e 0c3a 9ec0 9130 b23e 6dbc 9cc0
00000150: 0e40 7ebe 91ee 503e 58df 0e3f dc42 d9be
00000160: a49a 89be ee39 a03d ec8b 3c3e fc79 25be
00000170: b0ed 37be 2a58 8fbf 65bd 3a3e 4b1d 163e
00000180: 0d2e 13be 3c2e 9dbc 3ed6 a7be 4dd6 d53e
00000190: 84af f43b b449 923f 094d 79bd 62a7 00c0
000001a0: 1118 3ebf 722c e03d 2af4 7f3d 4c1a 553c
000001b0: 8e15 04be 1781 3dbe b840 c4be 8a55 003e
000001c0: 0b41 89be de66 afbf 9af1 7b3d 90e4 1b3e
000001d0: dd06 1a40 326a 43bf 990f 933e c68f aec0
000001e0: 8e35 1dbf 506e a93e 6009 07be fdf1 4dbe
000001f0: a1d3 473f bd8f f1bd 0aec 2e3e cf6e acbc
00000200: 2c5a 843e 05ea 85bd 518b bbbf f56b 9f3f
00000210: 1cf4 753e 4d7c 12be b2be 633e 426f 0240
00000220: c9d8 4a3f dd52 813e a907 85be ae97 8b3f
00000230: 3b4f 2e3e bb46 30be 8c05 0abf f04e a53e
00000240: 1af5 9fbf 0e78 9fbd 275f 8f3d 0eeb 9abd
00000250: 0d1b 55be b5c3 18c0 a12e 063f 309c 2cbe
00000260: ea89 563e 34f5 593e 50e3 ad3e de6e 523e
00000270: 689c 34bf fa25 2cbf 67b0 8c3d 3b77 39bf
00000280: ccb5 a8bf fd88 a6bf 245c 1dbe e2c2 a63e
00000290: a5e9 253e 16c9 123d c2bf 593e a15a 603e
000002a0: fa51 21c0 a5e3 a63f d75c 093e 5f24 06be
000002b0: ee20 853f 862c af3b 7fc4 d9bc 2703 203c
000002c0: c372 7a3e 3739 9cbf 0c56 c3bc e6ea f7bf
000002d0: 9abf 12bf de43 823c 6d76 dcbd 9b3d 3dbe
000002e0: 67ed 6f3f 198f 773e c3c8 37bf 8ce3 16c0
000002f0: df86 a33e 6b2e 663e f740 083e a886 1d3e
00000300: dfdb c33e 2f68 6a3e c255 2d3e dfd2 e63e
00000310: b402 063e ba74 87bf e4b2 c73e 2589 cf3d
00000320: 669f 22bf fc25 8dbe 096b 01bf f40c 043f
00000330: 0068 f9be 7680 d8be a009 05bf 7f5b bfbf
00000340: c82e 39be 4ee5 13c0 3472 0e3f 08f7 ecbe
00000350: d9cc 1fc0 3588 1d3e 76e1 a5be 9494 c9be
00000360: 52f5 a5bf 58f2 203f 70e9 9abd b939 85be
00000370: e548 19c0 979d 833f 874f 273e be81 bdbd
00000380: ac92 813e a6a7 64be a423 b2be 14ff 713e
00000390: cdf2 4f3e 11a1 d9bf 0334 69be 2fab 8c3e
000003a0: 4a11 843e 58d6 89be a4ab ddbd e8e2 c1bc
000003b0: a29e 9dbe 81ad 55be 06ca b2bf 2a29 aabc
000003c0: 882f efbe d6d7 973d d09f 9a3e 832f bfbd
000003d0: 8a97 5dbf 245a 0dbf f163 763d 2de3 0fc0
000003e0: 05c6 dfbe f2a8 05bf 76bb acbe c4ad abbd
000003f0: d79c 03c0 cfaf 6dbe 972d bd3d 4980 33be

linear.2.bias f4 [64]
0.41389903 0.38487586 0.118190214 0.34529147 -0.06617618 -0.007798867 0.34614137 -0.08678437
0.38719463 0.33802706 0.1412775 -0.057500347 0.4407036 0.5537385 0.43617353 -0.014995898
0.11369748 0.01739146 0.4813318 0.4399695 -0.022788063 -0.085075416 -0.010355714 -0.05997158
0.018944833 0.075132586 0.07447187 0.026920553 -0.056078535 -0.067946695 -0.07618725 -0.06343011
0.4062238 -0.07260608 0.005087533 0.3196845 -0.09056228 0.016622646 0.39726424 -0.15016711
0.45243686 -0.07870746 -0.03114723 0.4487586 0.47499776 0.5086439 0.38408527 0.3431446
-0.17751347 0.5818363 0.27959222 -0.004896295 0.40538815 0.38759118 0.5554622 -0.04891027
-0.07755933 0.45686758 0.39633715 0.41841292 0.3788372 -0.037631944 -0.10115351 0.02859941
00000000: 93ea d33e 730e c53e b60d f23d 0bca b03e
00000010: 6187 87bd a38d ffbb 7139 b13e 01bc b1bd
00000020: 603e c63e e211 ad3e 0dab 103e 7c85 6bbd
00000030: e7a3 e13e cec1 0d3f 2352 df3e 5bb1 75bc
00000040: 39da e83d 8978 8e3c 1f71 f63e af43 e13e
00000050: 08ae babc 053c aebd 03ab 29bc c2a4 75bd
00000060: 3232 9b3c 1ddf 993d b584 983d 7e88 dc3c
00000070: 9bb2 65bd a327 8bbd 1008 9cbd a5e7 81bd
00000080: 91fc cf3e 7fb2 94bd 52b5 a63b b0ad a33e
00000090: b778 b9bd 372c 883c 3866 cb3e 68c5 19be
000000a0: cea5 e73e 6031 a1bd 7a28 ffbc b0c3 e53e
000000b0: e832 f33e 7d36 023f d3a6 c43e a6b0 af3e
000000c0: 17c6 35be 39f3 143f b626 8f3e 1971 a0bb
000000d0: 098f cf3e 5a72 c63e c532 0e3f 2356 48bd
000000e0: 6dd7 9ebd 8cea e93e b4ec ca3e 383a d63e
000000f0: f3f6 c13e f423 1abd 9229 cfbd 4f49 ea3c

linear.4.weight f4 [3, 64]
-0.5077261 -0.57781583 -2.3199635 -0.27340722 0.0026470695 -2.311348 -0.2626263 0.052561574
-0.6382427 -0.5983077 2.1237056 -0.08007887 -0.6741969 -0.5999763 -0.039648354 -0.071802564
0.85787255 0.08143476 -0.17183876 -0.57061803 -0.033807762 -0.03221625 -0.03341219 0.07096641
-0.04362695 -0.42192778 0.7007732 -0.0190869 -0.00065204396 0.12229364 -0.041547246 2.129569
-0.5513958 -0.002050832 0.076745085 -0.38589758 0.091941334 0.050710127 -0.07200124 0.012423349
-0.0030594855 0.073117666 -0.0025558956 -0.22089872 -0.75064117 -0.26706466 -0.67121667 -0.5517348
-0.29103968 -0.57330126 -0.7074954 0.04813955 -0.3365436 -0.60321337 -0.33757704 -2.9288628
-2.0263715 0.35853967 -0.6028459 4.042457 -0.63795716 -1.4669722 -0.011216374 0.06430793
-0.38555562 -0.64052236 -2.0927691 -0.045528956 -0.08515298 -1.3420986 -0.6737932 0.016779765
-0.24207696 -0.13408667 3.2436006 0.022718756 -0.060233068 -0.41581392 -0.6707848 0.06837041
1.2499418 -0.03486237 -0.8262639 -0.59159845 -0.01622375 -0.012315962 0.04672463 -0.0108007025
0.08899695 -1.3600401 1.1336658 -0.05458806 0.052118737 0.2870746 0.039848823 2.32325
-0.84429055 0.0112932855 -0.08087067 -0.15552518 0.00448533 -0.0030493583 -0.19961073 0.12860808
-0.67664975 -0.034958452 0.03075077 -0.41296324 -0.34235743 -0.3429125 -0.1036354 -0.25490662
-0.65844744 -0.4581964 -0.21864276 0.094592944 -0.5537214 -0.13038267 -0.6280506 -1.9484107
-3.084658 -0.41137192 -0.72881573 2.6299355 -0.78225696 -1.9841067 -0.02249805 0.05591569
-0.8614492 -0.4567074 -2.4776647 0.4549235 0.05475843 -1.5060133 -0.642119 -0.12738706
-0.5182582 -0.5143574 3.4397323 -0.025973793 -0.31957993 -0.5129503 -0.5620647 0.008975037
1.0161598 -0.06775626 -0.53192335 0.029087199 0.062967114 0.018343667 0.028840376 -0.07739327
0.03138301 -2.2207513 0.62381786 0.11183897 0.0727769 0.2575883 0.101242416 1.3974707
-0.5060762 0.05843915 0.05113358 -0.85397005 -0.027035723 -0.10937951 -0.49616143 -0.022519812
-0.49299735 0.02310684 0.100037046 -0.8296388 -0.34013206 -0.64027184 -0.5650724 -0.5798522
-0.5253688 -0.35414216 -0.40327233 -0.016201796 -0.416319 0.11235059 -0.60969216 -0.7414441
-3.244636 -0.5040726 -0.2646789 0.15314654 -0.31570292 -2.381016 0.048034783 -0.06834701
00000000: 56fa 01bf bdeb 13bf 487a 14c0 08fc 8bbe
00000010: 757a 2d3b 20ed 13c0 f476 86be ce4a 573d
00000020: e063 23bf b22a 19bf cbea 0740 6400 a4bd
00000030: 2b98 2cbf 0c98 19bf 5066 22bd 390d 93bd
00000040: 899d 5b3f 44c7 a63d 80f6 2fbe 0614 12bf
00000050: 027a 0abd 30f5 03bd 38db 08bd d656 913d
00000060: 2cb2 32bd eb06 d8be df65 333f 215c 9cbc
00000070: eeed 2aba 1775 fa3d 722d 2abd dc4a 0840
00000080: 4628 0dbf 4067 06bb 872c 9d3d 5e94 c5be
00000090: bd4b bc3d 6cb5 4f3d 6375 93bd 4d8b 4b3c
000000a0: a681 48bb b7be 953d d080 27bb 4633 62be
000000b0: 052a 40bf b3bc 88be dbd4 2bbf 7e3e 0dbf
000000c0: 2703 95be dfc3 12bf 6b1e 35bf fa2d 453d
000000d0: 714f acbe 316c 1abf e6d6 acbe 7d72 3bc0
000000e0: 12b0 01c0 8392 b73e 1c54 1abf cf5b 8140
000000f0: 2951 23bf bfc5 bbbf e2c4 37bc e0b3 833d
00000100: 8c67 c5be 46f9 23bf eeef 05c0 927c 3abd
00000110: b064 aebd e3c9 abbf b67d 2cbf b875 893c
00000120: 06e3 77be 044e 09be 2797 4f40 af1c ba3c
00000130: f3b6 76bd 90e5 d4be 8db8 2bbf c905 8c3d
00000140: 18fe 9f3f d8cb 0ebd 0886 53bf ff72 17bf
00000150: abe7 84bc e4c8 49bc 5362 3f3d 6ef5 30bc
00000160: 0844 b63d cb15 aebf f61b 913f bb97 5fbd
00000170: 757a 553d 71fb 923e 8538 233d 21b0 1440
00000180: 6d23 58bf 7907 393c 869f a5bd fe41 1fbe
00000190: adf9 923b bed7 47bb c166 4cbe d6b1 033e
000001a0: eb38 2dbf 9830 0fbd 0ae9 fb3c eb6f d3be
000001b0: 7949 afbe 3a92 afbe cc3e d4bd 1f83 82be
000001c0: 0390 28bf b898 eabe e3e3 5fbe f2b9 c13d
000001d0: b0c0 0dbf 0983 05be edc7 20bf 8665 f9bf
000001e0: 096b 45c0 579f d2be ab93 3abf dd50 2840
000001f0: fe41 48bf 35f7 fdbf d54d b8bc da07 653d
00000200: ef87 5cbf 8dd5 e9be 0f92 1ec0 bceb e83e
00000210: 604a 603d 0bc5 c0bf e961 24bf c171 02be
00000220: 92ac 04bf edac 03bf 9324 5c40 fec6 d4bc
00000230: fb9f a3be b650 03bf 79e3 0fbf 090c 133c
00000240: 8611 823f cbc3 8abd 212c 08bf 4748 ee3c
00000250: e7f4 803d 7545 963c a742 ec3c 5d80 9ebd
00000260: 798b 003d ca20 0ec0 87b2 1f3f d40b e53d
00000270: 0e0c 953d 9de2 833e 2f58 cf3d 52e0 b23f
00000280: 368e 01bf e45d 6f3d 7271 513d c89d 5abf
00000290: 057a ddbc 5d02 e0bd df08 febe 787b b8bc
000002a0: 266a fcbe 8e4a bd3c 39e0 cc3d 3563 54bf
000002b0: ca25 aebe dbe8 23bf 96a8 10bf 3271 14bf
000002c0: 927e 06bf 1f52 b5be b679 cebe a1b9 84bc
000002d0: c427 d5be 1118 e63d c914 1cbf 48cf 3dbf
000002e0: 1ea8 4fc0 e70a 01bf fe83 87be 72d2 1c3e
000002f0: d0a3 a1be 9162 18c0 1fc0 443d 84f9 8bbd

linear.4.bias f4 [3]
-0.22654599 -0.14032385 0.063694835
00000000: acfb 67be 0eb1 0fbe 7072 823d
