model/model.pth (torch, 38615 bytes, 6 tensors)

model.0.weight f4 [64, 6]
000000 43 4c 2b be 36 99 b5 3f 09 25 26 bf 11 dc 7d bf
       -0.1672831 1.4187381 -0.6490026 -0.9916392
000010 61 a8 79 3e 02 a2 ac 3e b6 d7 8b 3e 2b 8c fb 3e
       0.24380638 0.33717352 0.27313012 0.49130377
000020 3f 79 cf bd 5a 24 87 3e aa 01 c2 bc b1 83 49 bd
       -0.10130548 0.26394922 -0.023682434 -0.049197856
000030 b1 92 b1 bf d8 38 c7 3e f0 3e 12 bf d3 0c d5 bd
       -1.3872892 0.38910556 -0.57127285 -0.10402837
000040 bd 76 23 bf b3 03 38 3e 25 4c cd bf 12 c1 7b bf
       -0.63853055 0.17970161 -1.6038862 -0.98341477
000050 22 5d b8 be 72 65 b3 3c 38 25 8b 3e fa 42 57 3e
       -0.36008555 0.021898959 0.27176833 0.21021643
000060 d9 31 19 bf 96 2d cc bf fd 70 04 bf cc bb d4 be
       -0.59841686 -1.5951412 -0.51734906 -0.41549528
000070 87 ba 7f 3e 62 0c 76 bd a2 a8 14 be 66 57 ce be
       0.24973498 -0.060070403 -0.14517453 -0.40301055
000080 90 bf 80 bf 28 0f 3a 3e e9 f8 cb 3d 2f d9 e6 be
       -1.005846 0.18169844 0.09959585 -0.45087573
000090 c9 96 7d bf e9 ea c8 3e c3 0d 76 bf a4 a6 b9 be
       -0.99058205 0.39241722 -0.9611475 -0.3625995
0000a0 92 7a cb 3e d8 5b 5b be 48 39 00 c0 05 71 a2 be
       0.3974195 -0.21421754 -2.0034962 -0.31726852
0000b0 6d 8d a4 bf f4 08 8d bf fe ad b6 be 77 d4 03 bd
       -1.285566 -1.1018357 -0.3567962 -0.032185044
0000c0 7a 5d d5 3d af 36 73 bf 89 bd b8 be 4d da 6d 3d
       0.1041822 -0.95005316 -0.36082104 0.058069516
0000d0 22 ec f0 be c2 54 88 3e bd 7b 2c bf f5 b0 10 3f
       -0.47055155 0.26627165 -0.6737631 0.56520015
0000e0 ca 6e 55 3e 31 ec 31 bf 47 f9 1e 3f 91 bf 00 3e
       0.20843044 -0.69501024 0.6209912 0.12573077
0000f0 d1 70 9d 3d 64 7d c6 be df b0 6c 3e 2b 1d bf 3d
       0.07687534 -0.3876754 0.23114346 0.09331735
000100 7b 91 25 3f 89 0a ed 3e 73 e9 1d 3f fc da 12 3f
       0.6467511 0.462971 0.6168434 0.57365394
000110 a9 73 25 3f cc b2 92 3d c2 27 b1 be 8c 96 7a be
       0.6462961 0.07163009 -0.34600645 -0.24471492
000120 66 26 ff 3e 8d b0 d7 be a7 0a a3 3f cb 83 a7 be
       0.49833983 -0.42126885 1.2737626 -0.32717738
000130 23 fc 70 be a7 50 48 be b5 8d 80 bf 49 51 ca be
       -0.23533683 -0.19562016 -1.0043246 -0.3951514
000140 55 61 ce bc 16 1a 4c 3f 77 7a 76 bf 86 3b 8d be
       -0.025192896 0.79727304 -0.96280617 -0.27584475
000150 cc e7 cf bd 87 8a 25 3f 3b 9c e2 3a c3 8b bb 3d
       -0.101516336 0.646645 0.0017288992 0.09157517
000160 f4 f3 3a bf 6b a4 25 be 91 60 17 3f 0f d8 5f 3e
       -0.7302849 -0.16176002 0.59131724 0.21859764
000170 89 fb 1d 3f 91 1d a5 bd e6 10 89 3d 7b 21 86 3d
       0.6171194 -0.0806228 0.06692676 0.06549355
000180 54 92 9e bd 4a b5 bc 3f 93 97 11 bf 3a aa 87 bf
       -0.077427536 1.4742825 -0.5687191 -1.0598824
000190 2b f0 6b 3c 5d 1b ef 3e 30 dc e2 bf 7d 9d 85 bf
       0.014400522 0.46700564 -1.7723446 -1.0438687
0001a0 03 ce 85 bf d6 c9 d3 be 92 47 00 bf a3 52 e4 be
       -1.0453495 -0.41364926 -0.5010921 -0.44594297
0001b0 b1 7c df bf 3e 54 85 3f 2a 3f fc bb 9d 0e 53 3e
       -1.7459928 1.0416334 -0.0076979594 0.20611043
0001c0 93 9c 05 bf 8d c7 8c 3e 7b 24 e6 3e 3b 34 09 bd
       -0.5219204 0.27495995 0.44949707 -0.033497076
0001d0 3d 9f eb bd d6 53 d9 bc 57 b0 65 3d 5f 2e 15 3e
       -0.11504982 -0.026529234 0.056076374 0.1456847
0001e0 66 c7 ec be ff 9c 07 bf 06 0b 64 bf f5 4c 0e 3f
       -0.4624588 -0.5297393 -0.8907932 0.5558618
0001f0 dc 46 86 be 75 60 02 bf 65 93 8b bf 59 78 a2 3f
       -0.26225936 -0.5092843 -1.0904356 1.2692977
000200 2f 0a b7 be 7c 15 a4 3e 67 89 13 3f 9f ed 91 3e
       -0.35749957 0.3204764 0.57631534 0.28501603
000210 8c e9 0d bf 94 37 3e bf 44 9b c9 3e d9 29 c9 be
       -0.5543449 -0.74303555 0.3937627 -0.3928974
000220 07 71 7d 3d 9b ca c1 bd 0d b0 5b 3d b9 9d 80 3e
       0.06187537 -0.09462472 0.053634692 0.25120333
000230 02 e2 56 be 75 c7 0a 3e eb b1 8d 3e 91 23 4d 3e
       -0.20984653 0.1355265 0.27674803 0.20033099
000240 96 e7 34 bf 9f b4 92 3f 76 9f 24 3f 74 6b aa 3f
       -0.7066587 1.1461371 0.6430582 1.3314042
000250 fc 52 47 bf 06 d6 c2 be 0a 7d df be a2 25 45 3e
       -0.77861 -0.38053912 -0.43650085 0.19252637
000260 b5 4b 31 3f e9 a3 f7 bb a2 a5 3f bf b2 16 e4 be
       0.69256145 -0.0075573814 -0.7486211 -0.44548565
000270 87 1c b9 bf 88 c8 f5 3f 67 07 a0 3e 15 d3 aa bc
       -1.4461831 1.9201822 0.31255648 -0.020852605
000280 6b 7e 88 be 1d 20 26 bd 24 7d 06 bf 1d ca 1e be
       -0.2665895 -0.04055797 -0.525347 -0.15506788
000290 a1 49 18 bf a4 a5 88 3d c6 12 0b 3f c0 51 36 be
       -0.5948735 0.066722184 0.5432552 -0.17804623
0002a0 60 2f d3 bf 09 8e 13 be 92 33 38 3f bc 70 28 bd
       -1.6498833 -0.14409651 0.7195369 -0.041123137
0002b0 80 8b ac be 5f 9a 39 3b 4f 51 fc 3d 04 f2 ec bf
       -0.3370018 0.0028320772 0.12320196 -1.8511357
0002c0 5d 54 5e 3e a7 58 03 40 8a 60 41 bf 97 60 3e bf
       0.2171187 2.052286 -0.7553793 -0.74366134
0002d0 d9 9e ba bd 3b 3d 29 3f 2e 7f b6 bf e5 51 71 3f
       -0.09112329 0.66109055 -1.4257562 0.94265586
0002e0 69 35 c6 3a 87 b5 9a 3e b0 05 cb bf 4f d6 71 3e
       0.0015122119 0.3021662 -1.5861111 0.23616908
0002f0 bb b7 6b bf df 93 65 be 8f 7a 9c be 12 da cb 3e
       -0.92077225 -0.2241969 -0.30562255 0.39814812
000300 4c 7b bd bf cb b7 9e 3f 4d 4e 80 bf c3 8c 39 bf
       -1.4803252 1.2399839 -1.0023896 -0.7248041
000310 40 09 6f 3e 51 20 ac 3e 3e 4e b9 bf 58 10 03 3f
       0.23343372 0.33618405 -1.4477003 0.51196814
000320 4e 34 93 bf 7c d8 aa 3f d4 f3 0a be 0c 69 ab be
       -1.1500337 1.3347316 -0.13569576 -0.33478582
000330 0b 4f c5 bf 7b b8 85 3f 22 ad 3d 3e ec 93 52 3f
       -1.5414747 1.0446924 0.18523076 0.8225696
000340 92 c3 e7 3d ec 82 e3 3e 9c 0a 3e 3e 2c fe ce be
       0.11316599 0.44435823 0.18558735 -0.40428293
000350 ca 38 a5 3e 24 19 a3 be ce f0 63 3d c3 81 ed bd
       0.3226989 -0.31855118 0.05564957 -0.11597016
000360 11 ea df bf 17 55 50 bf fa cc 0c 3e 64 f6 b2 3d
       -1.7493306 -0.81379837 0.13750067 0.087384015
000370 4f df 16 3f 35 d3 91 3c 95 b3 33 bf 19 30 b7 3f
       0.5893449 0.017800907 -0.70195895 1.4311553
000380 be 34 6e 3f fd f9 5c bf 3e 7e 4b bd ca 47 e4 3e
       0.9304923 -0.8631895 -0.04968094 0.4458602
000390 42 bf 36 bf fd 8b af be 15 86 6e be 5a 54 08 bb
       -0.71385586 -0.3428649 -0.23293336 -0.002080223
0003a0 19 48 63 3f be e0 8d 3e 79 12 71 3f e4 81 fc 3d
       0.8878189 0.27710527 0.9416881 0.12329462
0003b0 08 01 90 3d 61 f2 f3 3e fe d2 4d be 7c 9b 59 bb
       0.07031447 0.47645858 -0.20100018 -0.0033204248
0003c0 0d d7 8e 3e a2 1b 96 bf d7 62 ef 3d 2a 5a 5d 3f
       0.27898446 -1.1727183 0.11688774 0.86465704
0003d0 cb 8a b9 bd 36 0b 70 be fc 57 c2 bf 5a 40 87 bf
       -0.09059676 -0.23441777 -1.5183101 -1.0566514
0003e0 6e f8 34 bf f6 41 49 3f 9d db 0a 3e 54 53 bb be
       -0.70691574 0.78616273 0.13560338 -0.36587012
0003f0 02 82 17 3d 31 3a 1b 3f 99 a8 02 bf 4f 0c 2d be
       0.03698922 0.6063567 -0.5103851 -0.16899227

model.0.bias f4 [64]
000000 95 3f ff 3d b3 55 41 3f 02 ed 14 c0 56 fb 99 3e
       0.12463299 0.7552139 -2.3269658 0.30074567
000010 80 12 b9 be 1f e5 ad bf 6f 4b 59 bf 78 67 8d bf
       -0.36146927 -1.3585547 -0.8488073 -1.1047201
000020 bb 61 8b bf 83 88 05 bf 84 59 ec be 28 99 85 be
       -1.08892 -0.52161425 -0.46162045 -0.2609341
000030 84 1a c5 3e 38 9d 99 bf 14 c6 e2 be c1 3f 30 3f
       0.38496792 -1.2001104 -0.44291747 0.6884728
000040 0f 08 1f bf 45 77 8e bf cf 14 46 bf ea fb 4f 3f
       -0.6212167 -1.1130148 -0.773755 0.81243765
000050 c1 0b 7b 3d b1 0f b9 bf e0 27 22 3f 8a ba 5a 3f
       0.061290506 -1.4457914 0.63342094 0.85440886
000060 3f e4 e8 bf ce 66 72 bf 02 8e 88 bf c6 ed f5 bf
       -1.8194655 -0.9468812 -1.0668337 -1.9213188
000070 17 d8 23 bc ff 64 14 3e d4 64 a5 bf 1c c2 b6 bf
       -0.01000025 0.14491652 -1.2921395 -1.4277987
000080 2b 1a 4a bf 53 08 cb bf de f1 c4 3d 0d cf 0d 3f
       -0.7894618 -1.5861915 0.09616445 0.5539406
000090 cd c0 41 bf a0 83 05 bf 68 1c 4f bf bc ec 99 3e
       -0.75684816 -0.5215397 -0.8090272 0.30063426
0000a0 bd 32 1b be 4c 97 86 bf 73 26 99 bf 16 81 c4 bf
       -0.15156074 -1.0514922 -1.1964859 -1.5351894
0000b0 19 da 89 bf 16 ac 75 bf 6b 81 4b bf 01 9e 7c bf
       -1.0769683 -0.9596571 -0.7949435 -0.98678595
0000c0 b0 11 2f 3f 5b dd 45 bf 8f f2 9f bf 33 fb e8 bf
       0.68386364 -0.77290887 -1.2495898 -1.820166
0000d0 dd 81 95 3d 16 28 8a bf c7 e7 0b 3f ff 0c 9a bf
       0.0730016 -1.0793483 0.5465054 -1.2035216
0000e0 10 f6 64 3c 24 01 d6 be fd 3d 4e bf 6e 35 07 3e
       0.0139746815 -0.41797745 -0.80563337 0.13203976
0000f0 38 1f aa bf a3 ed 2c 3f 2f 6a a6 bf cc 01 db 3e
       -1.3290777 0.67550105 -1.3001155 0.42774808

model.2.weight f4 [128, 64]
000000 8a a3 c6 bf 84 dc f8 be 11 b9 28 3f 0a 16 f0 3e
       -1.5518658 -0.4860574 0.6590739 0.46891814
000010 e0 d9 bc 3e 50 a4 b4 bd c0 b2 85 3f 64 e7 65 3f
       0.36884975 -0.088204026 1.0445175 0.898062
000020 ab 17 3d 3e e2 38 7b 3f e1 b6 1d 3f 8b aa 85 be
       0.1846606 0.9813367 0.61607176 -0.26106676
000030 15 39 ee be 57 fc 40 bf e2 a6 14 3f 87 75 29 bf
       -0.46527925 -0.7538504 0.5806714 -0.6619496
000040 ba 4c 04 3d 45 b7 de bf 6c 4b f6 3e 41 85 a4 bb
       0.032299735 -1.739968 0.48104417 -0.005020768
000050 db f6 cd 3e d0 1c 1d bf 28 3f 3a bf 13 97 c4 be
       0.40227398 -0.6137209 -0.7275262 -0.3839651
000060 96 bd 14 3f e7 b3 39 3f e0 47 82 3e 0e 02 40 3e
       0.58101785 0.72540134 0.2544546 0.18750784
000070 86 48 f9 be 76 15 7f 3e 65 3d ec 3e e3 96 05 3f
       -0.48688143 0.2491053 0.4614059 0.5218336
000080 ef 3c 56 bf 6d d2 98 3f dd db ca 3e 0e 02 d2 3b
       -0.8368673 1.1939217 0.39620867 0.0064089363
000090 64 ca 18 3f 08 cd 60 3e 4e 35 39 3e 43 41 67 be
       0.59683824 0.21953213 0.1808674 -0.22583489
0000a0 f5 2f 06 be 67 71 19 c0 94 bc 0c be a5 95 3f 3f
       -0.13104232 -2.3975465 -0.13743812 0.74837714
0000b0 1f b7 80 3e 07 c3 18 c0 cf 5c e3 be 17 ca 35 bf
       0.2513971 -2.3869035 -0.44406745 -0.7101149
0000c0 c7 5e c7 3d e3 02 d5 be 7e 25 33 3f 9c 46 28 3f
       0.09734874 -0.41603765 0.69979084 0.6573274
0000d0 26 7a f3 3e 0c 0c 4f 3e 9e b6 a8 3d be fa c2 3f
       0.4755413 0.2021944 0.082379565 1.523277
0000e0 8a 5d 64 3e ac a6 45 be c3 d1 cc 3e 2e 93 e1 3e
       0.22301307 -0.19301862 0.40003785 0.44057602
0000f0 49 60 02 be b0 79 20 3e c6 e7 ce 3f 6b fb 54 bf
       -0.12732042 0.1567142 1.6164482 -0.83196133
000100 74 40 e1 bd 75 80 f9 bd 66 df 5b bc 29 ad 02 3d
       -0.109986216 -0.12182704 -0.013419962 0.03190342
000110 ef 81 92 bd bb 42 37 bb a9 84 00 3d 7f 7f d2 bc
       -0.07153689 -0.0027963358 0.031376515 -0.02569556
000120 36 ce 72 bb dc e3 96 bd 1e 7b f0 3c 66 1a 28 be
       -0.003704918 -0.073676795 0.029355582 -0.1641632
000130 18 ee ae bd 51 09 9b bd 8f 7e ce 3d 59 a0 dc bd
       -0.085415065 -0.07570136 0.10082733 -0.107727714
000140 01 f2 9e bd 44 b3 8c bd e0 1b 47 3d c1 35 3b 3d
       -0.07761002 -0.0687013 0.048610568 0.04570556
000150 6a f2 0a be 16 8d e8 bd a7 45 0d be e0 e0 9b bd
       -0.13569036 -0.11355035 -0.13796102 -0.07611251
000160 0f f7 8d bd 7b a4 be bd 07 b9 b2 bd 37 56 ac bc
       -0.06931888 -0.09308716 -0.087266974 -0.021037204
000170 90 6f 0f be 04 fe 6e 3c a1 b1 90 bd ba 1e d0 bd
       -0.14007401 0.014586929 -0.0706513 -0.101621106
000180 31 7e e1 bc ef 2d 92 3d ac 2b fc bd e5 38 90 bd
       -0.027525993 0.071376674 -0.12313017 -0.07042102
000190 ba 23 70 bd 03 eb a3 3d ab c5 46 be cd 43 48 be
       -0.05862782 0.08003809 -0.19411342 -0.19557114
0001a0 90 02 e0 3d dd 51 bc bd e9 a2 a6 bc 7a 53 5a bd
       0.10937989 -0.09195302 -0.020341353 -0.053302266
0001b0 d7 86 d0 bd b6 ab 1b bd eb 6a 14 3d 5b 3e d1 bb
       -0.10181969 -0.038005553 0.036234777 -0.006385607
0001c0 e8 e8 4a be d4 87 b2 bd c3 af 56 bd 22 99 52 3d
       -0.19815409 -0.087173134 -0.052413713 0.05141557
0001d0 bd 4a 1f be 35 07 97 3d 45 5f 94 bd 56 bb 88 bd
       -0.15555854 0.073744215 -0.07244734 -0.066763565
0001e0 99 52 dd 3c 3b 56 97 3c c1 f7 7a 3d 7c b4 c6 ba
       0.027016925 0.018473735 0.061271433 -0.001515999
0001f0 f8 ff 4e bd 7a 66 22 be 9c 0c ba bc 35 5d e0 3c
       -0.05053708 -0.15859404 -0.02271109 0.027388195
000200 b9 63 25 3f f6 90 0f bf 5c 84 62 bf 17 3a 62 3f
       0.6460529 -0.5608057 -0.88483214 0.8836989
000210 fd 6d 8d bf 76 f0 f7 bf 86 9f 04 c0 b8 89 ac bf
       -1.1049191 -1.9370258 -2.0722365 -1.3479528
000220 8b 11 56 bf b3 d8 c4 bf e3 a0 61 be dc 1b eb bc
       -0.8362052 -1.5378631 -0.2203403 -0.028699808
000230 cb 12 97 3d 61 a4 fc be 38 41 de bf 54 9a 00 3f
       0.07376631 -0.4934416 -1.7363653 0.50235486
000240 ec 5a 24 3f 25 ab b8 be b9 74 25 be b5 be 25 3e
       0.64201236 -0.36068073 -0.16157807 0.1618603
000250 e5 58 a1 bf e3 39 46 bf 88 c2 b0 3d 74 2e 2e bf
       -1.2605253 -0.7743208 0.08630854 -0.6803963
000260 ea eb cf bf 81 6e 30 bf fe 09 13 bd 9e a1 95 bf
       -1.624387 -0.68918616 -0.0358982 -1.1689947
000270 e4 8c 8a 3e c2 71 6b c0 d9 9a 32 3f 6f 0e b0 bf
       0.27060616 -3.6788182 0.6976753 -1.3754405
000280 21 ef 65 3e 80 9c f3 3d 5a b9 a1 bd 3c 64 85 3d
       0.22454502 0.118950844 -0.07896681 0.06513259
000290 4e 86 64 3e 79 1b 40 bf b7 23 6b c0 90 8d a7 bd
       0.22316858 -0.7504192 -3.6740549 -0.08181298
0002a0 dd c6 4e 3f ea 13 b1 bf b0 62 8f bf 78 7a 37 bf
       0.8077219 -1.3834202 -1.1201992 -0.7167125
0002b0 db 06 82 3d 30 da 0d 3e 0f 72 22 bf f7 f1 00 bf
       0.06348964 0.13852763 -0.6345529 -0.5036921
0002c0 a6 6e 1a be 76 22 01 3e 55 9c be be 3b 55 79 3c
       -0.15081272 0.12610802 -0.37228647 0.015218074
0002d0 cb 28 54 be f1 74 e9 be df 02 96 bf e0 02 6e bf
       -0.20718686 -0.45597032 -1.1719626 -0.92973137
0002e0 2f ae 9c 3d 93 2a d2 bf 73 04 7b bf e2 18 41 bf
       0.076504104 -1.6419243 -0.98053664 -0.75428593
0002f0 06 59 8f 3f 36 61 56 3c 9e fa 9c be 2a 21 7f be
       1.1199043 0.0130847 -0.30659956 -0.24914995
000300 e3 0e 1b 3f 4a 55 29 be c4 ba 28 3f 0c 85 eb be
       0.6056959 -0.16536441 0.6590998 -0.45999944
000310 cd 62 d8 bf 71 06 8f 3e 5d ee f5 bd d7 63 64 bf
       -1.6905152 0.27934602 -0.12008355 -0.89214844
000320 d7 47 5d be ef 88 17 be 6d f1 a4 bd b7 10 17 3e
       -0.21609436 -0.1479833 -0.08053861 0.1475247
000330 c4 20 a8 3e 89 0d 4d 3e 74 ab 85 be 94 c3 00 3e
       0.32837498 0.20024695 -0.2610737 0.12574607
000340 22 ee 57 3e 52 21 2d be 7f 6a ac bd 68 3a ba 3d
       0.21086934 -0.16907242 -0.0841875 0.09093171
000350 1c 8e da be ac 33 f9 3d 56 15 49 3d da e0 3d be
       -0.42686546 0.12168059 0.049092613 -0.18542805
000360 26 08 de be da 63 a9 bf 5e 12 ed be 64 8e c9 3e
       -0.43365592 -1.3233597 -0.46303076 0.39366448
000370 a3 6e 7e bf e2 a1 f0 3e c3 bf 16 3b b6 c6 5f bf
       -0.9938757 0.46998507 0.0023002482 -0.87412584
000380 35 f2 93 3e b1 8e 65 3e 15 67 b8 3e 9e 29 51 3e
       0.28895727 0.22417714 0.36016145 0.20426032
000390 1f 56 77 c0 25 e5 3a 3f a2 1c ef be 46 63 5e be
       -3.8646314 0.73005897 -0.46701533 -0.21717557
0003a0 68 53 19 bd 0e 59 90 bf ff 87 a0 3e 38 e8 94 bf
       -0.037433058 -1.1277177 0.31353757 -1.1633368
0003b0 37 aa ab 3d 5d d4 9f be 29 0f e2 3e eb 9c 67 bf
       0.08382075 -0.31216708 0.4415219 -0.9047381
0003c0 36 c3 9d bd 0d f6 0f bf 1f 87 15 3e ed 38 8a be
       -0.07703249 -0.5623482 0.14602326 -0.26996556
0003d0 88 2e a3 be 6b 41 77 bd 9f 5d 7f bc be ab f7 be
       -0.31871438 -0.06036512 -0.015586286 -0.48373216
0003e0 f0 a4 07 3e 6f 39 97 bd 30 a7 35 be 03 d6 a0 bf
       0.13246512 -0.073840015 -0.17739558 -1.2565311
0003f0 0d c4 76 3f 68 16 d0 bd 6d 05 a9 bf e0 dc 95 be
       0.963929 -0.10160524 -1.3204781 -0.29270077

model.2.bias f4 [128]
000000 3c 26 a2 bd d9 fc 3a 3b 85 f0 30 3d f2 af 43 3e
       -0.07917449 0.0028532057 0.043198127 0.19110087
000010 13 8f ab 3e 87 5c 21 be f0 62 bf bd be e8 46 3e
       0.33507594 -0.15757953 -0.09345043 0.19424722
000020 09 ba cf 3e a9 8f 12 3f 05 76 ab bb 7e 94 b8 3e
       0.4057162 0.5725046 -0.005232575 0.3605079
000030 9f 64 27 3f ea 78 0b 3f 63 c8 a2 3e 45 9d 0c be
       0.6538791 0.54481375 0.31793508 -0.13731869
000040 29 46 ac 3e ef 95 d1 3d a2 10 14 3c a7 9f 09 3f
       0.33647278 0.10233676 0.009037169 0.53759235
000050 30 dc c2 3b 7b 61 13 3f d0 15 0d be 36 91 0b 3f
       0.0059466586 0.5757062 -0.13777852 0.5451845
000060 c9 1e db bb 68 a7 d6 3d 86 e4 06 3f 19 8a 24 3f
       -0.0066870195 0.10481149 0.5269245 0.6427322
000070 50 5c b2 3e 94 e2 c0 3e 64 d5 86 be c4 72 26 be
       0.34836054 0.37672865 -0.2633468 -0.16254717
000080 60 82 65 3d dd 21 9b bd 21 34 16 be 8f e9 01 3f
       0.05603254 -0.07574818 -0.14668323 0.5074701
000090 6a 9b a2 bd 15 e4 09 3f c2 0a af 3e 6b a3 f5 3e
       -0.07939799 0.5386365 0.34187895 0.4797624
0000a0 61 27 3e be 2b 55 4d be 29 00 92 3e 5b e0 11 be
       -0.1856971 -0.2005202 0.28515747 -0.14245741
0000b0 3c 9e a7 3e 50 3c 33 3b 48 22 dd 3e d0 b3 a1 bd
       0.3273791 0.0027349181 0.43190217 -0.07895625
0000c0 46 cd e3 be a8 e6 06 be c3 89 d5 3c 86 8b 86 3e
       -0.4449255 -0.13173926 0.026066666 0.26278323
0000d0 4f 94 ce 3e 6c 61 23 3f 54 a7 5c bb 76 45 59 bc
       0.40347525 0.6382053 -0.0033669071 -0.01326119
0000e0 0c dd e6 3c b1 45 66 bd 81 76 4e bd 66 06 d2 3e
       0.028181575 -0.056218807 -0.050405983 0.41020507
0000f0 36 67 33 3e 1f a4 9f 3e cf c1 03 3f e7 00 bb 3e
       0.1751984 0.31179902 0.51467603 0.36524126
000100 c4 92 2a 3f 45 be d7 bd 0b b5 cb bc e6 4a ab bd
       0.66630197 -0.10534338 -0.024866601 -0.08363895
000110 17 16 38 3e da ee c5 bd 91 11 10 be 40 c6 0d 3f
       0.17977177 -0.09664698 -0.14069201 0.5538063
000120 d4 e7 36 bd 96 51 8d 3e 05 3d 15 3e d6 19 e0 3e
       -0.044654682 0.27601308 0.14574058 0.4376971
000130 26 45 2d 3f 9b 13 28 be 32 56 39 3d a3 d3 c9 3c
       0.6768364 -0.16413729 0.045248218 0.024637049
000140 59 0c 08 3f 45 a2 02 be 7f b6 87 bc 61 4c 72 bd
       0.5314384 -0.12757213 -0.016566513 -0.05915487
000150 b9 1f c0 3e 3b ca 1f 3f 0c 07 5d 3e a8 9c 92 3e
       0.37524202 0.62417954 0.2158472 0.28635144
000160 c6 b1 29 be b6 54 07 3f 5c 02 1b be e7 73 b8 3d
       -0.16571721 0.52863634 -0.15137619 0.090064816
000170 9a b1 b2 be 9e 4e 61 be 3d 0f c2 bd f2 1e 11 3f
       -0.34901124 -0.22002646 -0.09475563 0.56687844
000180 fd 21 10 3f 5f 6c c2 3e 1e 54 3e 3e 53 a9 0f 3f
       0.5630186 0.37973306 0.18586776 0.56117743
000190 c5 a7 48 bd 65 a2 e5 3b be c2 6c be d5 13 23 3f
       -0.048988122 0.0070078843 -0.23121163 0.63702136
0001a0 9f 5f d5 3e bd a3 d1 bd fd 46 09 3f 5f 50 41 3c
       0.41674516 -0.10236309 0.53623945 0.011798947
0001b0 2f 0f e3 bd 34 7c ba bd 20 9f 07 3f 33 1d 26 3d
       -0.110868804 -0.09105721 0.5297718 0.04055519
0001c0 a8 36 cb 3e 06 a9 b5 be 50 a2 20 be 09 00 9c 3e
       0.39690137 -0.35480517 -0.15686917 0.30468777
0001d0 ff 88 6a 3e db 96 93 be 13 f5 c9 be b1 78 e5 3e
       0.22903822 -0.2882603 -0.3944479 0.44818643
0001e0 00 bd 31 bb db 39 0f 3f ee 55 f7 3e 32 7e 87 be
       -0.002712071 0.55947655 0.48307747 -0.26463467
0001f0 18 b7 60 bd 36 d9 52 3d d7 8f 52 be dc ae 17 3f
       -0.05486211 0.05147668 -0.20562683 0.5925119

model.4.weight f4 [3, 128]
000000 fa 57 09 40 b0 5a fb bb 83 bd 9b 3f 75 f5 50 bf
       2.1459947 -0.007670723 1.2167209 -0.8162454
000010 37 e7 40 3e cb e6 31 bd 98 91 02 3d e7 fc 0d bf
       0.18838201 -0.043432992 0.03187713 -0.55464023
000020 47 4f 00 bf 99 12 09 bf af bb 8b 3c a0 4e 26 bf
       -0.5012097 -0.53544 0.017057268 -0.6496372
000030 e4 54 91 3e fe 5c 88 be 69 03 0c bf e1 d2 3b 3e
       0.2838508 -0.26633447 -0.54692703 0.18342163
000040 64 48 26 bf e2 76 47 c0 2d 9e 1b 3c 10 f3 ab 3e
       -0.6495421 -3.116631 0.009498161 0.3358388
000050 9d 3b b2 bd 7f 79 b8 be 8b 8d ca 3d 3c c1 97 be
       -0.087027766 -0.36030194 0.098902784 -0.29639614
000060 48 1d b2 be f5 1a 53 bf 63 41 2a bf 75 8c 93 bd
       -0.34787965 -0.8246301 -0.6650602 -0.072045244
000070 d8 2d ce be 88 2b 1b bf 71 0f ab bf fa d6 da bb
       -0.4026935 -0.606133 -1.3364087 -0.0066784592
000080 36 a3 54 3d 3a 26 f1 b9 38 bb d7 bc 1c c1 0e bf
       0.051913463 -0.00045995583 -0.02633439 -0.5576341
000090 f5 0f 5e 3d 1b 30 27 bf 48 02 1c 3e cd 04 11 bf
       0.054214437 -0.6530778 0.15235245 -0.5664795
0000a0 c5 93 24 3b 3c 39 1d 3d 14 02 5a c0 f5 0a 2b 3d
       0.0025112492 0.03838466 -3.4063768 0.041758496
0000b0 3e d1 83 be 36 53 54 3c 5c 78 26 bf 38 48 e6 bc
       -0.25745577 0.012959292 -0.65027404 -0.028110608
0000c0 e7 c0 05 c0 2b b6 c9 bc 7b fc 04 bd 1c 26 56 3e
       -2.0898988 -0.024622997 -0.032467347 0.20912975
0000d0 29 33 1a bf 39 0a 44 bf 65 f4 06 3d 99 57 b2 3d
       -0.60234314 -0.765781 0.032947917 0.08708114
0000e0 94 30 9e 3f f0 72 a3 3f e5 d0 8c 3f b9 c2 b0 3e
       1.2358575 1.2769451 1.100125 0.34523562
0000f0 7f c2 3a c0 ba f0 a7 bc d5 78 10 bf ec 7e 6d bf
       -2.918121 -0.02050053 -0.56434375 -0.9277179
000100 59 ee 87 be 30 c0 63 3d 72 fe 70 3c b9 1e f4 3f
       -0.26549032 0.055603206 0.014709102 1.9071876
000110 1a e6 1f 3f 89 3a 74 3c 3f 74 c4 3c 85 cf 0d bf
       0.6246048 0.014906534 0.023981212 -0.55394775
000120 cc 5b ff bf 77 b0 ba be c5 ac f8 3f 8f 2f 04 bf
       -1.9949889 -0.36462757 1.9427725 -0.5163507
000130 88 8f b1 be 7f 4f 09 bd 9c 0c a3 bf 0f 1f ae 3c
       -0.34679818 -0.03352308 -1.2738223 0.021255044
000140 a0 c5 de be b2 d0 2f bc 6e e8 c6 bf 11 0b 8d 3f
       -0.4351015 -0.010730909 -1.5539682 1.1019002
000150 95 35 a9 be 91 e4 b0 bf 67 5b e5 3f 98 c9 57 bf
       -0.33048692 -1.3819753 1.7918519 -0.8429198
000160 a1 99 50 3d 18 a2 39 be 91 53 23 bd 0a f0 27 bf
       0.050927762 -0.1812824 -0.039874617 -0.65600646
000170 f3 48 b8 bf a2 1b 0c 3f 83 1a fc 3c fd 73 0f bf
       -1.4397262 0.54729664 0.03077436 -0.5603636
000180 a1 9e 4d 3e 4f 7a cd be 4c ff d8 3f 96 62 1c bf
       0.20080043 -0.40132377 1.695291 -0.6108793
000190 34 54 da bc 41 ef 53 bc 6b 0d 39 c0 44 07 07 bf
       -0.02665148 -0.012935461 -2.891444 -0.5274546
0001a0 fd c2 13 bf e6 5d 6f bd 69 a4 75 be 12 13 c0 3e
       -0.57719404 -0.058439158 -0.23988499 0.3751455
0001b0 d8 87 4d bf c7 e6 72 3c 0c f7 22 bf b5 06 4c 40
       -0.80285406 0.014825529 -0.63658214 3.1879094
0001c0 f5 ce 30 bf d2 8b a2 3f 67 73 7c bc c8 67 b6 bf
       -0.6906579 1.269892 -0.015408373 -1.4250422
0001d0 92 d0 0d 40 b4 b9 bd 3e f0 65 ad bf c2 9c d8 3f
       2.2158551 0.37055743 -1.3546734 1.6922839
0001e0 15 f8 77 bc 73 f6 37 bf 9e bf 2c bf 5e cb 68 bf
       -0.015134831 -0.71860427 -0.67479885 -0.90935314
0001f0 9e 1d 15 3d 6e 1e ab bd 52 74 09 3d 24 13 87 3d
       0.0364052 -0.083554134 0.033558197 0.06595448
000200 b9 4e 3c 3f 3c 5c 85 3c f2 66 d2 3f 08 89 10 bf
       0.7355762 0.016279332 1.6437666 -0.56459093
000210 de 3b e7 be ab 21 4a 3d 52 7c 71 3c 3d 9a ad bf
       -0.45162863 0.049348515 0.014739113 -1.3562695
000220 8d 34 bb be 44 58 9a 3d 90 b9 4a 3d 33 8a 83 be
       -0.3656353 0.075363666 0.049493372 -0.25691375
000230 b6 82 d7 be 56 22 26 be 0e a1 7b 3e 38 5e 63 3e
       -0.42091912 -0.16224036 0.24573156 0.2220391
000240 b0 af 0d 3f 72 ef 2d bf 36 67 0d 3b ac d2 d1 be
       0.553462 -0.6794349 0.002157641 -0.40981042
000250 31 34 68 3c 91 e7 6b bf 8a 92 8c 3d 5e 94 01 bf
       0.0141726 -0.9215022 0.068638876 -0.50617015
000260 cb 4f 93 3f fb 86 23 bf 19 43 b2 be 60 7e ba be
       1.1508726 -0.6387784 -0.34816816 -0.3642454
000270 0c 0c 7b be 5d c7 ca be f0 6e 9b bf 7b 7b 11 3d
       -0.24516314 -0.39605227 -1.214323 0.03551815
000280 a6 a4 dc bb f0 2a 01 3d dd 5b 85 3c b6 cf 18 bf
       -0.006733495 0.03153509 0.016279155 -0.5969194
000290 07 91 2d bd 00 1e ce be 7b 4a 89 be 78 96 30 bf
       -0.042374637 -0.40257263 -0.26814637 -0.689796
0002a0 e2 0c 66 3c f8 dc 3c 3d 4c 79 3d c0 2e ed bf bc
       0.014041157 0.04610917 -2.9605284 -0.023428526
0002b0 34 50 3a bf 7b 51 13 bd db 7a 3b be a0 4f 54 bc
       -0.7277863 -0.035966378 -0.18308584 -0.012958437
0002c0 09 73 4e bf 28 c1 8d 3c ee 20 2b bc cc ce cb bd
       -0.8064428 0.017304018 -0.010444863 -0.09951553
0002d0 07 15 d8 be 6f 5d b7 3d a4 1e 15 3d 0b 86 6c 3b
       -0.42203543 0.08953368 0.036406174 0.0036090638
0002e0 17 bb 60 3f ef 38 ad 3f 45 af df 3f 04 a0 4e bd
       0.87785476 1.3533 1.7475363 -0.05044557
0002f0 c8 04 cd bf e6 c0 24 bf 07 73 08 3d f7 f9 7c bf
       -1.6017084 -0.6435684 0.033312824 -0.98818916
000300 5f 62 64 be bb 90 11 bd 42 26 54 3d a1 27 97 3f
       -0.2230315 -0.035538416 0.051794298 1.1808969
000310 17 7d 3f 3f f5 93 c8 3c 3f c4 dc 3a 03 f1 be be
       0.74800247 0.024484614 0.0016843154 -0.37293252
000320 51 49 95 be dc 04 f4 be 5b 1c ba 3f f8 d2 a5 be
       -0.29157498 -0.47659957 1.4539903 -0.3238752
000330 04 65 82 bf 30 4f 25 3d d2 c6 ae bf 36 2b 7f 3d
       -1.0187078 0.040358722 -1.3654425 0.06229707
000340 95 4a 38 bf 18 e2 85 3c 29 ad 29 bf 89 af 93 3f
       -0.71988803 0.016343161 -0.66279846 1.1537944
000350 1a 4f a1 3e 00 f1 34 bf f6 65 a0 3f a1 5c ad be
       0.31505662 -0.70680237 1.2531116 -0.33859733
000360 5e 0d 1e bd 2b c4 0c bf ee ec 16 bc 3d 33 83 3f
       -0.038586967 -0.5498683 -0.009211762 1.0250012
000370 a2 91 c7 bf 24 d7 da 3e ec 0b 73 3c a7 2b 19 bf
       -1.5591319 0.42742264 0.014834385 -0.59832233
000380 aa 8d 26 3e 1a cc 51 bf 52 ee 04 40 2d e2 48 bf
       0.16264978 -0.8195206 2.077046 -0.78470117
000390 07 20 4b 3d 9b d1 b8 bd 52 dd 66 c0 5c ec 5e bf
       0.04959109 -0.09024354 -3.6072583 -0.87079406
0003a0 fc b1 ba be f7 fe 3c 3d 71 1e de be 63 e3 41 be
       -0.36463916 0.04614159 -0.433826 -0.18934397
0003b0 62 ba b3 bf a5 67 8d bc 95 e7 46 bf c6 b1 83 40
       -1.4041255 -0.017261336 -0.77697116 4.115451
0003c0 69 b9 2b bf 99 02 bb 3f 22 dc 02 3c 27 1c 8d bf
       -0.6707979 1.4610168 0.007987054 -1.1024216
0003d0 93 b6 af 3f 91 6e cf be 99 e3 96 bf a8 3f 05 40
       1.3727592 -0.40514043 -1.1788207 2.0820103
0003e0 9f a4 7f 3d 36 97 48 bf ab e4 cb bc b6 70 e1 bf
       0.062412854 -0.7835573 -0.02488931 -1.7612522
0003f0 44 98 a3 3c 43 85 d2 3c 99 aa 49 bc c3 06 99 be
       0.019970067 0.02569831 -0.01230874 -0.2988797

model.4.bias f4 [3]
000000 3b df 79 be dd 0f b0 be fb 99 c0 bd
       -0.24401562 -0.34387103 -0.094043694
