model/model_600.pth (torch, 39383 bytes, 6 tensors)

linear.0.weight f4 [128, 6]
0.23342028 0.9290629 -0.23804317 -0.70270145 -0.016933246 0.1280494 0.251609 -0.7235223
0.5103476 0.09022119 0.200467 0.09833055 -1.4697977 0.17705289 -1.0689473 -0.55274534
-0.4127646 -0.28528693 -1.5997453 0.19575928 -0.23267749 -0.4157444 -0.0033125975 0.11011221
-1.0032233 -0.2295834 -0.6156066 -0.11979154 0.73019475 0.024068648 0.5644563 -0.11953023
0.55290157 0.4020882 0.26765433 -0.1507187 -0.21917455 -0.80710036 -0.7517861 0.03508446
-0.14381336 -0.052928705 -0.5483568 0.6861881 0.85057443 0.74344087 -0.68970466 -0.3847235
0.14435962 0.04058014 -1.5316511 -0.055861596 -0.36719146 -0.017078085 0.39029795 -0.028774928
0.1572806 0.53167284 -0.23964764 -0.013114084 0.0806321 -0.4528459 0.07699711 -0.80169046
0.81816685 0.3826009 -1.1866621 0.48498547 0.09873327 0.75255626 0.24111414 0.265443
-0.03284343 0.6213212 0.19048724 -0.05113852 -0.16992404 -0.06796202 -0.032444533 0.5022854
0.63746 -0.055199444 -0.07665092 0.33803916 -0.2685503 1.1836401 -1.1159005 0.36759335
-0.20834921 0.27865073 -1.2209076 1.1456542 -0.25221926 0.73375475 0.21665344 0.23147139
-1.2849796 0.80649203 0.3374677 0.23053323 -0.101016 -0.29271644 -1.0561829 -1.210326
-0.058495995 -0.6700319 0.6856793 0.31046247 -0.029579064 0.13253663 0.0031323219 -0.014694266
0.23041001 0.15249865 -0.15387712 0.49250972 -1.1286484 -0.5928494 0.6228234 0.44106787
0.56448144 -0.46748292 0.463215 -0.9268952 -0.26125044 0.16340642 -0.5892191 -1.0906729
-0.11710965 -0.6877239 -0.66940534 -0.4813736 -0.47442153 0.36940625 -0.52672327 0.40338898
0.2759085 0.3726445 -0.44527304 1.5035704 -0.52136225 -0.4397479 0.06441779 0.45260137
0.50229174 0.5025144 0.35943562 0.3886353 -0.0090836845 -0.11550264 0.077283286 0.50733805
0.13298854 -0.2516163 -0.044094797 -0.07610132 -1.5213658 0.09825054 -0.09617403 -0.40739647
-0.44279835 -0.46514344 -0.36931056 0.42985845 -0.9486284 0.41885832 0.44664943 -0.113457344
-0.2748001 0.21291621 0.14620662 0.36933693 -0.6229227 -0.30905375 -0.74970126 0.35187352
-0.31623065 -0.4200964 0.25061342 0.44730824 0.40028587 -0.8594848 0.09402077 0.35351813
0.10911936 0.072597995 -1.0114455 0.33554322 -0.05725386 0.2514256 -0.6976648 -0.09339894
-0.7764265 0.1449107 -0.36273047 -0.76295507 -0.19729635 0.2715645 -2.1346214 -0.28595495
0.80901843 0.40859458 0.17802642 0.066624194 0.4131959 -1.500877 -0.109638214 0.7451109
0.20367053 -0.37062922 -0.10274763 1.2052258 -1.4990888 -0.21930036 0.0133425305 0.33446506
1.0641141 -0.36587507 0.174864 -0.11746305 0.22276773 0.18422619 0.7735948 -0.2914555
-0.12201652 0.20946069 -0.16637446 -0.03029745 0.46370995 0.6133703 0.5457267 0.31626463
-0.35985613 -0.09237542 0.20896265 0.5321731 0.2852063 0.63904864 -0.035485 -0.09711344
-1.0795414 0.29702637 0.11810012 0.15469635 -0.50929487 -0.40589246 -1.6935828 -0.46913964
0.0040371353 -1.3901417 -0.31083763 0.05559688 -0.5684149 1.3702041 -1.2678411 -0.050186962
00000000: ba05 6f3e 11d7 6d3f 97c1 73be 3ee4 33bf
00000010: 97b7 8abc 621f 033e e5d2 803e c238 39bf
00000020: 24a6 023f e3c5 b83d 3947 4d3e 8761 c93d
00000030: 5522 bcbf 5a4d 353e 44d3 88bf b880 0dbf
00000040: e255 d3be 2111 92be 74c4 ccbf 1f75 483e
00000050: 0243 6ebe 73dc d4be 2a18 59bb 8382 e13d
00000060: 9f69 80bf e917 6bbe 6598 1dbf 4455 f5bd
00000070: 0bee 3a3f 9d2b c53c 3580 103f 44cc f4bd
00000080: f58a 0d3f 81de cd3e fd09 893e 0156 1abe
00000090: 4b6f 60be 219e 4ebf 0e75 40bf b9b4 0f3d
000000a0: cf43 13be c5cb 58bd 1c61 0cbf 06aa 2f3f
000000b0: 3fbf 593f 2452 3e3f 7c90 30bf 7bfa c4be
000000c0: 02d3 133e 5c37 263d 250d c4bf 21cf 64bd
000000d0: 8500 bcbe 57e7 8bbc 22d5 c73e 66b9 ebbc
000000e0: 2a0e 213e b61b 083f 3166 75be 74dc 56bc
000000f0: 7122 a53d 6bdb e7be a9b0 9d3d 963b 4dbf
00000100: 6273 513f 44e4 c33e 8be4 97bf 0450 f83e
00000110: ab34 ca3d 87a7 403f a0e6 763e 25e8 873e
00000120: d586 06bd e80e 1f3f 160f 433e a076 51bd
00000130: 9100 2ebe ac2f 8bbd 8fe4 04bd c795 003f
00000140: 9430 233f d018 62bd 28fb 9cbd 7813 ad3e
00000150: 6d7f 89be 8581 973f d4d5 8ebf 3235 bc3e
00000160: 7f59 55be 4fab 8e3e b346 9cbf cca4 923f
00000170: e222 81be 5ad7 3b3f 66da 5d3e d606 6d3e
00000180: 367a a4bf 4376 4e3f 91c8 ac3e e710 6c3e
00000190: 7ae1 cebd eede 95be 0031 87bf f6eb 9abf
000001a0: 7f99 6fbd 3687 2bbf ae88 2f3f f0f4 9e3e
000001b0: cb4f f2bc afb7 073e a447 4d3b 38c0 70bc
000001c0: 9af0 6b3e 9b28 1c3e f791 1dbe 3c2a fc3e
000001d0: 8d77 90bf fac4 17bf 5b71 1f3f a6d3 e13e
000001e0: db81 103f ec59 efbe 842a ed3e 0149 6dbf
000001f0: 9ec2 85be 0354 273e 10d7 16bf 2b9b 8bbf
00000200: 2fd7 efbd ac0e 30bf 265e 2bbf 9a76 f6be
00000210: 61e7 f2be d122 bd3e 56d7 06bf 0089 ce3e
00000220: e143 8d3e 43cb be3e d4fa e3be ff74 c03f
00000230: ff77 05bf a326 e1be 79ed 833d 5ebb e73e
00000240: 3196 003f c9a4 003f f207 b83e 35fb c63e
00000250: bcd3 14bc a68c ecbd b346 9e3d e8e0 013f
00000260: 262e 083e dad3 80be bf9c 34bd 02db 9bbd
00000270: 1dbc c2bf 9437 c93d e4f6 c4bd 4596 d0be
00000280: 77b6 e2be 4827 eebe 4616 bdbe 6816 dc3e
00000290: 50d9 72bf 9974 d63e 3caf e43e 535c e8bd
000002a0: 99b2 8cbe b506 5a3e 30b7 153e bb19 bd3e
000002b0: dd77 1fbf 4b3c 9ebe 6cec 3fbf c428 b43e
000002c0: fce8 a1be e016 d7be 6750 803e 9605 e53e
000002d0: 45f2 cc3e 3207 5cbf f68d c03d 5400 b53e
000002e0: f979 df3d 42ae 943d 0c77 81bf 52cc ab3e
000002f0: 0683 6abd dbba 803e 299a 32bf f247 bfbd
00000300: e3c3 46bf 7863 143e cfb7 b9be 0651 43bf
00000310: 0e08 4abe 810a 8b3e a39d 08c0 b068 92be
00000320: d51b 4f3f 4f33 d13e 8f4c 363e 4472 883d
00000330: 6a8e d33e bd1c c0bf 008a e0bd 97bf 3e3f
00000340: 028f 503e 1dc3 bdbe 596d d2bd d744 9a3f
00000350: 24e2 bfbf 4690 60be a19a 5a3c 013f ab3e
00000360: e434 883f fa53 bbbe 8c0f 333e 7890 f0bd
00000370: 391d 643e caa5 3c3e 4f0a 463f a839 95be
00000380: cce3 f9bd dd7c 563e 115e 2abe 5c32 f8bc
00000390: 646b ed3e d605 1d3f bfb4 0b3f 70ed a13e
000003a0: 103f b8be 532f bdbd 4efa 553e 7f3c 083f
000003b0: 8f06 923e b198 233f b858 11bd 69e3 c6bd
000003c0: 6a2e 8abf d713 983e 7ade f13d b868 1e3e
000003d0: 2661 02bf 23d1 cfbe 52c7 d8bf 1233 f0be
000003e0: f249 843b 2af0 b1bf 1c26 9fbe 8eb9 633d
000003f0: a483 11bf d962 af3f 9e48 a2bf d890 4dbd

linear.0.bias f4 [128]
-0.10446779 0.58358145 -0.7657927 -1.214534 -1.1801034 0.011578177 0.26833475 -0.96665394
-1.4641372 0.6094255 -1.0205848 -0.8070981 0.5070964 0.80693346 -1.2552667 -1.3760495
-1.9942898 -0.8025125 0.79320663 -2.0979567 -0.028712915 -1.4428161 -1.5398489 -0.24256633
0.7196143 0.6892756 -0.7929098 -0.6754757 -1.4559467 -1.110307 0.43836397 -0.94840384
-1.6298153 -0.5566929 0.14958881 -1.187736 0.1186106 0.6510795 0.3936407 0.4465952
-1.2316439 -0.33530614 -1.099593 0.20970687 -1.7467893 -0.12013665 -0.6647707 0.87249726
0.6303508 -1.7849343 0.44486296 -1.2939686 -0.88126904 0.17089331 -1.4544275 -0.5012439
-0.5571948 0.4499081 -1.5695364 -2.1609216 -0.98476285 -0.2727173 -0.14311713 0.4406406
-1.8593831 0.6012181 -0.018680451 -0.7516503 -0.1894022 -1.223576 -0.09685134 0.54724157
-1.4668763 -1.5036615 -0.2040532 -1.8075116 -0.27122644 0.42068934 -2.0066283 -1.6795169
-0.010689897 -2.464497 -2.0761402 -1.8715693 -1.0732911 0.59809995 -1.4863944 -0.36770353
-1.00331 -0.17221422 -0.08819046 0.08699145 -1.9015521 -1.0760168 0.43553272 0.36763173
-1.013284 0.5919756 0.080494896 0.063364014 -0.90093464 -1.3373681 0.043312185 -0.6862157
0.4334514 0.1527761 0.35553733 0.021273894 -1.6897485 -0.8663302 -0.97844595 -1.3056659
-1.3325481 -1.4983573 0.55049336 -0.6076382 -0.8004481 -0.66907823 -0.30576903 -2.1382096
-1.4399725 -1.5538756 0.2659823 -0.86204875 -1.2850525 0.29221603 0.3267626 -0.5579018
00000000: 35f3 d5bd 9865 153f fe0a 44bf da75 9bbf
00000010: a10d 97bf 65b2 3d3c 2c63 893e a276 77bf
00000020: d968 bbbf 4f03 1c3f 86a2 82bf fb9d 4ebf
00000030: 12d1 013f 3193 4e3f 94ac a0bf 6422 b0bf
00000040: e344 ffbf 7671 4dbf 970f 4b3f ec44 06c0
00000050: 5937 ebbc 33ae b8bf c519 c5bf 4f63 78be
00000060: a538 383f 5e74 303f 23fc 4abf faeb 2cbf
00000070: 765c babf 8a1e 8ebf 3e71 e03e 98ca 72bf
00000080: ca9d d0bf 6d83 0ebf cf2d 193e bc07 98bf
00000090: 1dea f23d 25ad 263f 468b c93e 20a8 e43e
000000a0: 82a6 9dbf 3fad abbe 77bf 8cbf 66bd 563e
000000b0: cb96 dfbf 340a f6bd 6a2e 2abf fb5b 5f3f
000000c0: ac5e 213f ba78 e4bf 14c5 e33e c3a0 a5bf
000000d0: d99a 61bf a8fe 2e3e ae2a babf 8551 00bf
000000e0: 52a4 0ebf 5b5a e63e 92e6 c8bf 8a4c 0ac0
000000f0: 6b19 7cbf 9aa1 8bbe 4c8d 12be a59b e13e
00000100: 4400 eebf 6ee9 193f bf07 99bc 276c 40bf
00000110: a6f2 41be 239e 9cbf ff59 c6bd 0618 0c3f
00000120: 9ac2 bbbf fb77 c0bf 52f3 50be 8a5c e7bf
00000130: 31de 8abe 9864 d73e 996c 00c0 69fa d6bf
00000140: ae24 2fbc 52ba 1dc0 7bdf 04c0 958f efbf
00000150: 9a61 89bf 141d 193f 2c42 bebf a343 bcbe
00000160: 766c 80bf ed58 30be 339d b4bd 9328 b23d
00000170: 0f66 f3bf ebba 89bf 25fe de3e 3a3a bc3e
00000180: 4ab3 81bf b78b 173f 82da a43d fec4 813d
00000190: a7a3 66bf e12e abbf 1e68 313d d5ab 2fbf
000001a0: 58ed dd3e 5771 1c3e fd08 b63e 9746 ae3c
000001b0: ae49 d8bf d1c7 5dbf 6f7b 7abf 0f20 a7bf
000001c0: f090 aabf 2cca bfbf 22ed 0c3f 2d8e 1bbf
000001d0: 2bea 4cbf b648 2bbf c28d 9cbe 6dd8 08c0
000001e0: 0551 b8bf 65e5 c6bf d52e 883e 3aaf 5cbf
000001f0: 9a7c a4bf 579d 953e 6d4d a73e a7d2 0ebf

linear.2.weight f4 [64, 128]
-0.21639112 0.033356544 -2.1680567 -0.27941692 0.37033242 -0.67331505 0.40618753 1.6495742
0.69909203 0.1881341 -0.007906112 0.46253324 -0.09058274 -0.18138266 -0.7521908 -1.4670138
-1.4498163 -0.15297121 0.09095115 -0.2283366 -0.15073183 -2.6176617 0.39606422 0.15833645
0.27170083 0.23104832 -0.3762038 0.21383399 -3.129045 -0.36526522 0.29038486 -1.6332493
-0.10118767 0.6089197 -0.32265326 -0.04313733 0.20595478 0.22618856 -0.023133434 -0.0800803
-3.1617706 -0.05168306 -0.22239265 0.10382599 -1.0457878 0.024227442 0.5452117 0.32327846
0.15794873 -3.6145363 0.071066156 -1.5445008 0.25531217 -0.12162808 -1.9526588 -0.08722105
0.4827848 -0.23826368 -1.611876 -3.6682127 0.27003112 -0.37055847 -0.30265442 0.10087113
-2.216767 0.052684527 0.06684036 -0.31388953 0.08939943 0.12222761 -0.30675435 0.14227393
-1.3648193 -0.122623816 -0.45423323 -0.103553206 0.58322674 -0.13699879 -1.0457973 -1.8592684
0.19860037 -4.071419 0.29920617 -5.4717937 -0.10285239 0.18862592 0.44059214 -0.42543346
-0.078614965 0.17441218 0.10406712 0.05943197 -1.6006846 -1.8762821 0.19875598 0.0831081
-0.25637287 0.0006966397 -0.37076256 0.54241693 0.11311421 0.64177656 -0.09611874 -0.89262825
-0.726774 0.1742663 0.046915457 -0.08895078 -0.2009529 -0.81930655 -0.22057275 0.23427849
-0.27792007 -0.866568 0.08048305 0.093142465 2.1409671 -0.869148 0.3299659 -7.4403167
-1.1139672 0.5260298 -0.3435454 0.35076693 0.5290387 -0.27441943 0.1753344 -0.0023201494
0.25105056 0.011882307 -1.4851913 0.6495803 0.14048564 -0.15406772 0.07209637 2.1616597
0.4004521 0.24008219 -0.36663553 0.99111664 0.1569743 -0.13358893 -0.9033455 -0.42040417
-1.2152094 0.0830626 0.08691259 -0.9372349 -0.07759362 -2.3828528 0.036097515 -0.19520082
0.2353959 0.23139627 0.5990235 0.18917836 -0.55933124 -0.18236382 0.059971727 -0.47539753
-0.89154214 -1.6759809 -0.09501008 -0.08574772 0.20324202 0.011711668 0.23719929 0.22556527
-2.1871226 1.3253504 0.36824524 -0.10007802 1.344528 0.15599175 -0.14271517 0.026322452
0.23184119 -1.3699458 0.047258276 -1.3596926 -0.27982292 0.0055314205 -0.38428405 0.036144573
1.1119442 0.06951102 -2.4328303 -2.2138956 0.40189233 0.10835377 0.4317729 0.1642306
0.4352914 0.30616224 0.13699883 0.4142137 0.22956823 -1.9553783 0.3986462 0.10264096
-0.85283333 -0.9172041 -0.18505457 0.77304196 -0.26162398 -0.46386293 -0.07257114 -1.879331
-0.1518398 -2.3108706 1.3894717 0.4119168 -1.9831526 0.16991295 -0.23399994 -0.17160048
-1.5264854 0.76273257 0.08507206 -0.18410693 -4.1201024 0.90076417 0.20082577 0.0006103756
-0.26023263 -0.19226034 -0.542078 0.24349083 0.46768335 -1.9058388 -0.06338244 0.6222357
0.37827137 -0.14750417 -0.1300754 0.12040285 -0.2356468 -0.13961482 -0.98844075 -0.27689812
-0.5232926 -0.15885822 0.28256813 -0.5596436 -0.54039174 -0.13437618 -0.18498342 -2.1981795
-0.34387633 -1.321284 -0.4451954 -0.39312193 -3.8999245 -0.20987645 0.105724074 -0.32288405
00000000: a295 5dbe dfa0 083d 71c1 0ac0 bc0f 8fbe
00000010: 369c bd3e 605e 2cbf d0f7 cf3e 3f25 d33f
00000020: b2f7 323f 3aa6 403e a388 01bc 28d1 ec3e
00000030: 7283 b9bd 60bc 39be 948f 40bf 1cc7 bbbf
00000040: 9593 b9bf 7ca4 1cbe 9944 ba3d 12d1 69be
00000050: 7259 1abe c587 27c0 eec8 ca3e f322 223e
00000060: 5f1c 8b3e ee97 6c3e c99d c0be 4cf7 5a3e
00000070: 4642 48c0 0b04 bbbe 53ad 943e 500e d1bf
00000080: 7b3b cfbd 29e2 1b3f cf32 a5be c5b0 30bd
00000090: cfe5 523e f99d 673e 5482 bdbc 2401 a4bd
000000a0: 735a 4ac0 9eb1 53bd e6ba 63be b8a2 d43d
000000b0: 60dc 85bf a178 c63c fe92 0b3f c184 a53e
000000c0: 50bd 213e 9054 67c0 228b 913d 34b2 c5bf
000000d0: 47b8 823e 2518 f9bd b9f0 f9bf f3a0 b2bd
000000e0: 922f f73e 65fb 73be f451 cebf ffc3 6ac0
000000f0: 8541 8a3e d7b9 bdbe 85f5 9abe 8695 ce3d
00000100: 83df 0dc0 bbcb 573d 99e3 883d 21b6 a0be
00000110: 0c17 b73d 7852 fa3d e80e 9dbe 42b0 113e
00000120: 66b2 aebf 3222 fbbd 4291 e8be b413 d4bd
00000130: 594e 153f 6949 0cbe b0dc 85bf 82fc edbf
00000140: e55d 4b3e 1049 82c0 8d31 993e ef18 afc0
00000150: 46a4 d2bd 2727 413e 4b95 e13e 6ad2 d9be
00000160: e200 a1bd 1b99 323e 2421 d53d f06e 733d
00000170: 3ce3 ccbf 032a f0bf b086 4b3e 9434 aa3d
00000180: 4e43 83be b39e 363a 97d4 bdbe d6db 0a3f
00000190: 6ca8 e73d 784b 243f e7d9 c4bd 4983 64bf
000001a0: dc0d 3abf dd72 323e 6c2a 403d d42b b6bd
000001b0: 99c6 4dbe 13be 51bf d3dd 61be b3e6 6f3e
000001c0: 8a4b 8ebe 67d7 5dbf 4cd4 a43d 7ac1 be3d
000001d0: 9b05 0940 7c80 5ebf 4af1 a83e 1317 eec0
000001e0: 7a96 8ebf e4a9 063f 2fe5 afbe b997 b33e
000001f0: 156f 073f b480 8cbe dc8a 333e a60d 18bb
00000200: b389 803e 02ae 423c c01a bebf e54a 263f
00000210: 78db 0f3e eec3 1dbe 43a7 933d a258 0a40
00000220: 0f08 cd3e 1bd8 753e a7b7 bbbe d2b9 7d3f
00000230: dfbd 203e 89cb 08be a741 67bf 373f d7be
00000240: fb8b 9bbf b91c aa3d 3aff b13d a0ee 6fbf
00000250: 67e9 9ebd a980 18c0 fdda 133d b9e2 47be
00000260: 9f0b 713e 25f3 6c3e 9b59 193f f9b7 413e
00000270: 5530 0fbf 95bd 3abe eaa4 753d 4e67 f3be
00000280: 1b3c 64bf 8b86 d6bf a594 c2bd 809c afbd
00000290: ad1e 503e 4ce2 3f3c 5fe4 723e 95fa 663e
000002a0: d1f9 0bc0 15a5 a93f a48a bc3e b4f5 ccbd
000002b0: 7e19 ac3f 4dbc 1f3e ed23 12be 2fa2 d73c
000002c0: c767 6d3e 625a afbf e591 413d 680a aebf
000002d0: f344 8fbe eb40 b53b e1c0 c4be 550c 143d
000002e0: 3054 8e3f cb5b 8e3d 7eb3 1bc0 77b0 0dc0
000002f0: d5c4 cd3e 95e8 dd3d 5611 dd3e 112c 283e
00000300: 84de de3e 4cc1 9c3e 6c49 0c3e d113 d43e
00000310: ef13 6b3e d649 fabf 5b1b cc3e 6c35 d23d
00000320: 4953 5abf e3cd 6abf f27e 3dbe 14e6 453f
00000330: 94f3 85be 717f edbe 2ea0 94bd eb8d f0bf
00000340: e47b 1bbe 4ee5 13c0 35da b13f c2e6 d23e
00000350: f2d7 fdbf a9fd 2d3e ae9d 6fbe 09b8 2fbe
00000360: e063 c3bf 7142 433f 433a ae3d 8786 3cbe
00000370: e1d7 83c0 7b98 663f 45a5 4d3e 9d01 203a
00000380: 363d 85be e5df 44be a0c5 0abf a955 793e
00000390: 3174 ef3e 87f2 f3bf a7ce 81bd d74a 1f3f
000003a0: c9ac c13e 550b 17be 7c32 05be c595 f63d
000003b0: 654d 71be 30f7 0ebe 740a 7dbf 97c5 8dbe
000003c0: 81f6 05bf bbab 22be c5ac 903e ce44 0fbf
000003d0: 1d57 0abf e999 09be 4b6c 3dbe f9ae 0cc0
000003e0: 8f10 b0be d61f a9bf a7f0 e3be 4747 c9be
000003f0: 5d98 79c0 dae9 56be dd85 d83d 0f51 a5be

linear.2.bias f4 [64]
0.42480758 0.41355413 0.14245917 0.36386007 -0.06617618 -0.021521013 0.41044602 -0.08678437
0.3806283 0.35588914 0.10604307 -0.057500347 0.44949862 0.56541306 0.4719569 -0.014995898
0.11369748 0.01739146 0.5446569 0.46368024 -0.022788063 -0.085075416 -0.010355714 -0.05997158
0.018944833 0.022997119 0.07447187 0.026920553 -0.056078535 -0.067946695 -0.07618725 -0.05231171
0.42392108 -0.07260608 0.005087533 0.38236037 -0.09056228 0.016622646 0.43494883 -0.15016711
0.4133294 -0.07870746 -0.03114723 0.42357072 0.49175817 0.47614843 0.3974917 0.36227328
-0.17751347 0.63408583 0.27236766 -0.004896295 0.34510404 0.44688442 0.56774724 -0.06579812
-0.09374914 0.471561 0.39585423 0.44274074 0.38097966 -0.037631944 -0.10115351 0.02859941
00000000: 6180 d93e 5ebd d33e d1e0 113e de4b ba3e
00000010: 6187 87bd d64c b0bc fb25 d23e 01bc b1bd
00000020: b6e1 c23e 1a37 b63e 1c2d d93d 7c85 6bbd
00000030: af24 e63e e9be 103f 56a4 f13e 5bb1 75bc
00000040: 39da e83d 8978 8e3c a26e 0b3f 7f67 ed3e
00000050: 08ae babc 053c aebd 03ab 29bc c2a4 75bd
00000060: 3232 9b3c 7464 bc3c b584 983d 7e88 dc3c
00000070: 9bb2 65bd a327 8bbd 1008 9cbd ce44 56bd
00000080: 2f0c d93e 7fb2 94bd 52b5 a63b bdc4 c33e
00000090: b778 b9bd 372c 883c 9db1 de3e 68c5 19be
000000a0: e99f d33e 6031 a1bd 7a28 ffbc 43de d83e
000000b0: bac7 fb3e bac9 f33e 0884 cb3e e27b b93e
000000c0: 17c6 35be 7353 223f c673 8b3e 1971 a0bb
000000d0: 7ab1 b03e 09ce e43e e257 113f 2ac1 86bd
000000e0: 8dff bfbd 7270 f13e 68ad ca3e eaae e23e
000000f0: c40f c33e f423 1abd 9229 cfbd 4f49 ea3c

linear.4.weight f4 [3, 64]
-0.6929666 -0.74964774 -2.738862 -0.3122233 0.0026470695 -2.3212693 -0.4041831 0.052561574
-0.65015817 -0.73368114 1.0074325 -0.08007887 -0.6533676 -0.6955601 -0.06537572 -0.071802564
0.85787255 0.08143476 -0.106967285 -0.72900945 -0.033807762 -0.03221625 -0.03341219 0.07096641
-0.04362695 -0.42192778 0.7007732 -0.0190869 -0.00065204396 0.12229364 -0.041547246 2.3180778
-0.7442886 -0.002050832 0.076745085 -0.39662987 0.091941334 0.050710127 0.12166239 0.012423349
0.23551677 0.073117666 -0.0025558956 -0.25749293 -0.8327504 -0.35449144 -0.8509581 -0.6400152
-0.29103968 -0.6154185 -0.995129 0.04813955 -0.41233304 -0.72130364 -0.40937117 -3.5373068
-2.132592 0.51670516 -0.6557679 4.3673096 -0.78097224 -1.4669722 -0.011216374 0.06430793
-0.2708748 -0.743456 -3.066526 0.031087471 -0.08515298 -1.3315665 -0.8258945 0.016779765
-0.22115757 -0.45689476 3.853881 0.022718756 0.026791928 -0.5055166 -0.81732255 0.06837041
1.2499418 -0.03486237 -1.0819763 -0.58999765 -0.01622375 -0.012315962 0.04672463 -0.0108007025
0.08899695 -1.8939888 1.1336658 -0.05458806 0.052118737 0.2870746 0.039848823 2.711389
-1.1031663 0.0112932855 -0.08087067 -0.047352273 0.00448533 -0.0030493583 -0.2852613 0.12860808
-0.6514299 -0.034958452 0.03075077 -0.090103306 -0.36731005 -0.29376164 -0.23146395 -0.0568779
-0.65844744 -0.535928 -0.3918547 0.094592944 -0.49433157 -0.04733208 -0.7640901 -2.3476515
-3.6058874 -0.43586352 -0.87644166 2.8180985 -0.8924075 -1.9841067 -0.02249805 0.05591569
-0.85026336 -0.49159077 -2.2865343 0.6585822 0.05475843 -1.764979 -0.8216599 -0.12738706
-0.5906126 -0.5087286 4.6141486 -0.025973793 -0.36840668 -0.70596504 -0.6241182 0.008975037
1.0161598 -0.06775626 -0.61952406 0.1759561 0.062967114 0.018343667 0.028840376 -0.07739327
0.03138301 -2.6971066 0.62381786 0.11183897 0.0727769 0.2575883 0.101242416 2.2754886
-0.5954233 0.05843915 0.05113358 -1.040322 -0.027035723 -0.10937951 -0.577384 -0.022519812
-0.6329519 0.02310684 0.100037046 -0.9837028 -0.39019036 -0.7668581 -0.74862343 -0.69280094
-0.5253688 -0.4184289 -0.4306096 -0.016201796 -0.39202315 0.208643 -0.73032063 -0.6054654
-4.3077865 -0.5393727 -0.28551537 1.7858967 -0.23088972 -2.381016 0.048034783 -0.06834701
00000000: 4266 31bf eae8 3fbf 8449 2fc0 bbdb 9fbe
00000010: 757a 2d3b ad8f 14c0 16f1 cebe ce4a 573d
00000020: c470 26bf 87d2 3bbf 8cf3 803f 6400 a4bd
00000030: 1943 27bf 3a10 32bf b5e3 85bd 390d 93bd
00000040: 899d 5b3f 44c7 a63d aa11 dbbd 5da0 3abf
00000050: 027a 0abd 30f5 03bd 38db 08bd d656 913d
00000060: 2cb2 32bd eb06 d8be df65 333f 215c 9cbc
00000070: eeed 2aba 1775 fa3d 722d 2abd 635b 1440
00000080: b389 3ebf 4067 06bb 872c 9d3d 1213 cbbe
00000090: bd4b bc3d 6cb5 4f3d 222a f93d 4d8b 4b3c
000000a0: 4f2b 713e b7be 953d d080 27bb 1dd6 83be
000000b0: 212f 55bf e77f b5be 64d8 59bf 09d8 23bf
000000c0: 2703 95be 118c 1dbf c6c0 7ebf fa2d 453d
000000d0: 511d d3be 5ba7 38bf 1999 d1be 3c63 62c0
000000e0: 637c 08c0 ca46 043f 68e0 27bf 00c1 8b40
000000f0: cced 47bf bfc5 bbbf e2c4 37bc e0b3 833d
00000100: 1ab0 8abe 2253 3ebf f641 44c0 27ab fe3c
00000110: b064 aebd c570 aabf d26d 53bf b875 893c
00000120: 2177 62be 1cee e9be fca5 7640 af1c ba3c
00000130: bf7a db3c 8969 01bf 0d3c 51bf c905 8c3d
00000140: 18fe 9f3f d8cb 0ebd 337e 8abf 160a 17bf
00000150: abe7 84bc e4c8 49bc 5362 3f3d 6ef5 30bc
00000160: 0844 b63d 3a6e f2bf f61b 913f bb97 5fbd
00000170: 757a 553d 71fb 923e 8538 233d 6687 2d40
00000180: 8e34 8dbf 7907 393c 869f a5bd 75f4 41bd
00000190: adf9 923b bed7 47bb c50d 92be d6b1 033e
000001a0: 1cc4 26bf 9830 0fbd 0ae9 fb3c 1588 b8bd
000001b0: 1010 bcbe ed67 96be e304 6dbe cdf8 68bd
000001c0: 0390 28bf 9432 09bf 2ea1 c8be f2b9 c13d
000001d0: 0719 fdbe 48df 41bd 699b 43bf ec3f 16c0
000001e0: dcc6 66c0 8129 dfbe 7b5e 60bf ba5b 3440
000001f0: d174 64bf 35f7 fdbf d54d b8bc da07 653d
00000200: dcaa 59bf c9b1 fbbe 9456 12c0 d898 283f
00000210: 604a 603d d5ea e1bf 4e58 52bf c171 02be
00000220: 6332 17bf 0a3c 02bf 1ba7 9340 fec6 d4bc
00000230: cd9f bcbe 20ba 34bf 36c6 1fbf 090c 133c
00000240: 8611 823f cbc3 8abd 2199 1ebf d62d 343e
00000250: e7f4 803d 7545 963c a742 ec3c 5d80 9ebd
00000260: 798b 003d 659d 2cc0 87b2 1f3f d40b e53d
00000270: 0e0c 953d 9de2 833e 2f58 cf3d 9ba1 1140
00000280: a96d 18bf e45d 6f3d 7271 513d 4529 85bf
00000290: 057a ddbc 5d02 e0bd 70cf 13bf 787b b8bc
000002a0: 2309 22bf 8e4a bd3c 39e0 cc3d f2d3 7bbf
000002b0: 08c7 c7be d050 44bf c9a5 3fbf 675b 31bf
000002c0: 927e 06bf 503c d6be dd78 dcbe a1b9 84bc
000002d0: 42b7 c8be 83a6 553e 4bf6 3abf c8ff 1abf
000002e0: 63d9 89c0 5414 0abf 122f 92be 4398 e43f
000002f0: 5b6e 6cbe 9162 18c0 1fc0 443d 84f9 8bbd

linear.4.bias f4 [3]
-0.1987434 0.019226294 0.16129655
00000000: 6483 4bbe 7680 9d3c ec2a 253e
