model/model_200.pth (torch, 39383 bytes, 6 tensors)

linear.0.weight f4 [128, 6]
000000 b1 2e 70 3e 10 ac 01 3f 5e 7a aa be 29 97 85 be
       0.23455311 0.5065317 -0.33296484 -0.2609189
000010 eb 08 03 3b 83 45 a5 3c 47 21 ec bb ec 7f 68 be
       0.001999433 0.020174747 -0.0072061154 -0.22705048
000020 51 a6 07 3e 94 d1 a3 bd 06 4f 9b 3e 69 79 11 3e
       0.13247038 -0.07998958 0.30333728 0.1420647
000030 40 23 37 bf bd 78 3f 3e 2f ed 7c bf 78 80 0e be
       -0.7153816 0.18698402 -0.98799413 -0.13916194
000040 7c e0 aa be bf 55 b9 bd 01 e9 9b bf 81 23 14 bf
       -0.33374393 -0.09049558 -1.2180482 -0.57866675
000050 72 8d b6 bd db 33 f6 be 65 8e fb bd d7 08 be bd
       -0.08913697 -0.48086438 -0.12283019 -0.0927903
000060 30 ae 03 be 63 1d 42 3e e3 a2 96 bf 01 3d 7c 3e
       -0.12859416 0.18956523 -1.1768459 0.24632646
000070 75 9c 16 3f 53 9f 95 bc be 5c c9 3e dc 6b f3 3e
       0.58832484 -0.018264448 0.3932857 0.47543228
000080 1a e6 c5 3c 7e 23 f6 3e 16 32 45 3e 7a c7 6f bb
       0.024157573 0.48073953 0.19257388 -0.0036587403
000090 3c dc c3 be d8 1e 1c bf 97 91 b7 be fc bc c7 3e
       -0.38253963 -0.60984564 -0.35853264 0.3901137
0000a0 a5 a1 cb 3b f3 f6 bd bb 63 35 90 bf 86 44 a7 be
       0.006214338 -0.005797261 -1.1266292 -0.32669467
0000b0 14 71 87 3e 54 35 2c bf 44 bf 0a bf 7a 76 49 be
       0.2645346 -0.6726887 -0.541981 -0.19674101
0000c0 dd 3e 7a be 22 19 3d 3e 43 32 8c bf 0f 34 5f 3e
       -0.24438043 0.18466619 -1.0952839 0.21797203
0000d0 e4 26 2a bd 9d d0 87 bd 52 66 79 3e be e5 be 3e
       -0.041540995 -0.06631587 0.24355438 0.37284654
0000e0 48 5c 3e 3e ed c3 b8 3e c0 93 28 be c0 85 90 bd
       0.1858989 0.3608698 -0.16462612 -0.07056761
0000f0 24 ed e0 bd 18 43 8b bc a7 30 e3 bd 0c bc c0 be
       -0.10982731 -0.016999766 -0.11093264 -0.37643468
000100 51 65 45 3f 61 4a de 3e 59 c5 09 bf cc 28 ad 3e
       0.7710772 0.43416122 -0.53816754 0.33820188
000110 e6 26 ba be 1f 1c d4 3e a7 37 9d 3e 53 2c 92 3e
       -0.36357802 0.41427705 0.30706522 0.28549442
000120 9e 8d 72 bd 03 11 48 3e ed 7a 18 3d 3b 8a 98 3d
       -0.059217088 0.1953774 0.037226606 0.0744824
000130 c2 17 ef bd 40 75 85 3c e0 07 7d be 66 3f 70 3e
       -0.11674453 0.01629126 -0.24710035 0.23461685
000140 d2 cc e6 3e ad 0e 53 3d 30 83 0e 3d 55 bb c8 3c
       0.4507814 0.051527668 0.03479308 0.02450339
000150 2e b3 ac be 58 66 4f 3e 21 60 86 bf dd e2 4f 3e
       -0.33730453 0.20253885 -1.0498086 0.20301385
000160 6c 44 51 be b8 fd b7 3d d1 18 4a bf 04 06 19 3e
       -0.20436257 0.0898394 -0.78944117 0.14943701
000170 fa d5 1e bf c4 2f 8c bd 28 48 7b 3e 65 94 85 3e
       -0.6204525 -0.06845048 0.24539244 0.2608978
000180 39 dc 79 bf fc 3b 13 3f 3e 29 24 be 4d 6f 18 3f
       -0.9760166 0.57513404 -0.16031358 0.5954483
000190 f6 1d 04 bf db 4a a6 3c ff 88 95 be 4c 86 0a bf
       -0.51608217 0.020299366 -0.29206082 -0.5411117
0001a0 4e 8b 97 bd dc fb 01 bf 0a 11 fa 3e 78 da 45 3e
       -0.07399617 -0.5077493 0.48841125 0.1932162
0001b0 ce d4 57 be 49 8b a0 3e 1d be 50 be fd d7 01 3e
       -0.21077272 0.31356266 -0.20385022 0.12680049
0001c0 52 f7 30 3d 18 07 7c 3d bd 01 09 bf b2 28 2f be
       0.043204613 0.061530203 -0.5351828 -0.17105368
0001d0 18 b8 c3 bf 4b 03 39 be 97 f7 f7 3e b2 9c b5 3c
       -1.5290556 -0.18067662 0.48431084 0.022169445
0001e0 4b 80 d3 3e 6e 4c 4a bf db bc bf 3e e2 57 c9 be
       0.41308817 -0.7902287 0.37448773 -0.39324862
0001f0 36 b6 3e 3d 31 27 9c 3d 9a ec 28 bf c0 f6 6c bf
       0.04656049 0.07624663 -0.65986025 -0.9256401
000200 f2 50 56 bf 55 39 ba be 5b 1d 98 3d e6 28 3c be
       -0.8371726 -0.36371866 0.07427474 -0.18374977
000210 ac aa 81 bf ae e4 3a 3e 29 db 09 bf da 5f bc be
       -1.013021 0.18251297 -0.53850037 -0.3679188
000220 41 11 b4 3e b6 ac b9 3e fb 7b 10 bf 13 6b 01 3f
       0.35169414 0.3626458 -0.5643918 0.5055401
000230 45 ec ea be 00 c8 09 bf 5c 15 a8 3e ae 48 c9 3e
       -0.45883384 -0.538208 0.32828796 0.39313263
000240 af 8a d6 3e 7e 21 bb 3e 8c 25 5b 3e 92 4c ab 3d
       0.41902682 0.3654899 0.21401042 0.08364214
000250 82 8d 0e be 29 e9 18 be 70 70 50 bd a9 72 14 3e
       -0.13921168 -0.14932694 -0.05088848 0.14496864
000260 29 e7 c9 bb d9 1a 9b be 03 1d 25 be 39 6d 3f bd
       -0.0061615896 -0.3029392 -0.16124348 -0.046735022
000270 d5 ec bf be a6 6a c5 be a2 56 1f be ed 62 50 be
       -0.37485376 -0.3855793 -0.15560392 -0.20350237
000280 f4 22 22 bf be 20 e0 be 47 30 da 3e 9e cb f0 3e
       -0.63334584 -0.4377498 0.42614958 0.47030348
000290 fa a5 17 bf 73 e6 e8 3e d5 11 b1 3e c3 ee d1 3a
       -0.59237635 0.4548832 0.34583917 0.0016016591
0002a0 aa 40 36 bf c8 50 5a bf 8e d6 e0 bd ab c1 e3 be
       -0.7119242 -0.8527951 -0.10978423 -0.44483694
0002b0 94 ee 92 3e d1 47 82 bc c7 b3 4c bf 0f 9e 1b be
       0.28697646 -0.015903385 -0.7996182 -0.15197013
0002c0 6e b6 e6 be 5f c1 74 3e fb d4 a4 3e 60 06 c3 3e
       -0.45061058 0.2390189 0.3219374 0.380908
0002d0 d8 b2 26 3e 43 5d 42 bf 27 1c 3e bd 1b 82 df 3d
       0.16279161 -0.75923556 -0.046413567 0.109134875
0002e0 d7 cf bd 3c 10 1b 5f bd 4d c6 4e bd 32 44 dd be
       0.023170395 -0.05446917 -0.050482083 -0.4321609
0002f0 13 53 04 3c 1e 0d 02 3f 6d 31 97 be d9 76 31 be
       0.008076447 0.50801265 -0.29529896 -0.17330493
000300 f5 e5 c0 bf 30 66 4b bf 74 86 18 bf 65 7d 2f 3d
       -1.5070177 -0.794528 -0.5958016 0.042844195
000310 ab 68 9b bd 35 e7 90 3d f1 3b 3f bf c5 4c 14 bf
       -0.07588323 0.07075349 -0.7470084 -0.5792964
000320 6e 77 0e 3f 6b fe 90 3e cc 2a e9 3e 8b b9 1a 3e
       0.55650985 0.28319106 0.45540464 0.15109842
000330 ca 88 15 3d e9 a7 b9 3c a4 65 ef bc ce 79 12 3f
       0.036507405 0.022663074 -0.02922327 0.5721711
000340 c3 11 7b 3d 7a e6 d8 bd 49 53 9a be 63 3f 3b 3f
       0.061296236 -0.10590835 -0.30141667 0.73143595
000350 fb c2 f6 be a1 bb c1 be 80 97 2d 3e 2a a4 dc 3e
       -0.48195633 -0.37838462 0.16952324 0.43093997
000360 c3 71 d4 3e 9c df ce be cd a6 d8 bb 80 d6 b5 3e
       0.41493043 -0.40404975 -0.006611681 0.35515213
000370 37 fa 57 3e ed 9c f3 3d d7 95 11 3f 7b cf ee be
       0.21091543 0.118951656 0.5686926 -0.4664267
000380 aa c9 82 be 47 ce 86 3e fb be 05 be ab cb a2 bd
       -0.25544482 0.26329252 -0.13061135 -0.07949003
000390 dd 49 07 3f 24 32 64 3e 99 39 46 3c b1 71 ad 3d
       0.5284708 0.22284752 0.012098693 0.084689505
0003a0 f2 02 01 be 53 a7 98 3c d7 d5 8f bd a8 a6 18 3f
       -0.1259878 0.018634474 -0.070232086 0.596293
0003b0 25 ea dd 3d 01 8b 1c 3e 94 27 9a 3d fc e2 3e bc
       0.10835675 0.15287401 0.0752708 -0.011650797
0003c0 6e 2f 36 bf e2 94 83 3e 23 4f 1e be b8 9d 3a 3f
       -0.7116612 0.25699526 -0.15459876 0.7289691
0003d0 25 27 e5 be 46 bb 07 bd 65 ad 86 bf 02 fe c1 be
       -0.44756427 -0.033137582 -1.0521666 -0.37889105
0003e0 8c e4 ef be 79 b6 c9 be b0 32 79 be 47 0d c9 bb
       -0.46854055 -0.39397028 -0.24335742 -0.006135616
0003f0 90 9b 28 3e 7b 37 9a 3f 6b fd 3f bf dc ba 1f 3e
       0.16465592 1.2048181 -0.7499606 0.15598625

linear.0.bias f4 [128]
000000 6f 44 97 3e 9c 7b c1 3e 38 5f 78 bf 6a 84 2c be
       0.29544398 0.3778962 -0.9702029 -0.16847387
000010 06 08 94 be da 13 83 3d 4e c3 0e 3e 9d 6f 94 bf
       -0.2891237 0.06400271 0.1394169 -1.1596562
000020 14 50 54 bf 17 f3 13 3f ce c3 80 bf a3 c6 21 bf
       -0.8293469 0.577928 -1.0059755 -0.6319372
000030 22 48 0d 3f 81 c0 06 3f 3c 30 31 bf 27 85 4a 3e
       0.5518819 0.5263749 -0.69214225 0.19777356
000040 d9 d6 ae bf da 4b 17 bf fa fb 25 3f 75 88 89 bf
       -1.3659316 -0.59100115 0.6483761 -1.0744768
000050 0f 3c 41 bd ee a8 6b bf ff 7d 84 be 58 90 df bd
       -0.047176417 -0.9205464 -0.25877377 -0.10916203
000060 31 80 09 3f 78 42 1f 3f a5 9b 27 bf 63 a2 dc 3d
       0.5371123 0.622108 -0.6547187 0.1077316
000070 96 73 22 bf 1b 64 8d bf b7 54 d4 3e be 16 61 be
       -0.6345762 -1.1046175 0.41470882 -0.21981332
000080 b6 2d 3b bf b6 6b 37 bf 28 5f 27 3e 0a e6 c7 be
       -0.73116624 -0.7164873 0.16344893 -0.39042693
000090 a4 9e c2 3d fa d1 18 3f 0e 36 75 3e d9 b1 f3 3e
       0.095029145 0.596954 0.23946401 0.47596624
0000a0 2b 01 92 bf b3 28 25 3d e5 85 dd be 04 e3 4a bb
       -1.1406606 0.040322017 -0.43266216 -0.0030958066
0000b0 d1 54 61 bf ad bb 69 3e 24 ee 36 bf e3 7a 1f 3f
       -0.88020045 0.22825499 -0.71457124 0.62296885
0000c0 07 15 14 3f 12 83 8a bf 84 d6 00 3f 63 5e 43 bf
       0.57844585 -1.082125 0.50327325 -0.763159
0000d0 4e 0b bc be d6 4e 2d 3e b7 a7 b1 bf dc fd a5 be
       -0.36727375 0.16924605 -1.3879308 -0.32420242
0000e0 a4 32 4f bf 1a 2e f2 3e 58 e7 06 bf 39 5a bb bf
       -0.80936646 0.47300798 -0.5269675 -1.4636909
0000f0 e5 13 04 bf 09 c7 21 3d 8e e6 0a 3d 90 5b f3 3e
       -0.51592857 0.039496455 0.03391128 0.47530794
000100 8e 15 89 bf 0e 06 e3 3e e6 5b 8c 3e a4 eb 03 bf
       -1.0709703 0.44340557 0.27413863 -0.51531434
000110 85 81 1c be 69 0f 41 bf b1 2b 9a 3e 35 d2 04 3f
       -0.15283783 -0.7541414 0.3011146 0.5188325
000120 e7 9d 9e be 98 22 31 bf 9e d8 70 be c5 ef 90 bf
       -0.30979845 -0.6919341 -0.23520133 -1.1323172
000130 70 4f 15 be e4 37 bc 3e 05 46 a7 bf 30 07 9b bf
       -0.14581084 0.3676139 -1.3068243 -1.2111568
000140 1e b4 8d 3e d3 a6 ee bf b9 23 89 bf 5c e1 be bf
       0.2767648 -1.8644661 -1.0714027 -1.4912524
000150 e2 e5 44 bf 6d 4f e7 3e 48 17 9a bf 37 0d 13 3e
       -0.76913273 0.45177785 -1.2038355 0.1436051
000160 a3 5c 61 bf 64 7a 9d bd 77 08 c8 be c6 b0 82 3d
       -0.8803198 -0.0768936 -0.39068958 0.06381373
000170 41 f7 ce bf 41 26 8f bf c0 99 93 3e 37 fc 98 bd
       -1.6169206 -1.1183549 0.2882824 -0.07469981
000180 76 ff 72 bf 0a 6b 9b 3e 54 8d 5a 3d 5c 4a 6a 3d
       -0.9492105 0.30355102 0.053357437 0.05719982
000190 db 03 06 bf be ea 88 bf 5f 03 7c 3d c5 62 e3 be
       -0.5234963 -1.0696638 0.061526652 -0.44411293
0001a0 4b 9b 80 be 9c b3 81 3d dc 63 c6 3e ec a1 d0 3e
       -0.2511848 0.06333086 0.38748062 0.40748537
0001b0 17 2d 50 bf 6e a6 8f bd 55 0a ed be 7d 39 ee be
       -0.813188 -0.07014166 -0.46296945 -0.46528235
0001c0 72 d7 76 bf a8 8e 96 bf f5 57 c9 3e b0 2b 8e 3d
       -0.96422493 -1.1762285 0.39324918 0.069419265
0001d0 a2 65 50 bf 9f 18 43 3e 17 32 bf be 87 28 ce bf
       -0.8140508 0.19052361 -0.37342903 -1.6106118
0001e0 b1 17 91 bf 12 87 83 bf 37 d3 86 3e 58 d9 bb be
       -1.1335355 -1.0275595 0.2633302 -0.36689258
0001f0 8c 6c 95 bd 37 00 fc 3e 5f cf df 3e 58 61 31 bf
       -0.07296094 0.49218914 0.437129 -0.6928916

linear.2.weight f4 [64, 128]
000000 88 e4 11 bd d1 ee c8 3d c9 89 cf 3e 78 dc 64 3e
       -0.035618335 0.098111756 0.4053481 0.22349727
000010 0c b0 fc bc 1a e6 77 3d 16 7e 4c 3d 0e 01 67 bf
       -0.030845664 0.060522176 0.049924932 -0.90235984
000020 36 fd a3 3d be 1f 54 3e b3 4c cd bd 30 58 8a 3f
       0.080072805 0.20715234 -0.10024395 1.0808163
000030 a0 d0 21 3c a7 0d 55 3d 2e 2b 25 bf 3c 3f 14 3d
       0.0098764 0.052014973 -0.6451901 0.036193117
000040 7f fc 37 bf 5d 05 2a be cc 22 37 3e 26 4e ca 3c
       -0.71869653 -0.16603608 0.17884368 0.024695467
000050 2e 14 ef 3c c5 63 0a bf 8d a7 00 bd 42 b6 a3 bc
       0.029184427 -0.54058486 -0.03140979 -0.019984368
000060 4b 7f 6c 3e b9 0f 0a 3e 02 0f b0 3c d6 67 2c 3d
       0.23095433 0.1348256 0.021491531 0.042091213
000070 98 ca c0 be 77 70 8d bf c7 d0 19 3e 68 71 da bd
       -0.37654567 -1.1049947 0.15021048 -0.10666162
000080 1c a4 05 3f 37 31 da 3d 36 6b 75 bb 86 06 df bd
       0.52203536 0.10653918 -0.0037447936 -0.10889916
000090 c4 6c 07 3e 21 d7 9e 3d 5b 60 92 3c 7d 3f d2 3d
       0.13225085 0.07755876 0.017868211 0.10266016
0000a0 37 a3 bb be 47 d2 81 3d 14 57 ea bd 0c f1 26 3e
       -0.3664796 0.06338935 -0.1144239 0.1630289
0000b0 75 20 84 3d ed 4b 35 3e f6 23 49 3e 42 f7 e3 3d
       0.06451503 0.17704745 0.19642624 0.11131145
0000c0 ca fd 64 3e aa 89 c6 be 6b bd d4 3c a1 1d 19 bf
       0.22362438 -0.38776904 0.025969228 -0.59810835
0000d0 e7 20 db bd 73 0c 84 bc ce 85 0a bf de 37 b2 bc
       -0.10699635 -0.016119218 -0.5411042 -0.021755155
0000e0 5c 85 46 3f c1 11 01 bd 44 30 14 3e 37 b9 7d be
       0.7754724 -0.031511072 0.14471537 -0.24777685
0000f0 99 de 45 3d 34 de 85 3c a5 ea e5 3d 00 43 28 3e
       0.04830799 0.016341306 0.112263955 0.16431808
000100 e8 eb 40 bd ff ad 1d bd f0 5b cf 3d 17 38 f5 bd
       -0.047099978 -0.038496014 0.101249576 -0.11973589
000110 62 da dd 3c 77 50 d2 3e f5 6e ad bd 15 8e 30 3d
       0.027081672 0.41077015 -0.08468429 0.04310425
000120 b2 31 a1 bd 58 e3 a0 be 7c 67 45 3d c5 1b 5c 3e
       -0.07870807 -0.3142345 0.048194394 0.21494968
000130 bc 61 e6 bb 3a cc 9f 3d c8 95 a5 be ac ab 94 be
       -0.007030694 0.07802625 -0.32340837 -0.29037225
000140 4e 93 5c 3e c1 5b 0d bf ae 4a 8e bd 07 27 57 c0
       0.21540567 -0.5521813 -0.06947838 -3.361757
000150 b1 65 b6 be c6 51 54 3e dd d4 67 be ef c4 81 3d
       -0.3562446 0.20734319 -0.22639795 0.0633639
000160 c5 d4 a2 3d 96 96 9f bd 24 c5 d1 3d c4 d1 0c be
       0.07950739 -0.07792394 0.1024268 -0.13751894
000170 b6 64 c5 bf 3b 03 57 bf be fc 50 3e bb cc 2e 3e
       -1.542136 -0.83989304 0.20408913 0.17070286
000180 c1 c8 10 be d7 83 41 3e b1 33 61 3e 8e 7a 05 3c
       -0.14139082 0.18897949 0.21992375 0.008146895
000190 ea 1a 5f 3d 87 59 69 3e 53 a1 d6 bb 2a 2a e2 be
       0.054469027 0.22788058 -0.006549993 -0.44172794
0001a0 18 20 5d be 50 18 0f 3e 5a 56 22 3e 8e 79 01 3e
       -0.21594274 0.13974118 0.15853253 0.12644026
0001b0 20 06 8e be 61 7d f0 3e 16 7f e8 bd 57 fb 59 bd
       -0.27739048 0.46970657 -0.11352365 -0.053218212
0001c0 7b 6b 27 3e ac e1 25 bf 68 ff 28 3e db 33 70 3e
       0.16349594 -0.6479747 0.1650368 0.23457281
0001d0 82 a7 1e be 07 fa 3d bd 4b 2e 66 3c fb 4f 16 c0
       -0.15493587 -0.046381023 0.014049123 -2.3486316
0001e0 4d 11 95 bf 83 4e 30 3d 25 65 23 3e 79 ae 07 bd
       -1.1645905 0.043043625 0.15956552 -0.033125374
0001f0 63 7d d7 3c 45 65 d9 3d 29 61 30 3e f9 e8 1a bd
       0.026304906 0.10615019 0.17224564 -0.037819836
000200 85 54 a2 3d 23 c6 80 bd eb 56 20 3d ce 20 02 bc
       0.07926277 -0.062877916 0.03914539 -0.007942392
000210 c0 fb 36 3e 2a c0 96 3d 91 22 2c 3e 2c 76 96 3f
       0.17869473 0.07360871 0.16810061 1.1754813
000220 4e 8a 1f 3f 22 1b 49 3e ec cb 34 be 04 48 1f 3f
       0.6232041 0.19639257 -0.17655915 0.6221926
000230 44 02 34 3e c6 ea 7a bc 8e f5 99 bd a3 4c 0b 3e
       0.1757899 -0.015314763 -0.07517539 0.13603453
000240 29 6d b5 be 3b d9 6b be ce 27 c2 3d ca ba 18 3f
       -0.35434845 -0.23032086 0.094802484 0.5966002
000250 68 a2 82 3c d8 77 cd 3d d7 36 43 3f 87 6b 97 bc
       0.015946582 0.10032624 0.76255554 -0.01848389
000260 2a 6b 27 3e 95 7f 19 3e 7f 3c 0e 3f 48 50 6e 3c
       0.16349474 0.14990075 0.5556106 0.014545508
000270 51 7c 36 be cc 71 32 bf 37 ba b7 3d ec 84 3e be
       -0.1782086 -0.6970489 0.089710645 -0.18605393
000280 9c c0 c5 be e4 c0 84 bf 1f 9c 78 bd eb 44 c1 3e
       -0.38623512 -1.0371366 -0.060695764 0.37747893
000290 40 78 7a 3d 16 e4 e4 bd 98 6f ac 3d 73 18 70 3e
       0.061149836 -0.111763164 0.08419722 0.23446827
0002a0 36 7f e5 bf ef ba 13 3f 2c f6 0d be 6c 9d 35 bd
       -1.7929447 0.57707113 -0.13863438 -0.044339582
0002b0 97 4e 0d bf d3 a1 cf 3d a0 dc dd 3e 7c 99 44 bd
       -0.55198044 0.101382874 0.43332386 -0.047997937
0002c0 e0 43 cc 3d f7 2f 6f bf 21 36 9a 3d 91 ef 90 be
       0.09973884 -0.93432564 0.075298555 -0.28307775
0002d0 c0 3c 05 be d9 ac 6b 3b 90 8c 48 3f 0b 19 f5 bc
       -0.13011456 0.003596118 0.7833948 -0.029919168
0002e0 e4 10 5d 3e c4 14 13 3e a7 89 5d be b6 21 ce 3e
       0.21588475 0.1436339 -0.21634541 0.40260094
0002f0 28 1c a3 3c e8 5f 54 3e 8d 0a ef 3c f2 70 27 3e
       0.019910887 0.2073971 0.029179836 0.16351679
000300 e7 95 54 3e e1 bc 0c 3e 81 d4 94 3d c3 f5 5d 3e
       0.20760308 0.13743927 0.072670944 0.21675782
000310 01 df ba 3d 2e 44 8b bf 8b ac 15 3e 2d bb cc bd
       0.09124566 -1.0880182 0.14616601 -0.099966384
000320 69 13 f9 3b 0f fa 40 3e 72 46 0c bf 9d be 2a bf
       0.007601191 0.1884539 -0.5479499 -0.666971
000330 d9 dc 90 bd a1 f9 0c 3d cf 6d 39 be df 9b ce 3e
       -0.07073373 0.034417752 -0.18108295 0.40353295
000340 fa a3 16 3e 06 ba 87 bf 8e 82 f4 3d eb dc 91 bf
       0.1471099 -1.0603645 0.11938964 -1.1395544
000350 fa 33 6a c0 1f 97 c7 3d f7 4d 86 bf 83 46 d3 3c
       -3.6594224 0.09745621 -1.0492543 0.025790459
000360 df f5 0c c0 c8 68 d7 3e a6 bb 70 bc eb 42 83 be
       -2.2025068 0.4207213 -0.014693176 -0.25636992
000370 6b f7 d2 bf 03 e8 23 3f 32 6a f4 3d b1 ca e7 bb
       -1.6481756 0.64025897 0.11934318 -0.0070737232
000380 c0 6a 29 be a0 d1 58 bd 02 58 93 be 80 f4 63 3e
       -0.16544628 -0.05293429 -0.28778082 0.22261238
000390 f7 2d be be 02 9f 44 bf 8a b6 48 3e 52 ba f7 3d
       -0.37144443 -0.76805127 0.19600883 0.12096085
0003a0 88 b6 83 be dc b4 2f bd fc d9 1d 3e ab 97 b1 3d
       -0.25725198 -0.04289709 0.15415186 0.086715065
0003b0 36 c3 a8 be 2a 3b 60 3f 5f ac 2b bf 12 4d 28 3e
       -0.32961434 0.8759028 -0.6705989 0.1643565
0003c0 c7 57 3b be 5d 19 82 bf da 6a 6f 3e 95 ba b6 bc
       -0.18295203 -1.016399 0.23380604 -0.022305766
0003d0 56 ef 0b bf ed 3c a0 be a3 6a cb 3d 88 4a 32 c0
       -0.5466207 -0.31296483 0.09932449 -2.785799
0003e0 ea c9 14 bf 33 a9 6b be b5 bd b2 3d 5b be a0 be
       -0.58120596 -0.23013763 0.0872759 -0.3139523
0003f0 02 62 8a bd 44 3c 8a 3c 88 55 09 3d 12 e6 1e be
       -0.06756975 0.01687444 0.033528835 -0.15517452

linear.2.bias f4 [64]
000000 71 a5 a7 3e e0 4d 8d 3e a4 6c 61 3c 4b fd b3 3e
       0.3274341 0.27598476 0.013758812 0.35154185
000010 61 87 87 bd 6f 65 22 bb d8 a0 95 3e 01 bc b1 bd
       -0.06617618 -0.0024779697 0.29224277 -0.08678437
000020 a5 8a 87 3e 64 cb 7c 3e 45 0f a0 bb 7c 85 6b bd
       0.26472965 0.24686962 -0.004884633 -0.057500347
000030 66 91 d0 3e 8d c3 dd 3e f3 68 c0 3e 5b b1 75 bc
       0.4073593 0.43313256 0.3758007 -0.014995898
000040 39 da e8 3d 94 23 49 3d 48 4d a7 3e 74 22 d7 3e
       0.11369748 0.049106196 0.32676148 0.42018473
000050 08 ae ba bc 05 3c ae bd 10 a1 ae 3c c2 a4 75 bd
       -0.022788063 -0.085075416 0.021317035 -0.05997158
000060 32 32 9b 3c 86 17 35 3e b5 84 98 3d 7e 88 dc 3c
       0.018944833 0.17684755 0.07447187 0.026920553
000070 9b b2 65 bd a3 27 8b bd 10 08 9c bd 0e df a7 bd
       -0.056078535 -0.067946695 -0.07618725 -0.08196841
000080 01 d0 98 3e 7f b2 94 bd 52 b5 a6 3b 12 d1 9b 3e
       0.29846194 -0.07260608 0.005087533 0.30432945
000090 b7 78 b9 bd 37 2c 88 3c 97 0c 9f 3e 68 c5 19 be
       -0.09056228 0.016622646 0.31064293 -0.15016711
0000a0 2f a1 8c 3e 60 31 a1 bd 7a 28 ff bc 1b cc 98 3e
       0.27466723 -0.07870746 -0.03114723 0.2984322
0000b0 9f 1c bd 3e 00 3f a4 3e 1f 15 63 3e 9b 06 72 3e
       0.369359 0.32079315 0.22176026 0.23635332
0000c0 7b ba 1c be b9 d7 c2 3e b5 4f 7a 3e 19 71 a0 bb
       -0.15305512 0.38055208 0.24444468 -0.004896295
0000d0 84 03 ac 3e 37 0b 9e 3e 4d bf c6 3e d4 a8 dc bd
       0.33596432 0.3086793 0.38817826 -0.10774389
0000e0 19 ff 44 bd 51 26 cd 3e 33 c4 a7 3e 5d 49 a6 3e
       -0.048094843 0.40068296 0.32766876 0.32477847
0000f0 ea dd ad 3e 64 df 0a 3c 92 29 cf bd 4f 49 ea 3c
       0.3395837 0.008476112 -0.10115351 0.02859941

linear.4.weight f4 [3, 64]
000000 d3 b0 12 bd ba 0e 95 be 7c 06 b1 bf ad 3c 54 be
       -0.035813164 -0.29112798 -1.3830104 -0.20726271
000010 75 7a 2d 3b d5 6f ca bf 1a 63 9a bd ce 4a 57 3d
       0.0026470695 -1.5815378 -0.075384334 0.052561574
000020 cc 45 3f be cd 6c 8a be 4e 2d 2e be 64 00 a4 bd
       -0.18678969 -0.27036133 -0.1700947 -0.08007887
000030 65 bb cf be ae 3a 9d be 61 54 47 bd 39 0d 93 bd
       -0.40572658 -0.30708832 -0.048664454 -0.071802564
000040 89 9d 5b 3f f9 c7 e3 3d e5 b8 04 be 64 95 c2 be
       0.85787255 0.11122126 -0.12961157 -0.380046
000050 02 7a 0a bd 30 f5 03 bd 38 db 08 bd d6 56 91 3d
       -0.033807762 -0.03221625 -0.03341219 0.07096641
000060 2c b2 32 bd 67 31 6b bf df 65 33 3f 21 5c 9c bc
       -0.04362695 -0.91872257 0.7007732 -0.0190869
000070 ee ed 2a ba 17 75 fa 3d 72 2d 2a bd 2e 27 f2 be
       -0.00065204396 0.12229364 -0.041547246 -0.47295517
000080 5a 11 94 be 40 67 06 bb 87 2c 9d 3d bf 31 3f be
       -0.28919488 -0.002050832 0.076745085 -0.1867132
000090 bd 4b bc 3d 6c b5 4f 3d fc 0e 5e bd 4d 8b 4b 3c
       0.091941334 0.050710127 -0.05421351 0.012423349
0000a0 33 c8 47 be b7 be 95 3d d0 80 27 bb 8e 84 28 be
       -0.19509964 0.073117666 -0.0025558956 -0.16456816
0000b0 84 9c 90 be 3b b2 2f be be 32 ae bd 4e 51 80 be
       -0.28244412 -0.17157833 -0.08505772 -0.2506203
0000c0 27 03 95 be c1 fa 84 be 84 e8 60 be fa 2d 45 3d
       -0.29103968 -0.2597256 -0.21963698 0.04813955
0000d0 bf 6c 84 be 11 53 5d be cf 2f 85 be f4 3e ae bf
       -0.25864217 -0.21613719 -0.26013038 -1.3612962
0000e0 1d 3d 13 bf 21 69 10 3d 46 bb e4 be 5c 53 15 40
       -0.57515126 0.03525651 -0.44674128 2.3332129
0000f0 ae 9d 55 be 8a 07 cf bf e2 c4 37 bc e0 b3 83 3d
       -0.20860931 -1.6174176 -0.011216374 0.06430793
000100 2e f2 47 be dd c7 6f be 9f 46 79 bf d0 64 21 be
       -0.19525978 -0.23416086 -0.97373384 -0.15761113
000110 b0 64 ae bd 1e ed af bf 48 8d 6f be b8 75 89 3c
       -0.08515298 -1.3744237 -0.23393738 0.016779765
000120 23 c0 69 be b0 9f 4b be a1 08 9c 3f af 1c ba 3c
       -0.228272 -0.19885135 1.2190133 0.022718756
000130 0d e8 4a be 57 1c 6a be 63 a5 91 be c9 05 8c 3d
       -0.19815083 -0.22862373 -0.28446493 0.06837041
000140 18 fe 9f 3f d8 cb 0e bd 17 b4 42 be f6 40 9b be
       1.2499418 -0.03486237 -0.19014011 -0.30323
000150 ab e7 84 bc e4 c8 49 bc eb d0 9f 3d 6e f5 30 bc
       -0.01622375 -0.012315962 0.0780352 -0.0108007025
000160 08 44 b6 3d d9 86 5d bf f6 1b 91 3f bb 97 5f bd
       0.08899695 -0.86533886 1.1336658 -0.05458806
000170 75 7a 55 3d 71 fb 92 3e 85 38 23 3d 92 23 49 3f
       0.052118737 0.2870746 0.039848823 0.785699
000180 97 a0 b1 be 79 07 39 3c 86 9f a5 bd c7 19 1e be
       -0.34692833 0.0112932855 -0.08087067 -0.15439521
000190 ad f9 92 3b be d7 47 bb bb a0 35 be d6 b1 03 3e
       0.00448533 -0.0030493583 -0.17737095 0.12860808
0001a0 c2 19 48 be 98 30 0f bd 0a e9 fb 3c 29 ab 2e be
       -0.19541076 -0.034958452 0.03075077 -0.1705748
0001b0 1c 30 75 be 40 27 69 be b6 d3 db 3d 13 8a 35 be
       -0.23944134 -0.22768879 0.1073374 -0.17728452
0001c0 03 90 28 bf f2 5f 14 be fb a7 29 be f2 b9 c1 3d
       -0.65844744 -0.14489725 -0.16567986 0.094592944
0001d0 c5 d6 89 be 3a 80 1b be 86 4f 4b be b3 c9 7d bf
       -0.2692167 -0.15185633 -0.19854555 -0.99135894
0001e0 4e d4 41 bf 81 0b 47 be 3d dd b9 be ab dc 07 40
       -0.75714576 -0.19437982 -0.36301604 2.1228435
0001f0 2f 54 7c be 33 a6 ae bf d5 4d b8 bc da 07 65 3d
       -0.24641488 -1.364447 -0.02249805 0.05591569
000200 80 91 89 be 99 2b 50 be 5e 1e c5 bf d6 31 9d bd
       -0.2686882 -0.20329131 -1.5399892 -0.07675521
000210 60 4a 60 3d 97 ae 66 bf 31 bb 0e be c1 71 02 be
       0.05475843 -0.9011015 -0.13938595 -0.12738706
000220 9b da 3f be 55 57 08 be cd 9a cb 3f fe c6 d4 bc
       -0.18735735 -0.13314565 1.5906616 -0.025973793
000230 7d 68 4a be dd a7 98 be b2 63 c5 be 09 0c 13 3c
       -0.19766422 -0.2981557 -0.38552624 0.008975037
000240 86 11 82 3f cb c3 8a bd 74 81 b9 be 15 e3 3a be
       1.0161598 -0.06775626 -0.36231577 -0.18250687
000250 e7 f4 80 3d 75 45 96 3c a7 42 ec 3c 5d 80 9e bd
       0.062967114 0.018343667 0.028840376 -0.07739327
000260 79 8b 00 3d 20 01 80 bf 87 b2 1f 3f d4 0b e5 3d
       0.03138301 -1.0000343 0.62381786 0.11183897
000270 0e 0c 95 3d 9d e2 83 3e 2f 58 cf 3d a0 89 1e 3f
       0.0727769 0.2575883 0.101242416 0.6192875
000280 47 4e a3 be e4 5d 6f 3d 72 71 51 3d 35 de 8f be
       -0.31895658 0.05843915 0.05113358 -0.28099218
000290 05 7a dd bc 5d 02 e0 bd cb 25 a7 be 78 7b b8 bc
       -0.027035723 -0.10937951 -0.3264602 -0.022519812
0002a0 b4 ee c0 bd 8e 4a bd 3c 39 e0 cc 3d 97 c6 53 be
       -0.09420529 0.02310684 0.100037046 -0.20681225
0002b0 d8 2d 69 bd b1 ea 72 be 85 67 77 be d5 de 04 be
       -0.056928486 -0.2372234 -0.24160583 -0.12975629
0002c0 b5 8e 0b bf 3a bf 7e be cc bd 0d be a1 b9 84 bc
       -0.5451463 -0.24877635 -0.13841933 -0.016201796
0002d0 9b a9 f7 bd 26 5a 92 bd c9 2f 8d be 6a ca 48 bf
       -0.120928966 -0.07146101 -0.2757552 -0.7843386
0002e0 2d 69 ee be 5c 9f 89 be 81 d0 78 be 2a ff fe be
       -0.46564618 -0.26879394 -0.24298288 -0.4980405
0002f0 bc 6e 66 be 26 dd c1 bf 1f c0 44 3d 84 f9 8b bd
       -0.2250318 -1.5145614 0.048034783 -0.06834701

linear.4.bias f4 [3]
000000 9e 25 65 be 86 60 5b be 25 f1 be be
       -0.22377631 -0.2142354 -0.37293354
