model/model_100.pth (torch, 39383 bytes, 6 tensors)

linear.0.weight f4 [128, 6]
0	0x3e717754	0.23580676
1	0x3eb25b9f	0.34835526
2	0xbe8033f0	-0.25039625
3	0xbe1ae883	-0.15127759
4	0xbd0210ad	-0.031754185
5	0x3dcd08bb	0.10011431
6	0x3c5a11a2	0.013309868
7	0x3c8e681b	0.017383626
8	0x3eac8c57	0.3370082
9	0xbbf4a434	-0.0074658636
10	0x3e51f30a	0.20502868
11	0x3dc6ccb7	0.09707015
12	0xbf0656c6	-0.52476156
13	0x3e34019b	0.17578737
14	0xbea6e418	-0.32595897
15	0x3f0744a3	0.52839106
16	0xbeb293da	-0.34878427
17	0xbea904a6	-0.3301136
18	0xbe9e4cb4	-0.30917895
19	0xbf57309a	-0.84058535
20	0xbea32554	-0.31864417
21	0xbeccebcf	-0.40023658
22	0xbc9d80c8	-0.019226447
23	0xbd5c6125	-0.05380358
24	0xbb437bd7	-0.0029828453
25	0x3f3d968f	0.7405786
26	0xbf10cdeb	-0.56564206
27	0x3d9b8ce8	0.07595235
28	0x3dc5dc73	0.09661188
29	0x3d545189	0.05183557
30	0x3ee65d9e	0.449933
31	0x3eeac4e4	0.4585334
32	0xba116e8c	-0.0005547784
33	0xbdb83b2c	-0.08995661
34	0x3c404fe1	0.011737795
35	0xbe09e544	-0.13466364
36	0xbe023b3a	-0.12717906
37	0xbf09d48c	-0.53839946
38	0xbeb8cbd5	-0.36093011
39	0x3eca95ee	0.39567512
40	0xbc8cdbc9	-0.017194645
41	0x3c9a9584	0.018870123
42	0xbf708369	-0.93950516
43	0xbc358c6f	-0.011080845
44	0xbf02f6d8	-0.51157904
45	0xbe81f663	-0.2538329
46	0xbea6ecbc	-0.3260249
47	0x3e1410c3	0.14459519
48	0x3ec5e4eb	0.38651213
49	0x3e3f02d6	0.18653426
50	0xbe62327c	-0.22089571
51	0x3f01aad7	0.50651306
52	0x3d2a2709	0.041541133
53	0xbe44b91d	-0.1921124
54	0x3e3b3079	0.1828021
55	0x3ebde5ed	0.37089482
56	0x3e56aab2	0.20963553
57	0x3e9adaef	0.30245158
58	0xbe69e2dc	-0.22840446
59	0xbdc46180	-0.09588909
60	0xbdca8290	-0.09888184
61	0x3f97b520	1.185215
62	0xbf119318	-0.5686507
63	0x3d937aa9	0.0720113
64	0x3ee3fab9	0.44527224
65	0x3ebbefef	0.36706492
66	0xbf1a8cd1	-0.6037112
67	0x3e5f9ee5	0.21837957
68	0x3dc5fb63	0.09667089
69	0xbeb01df0	-0.3439784
70	0xbe14e1a3	-0.14539199
71	0x3dc67370	0.09689987
72	0xbde0b3e6	-0.10971813
73	0xbd464536	-0.04840585
74	0x3e6d6ce7	0.23186074
75	0x3e5edd0a	0.21764007
76	0xbe10878e	-0.1411421
77	0x3d621cc0	0.0552032
78	0xbe725754	-0.23666126
79	0x3ed38e9e	0.41319746
80	0x3ed4080b	0.41412386
81	0x3d104054	0.035217598
82	0xbdccebf0	-0.10005939
83	0xbd31e140	-0.043427706
84	0x3e928267	0.28615114
85	0x3dbbe2d6	0.09174125
86	0xbec29b3f	-0.38009068
87	0xbe561ee1	-0.20910217
88	0xbde96df2	-0.113979235
89	0x3d6c654c	0.05771379
90	0xbf136852	-0.57581055
91	0x3f0dded6	0.55418146
92	0xbddf60ab	-0.1090711
93	0xbda099a1	-0.078418024
94	0xbc4e69d9	-0.012598478
95	0x3e79d4d8	0.243976
96	0xbe85eca6	-0.2615711
97	0xbe806ebe	-0.2508449
98	0xbeac13e1	-0.33608916
99	0x3f5b86aa	0.85752356
100	0xbef4b70e	-0.4779591
101	0xbe7cd21a	-0.24689522
102	0x3c07f1b3	0.008297372
103	0xbf02851b	-0.5098435
104	0xbe7bdec2	-0.24596694
105	0x3e3bded0	0.18346715
106	0x3ea7026f	0.32619044
107	0x3e9ffe23	0.31248578
108	0xbe4dc57d	-0.20094867
109	0x3e997c43	0.29977617
110	0xbe07ae6b	-0.13250129
111	0x3df6b293	0.12045779
112	0x3d013161	0.031541232
113	0x3c8ce6fb	0.017199984
114	0xbe9982cd	-0.29982606
115	0xbd90c9be	-0.07069729
116	0xbf214222	-0.62991536
117	0xbe4e671c	-0.2015652
118	0x3f085b77	0.53264564
119	0x3da3e51e	0.08002685
120	0x3ee29a08	0.44258142
121	0xbf181a1c	-0.5941484
122	0x3e3a3c11	0.18186976
123	0xbd7683c6	-0.060184263
124	0xbd1db5e3	-0.03850354
125	0xbe26985e	-0.16269061
126	0xbe87ef81	-0.26549914
127	0xbf15671b	-0.5836045
128	0xbf4c6ff9	-0.79858357
129	0xbd5c8494	-0.053837374
130	0xbe2d6823	-0.16934256
131	0xbe6f9e99	-0.23400344
132	0xbf8e0324	-1.1094708
133	0xbd9c665c	-0.07636711
134	0xbe192645	-0.14956005
135	0xbe2be7cc	-0.16787642
136	0x3e768e2d	0.24077673
137	0x3e80fd8a	0.25193435
138	0x3ed22549	0.4104407
139	0x3ef7d289	0.48402813
140	0x3daaf812	0.08348097
141	0xbe90dca7	-0.28293344
142	0x3eb21f61	0.34789565
143	0x3dfc318d	0.123141386
144	0x3ee442cf	0.4458222
145	0x3f063716	0.52427804
146	0x3e466396	0.19373927
147	0x3e8e8b66	0.27840728
148	0x3c5d3d49	0.013503381
149	0xbe056121	-0.13025333
150	0xbd0b4b2b	-0.034007233
151	0xbe137437	-0.14399801
152	0x3cd23729	0.025661068
153	0xbecb0f9a	-0.3966034
154	0xbe58e56a	-0.21181265
155	0xbde4caf3	-0.11171522
156	0xbee5cefc	-0.4488448
157	0xbecc1b5d	-0.39864627
158	0xbf524f5c	-0.8215234
159	0xbe4ce755	-0.20010121
160	0xbe0f0d84	-0.1397
161	0xbeb70eca	-0.3575347
162	0x3e98e431	0.29861596
163	0x3ed071fa	0.40711957
164	0xbef8aaa9	-0.48567703
165	0xbd5899ac	-0.052880928
166	0x3e081ad2	0.13291481
167	0x3d7378f9	0.05944154
168	0xbe82218c	-0.2541622
169	0xbe987a6a	-0.29780895
170	0xbf0552bb	-0.5207936
171	0x3dc71d04	0.09722331
172	0x3d6f7cd9	0.058468673
173	0xbdfb433a	-0.12268682
174	0xbf92a1ef	-1.1455668
175	0xbd949217	-0.07254427
176	0x3e7e8a2f	0.248574
177	0x3e56a282	0.2096043
178	0x3c4dd411	0.012562768
179	0x3e800cda	0.25009805
180	0x3e82e85b	0.25567898
181	0xbef9e225	-0.48805347
182	0x3ce95416	0.028482478
183	0xbe5775e0	-0.2104106
184	0x3c7671f0	0.015041813
185	0xbe60b39e	-0.21943519
186	0x3ee027e3	0.4378043
187	0xbe5c2e55	-0.2150205
188	0xbe840903	-0.25788125
189	0x3e9b9288	0.30385232
190	0x3cc35827	0.023845745
191	0xbdd0ff96	-0.10204999
192	0xbeb2b8d5	-0.3490664
193	0xbf947bf9	-1.1600333
194	0xbf03179d	-0.51207906
195	0xbede602f	-0.43432757
196	0xbc035ecb	-0.008018206
197	0xbd32583a	-0.04354117
198	0xbea09f28	-0.31371427
199	0xbf229f6a	-0.63524497
200	0x3eab5530	0.3346343
201	0x3e94a74d	0.2903389
202	0x3e969454	0.2941004
203	0x3cd10c0a	0.025518436
204	0x3ec04f0f	0.37560317
205	0x3ee7245b	0.45144925
206	0xbe881b02	-0.26583105
207	0x3c5d3a69	0.013502696
208	0x3e0ce26b	0.13758247
209	0xbd95e9b0	-0.07319963
210	0xbe0cf223	-0.13764243
211	0x3eac8f28	0.3370297
212	0x3d632b18	0.05546102
213	0x3eaca000	0.3371582
214	0x3e6d790f	0.23190711
215	0x3eb95166	0.36194915
216	0x3eb22a04	0.3479768
217	0xbe1ee08b	-0.15515344
218	0x3e8862b9	0.2663782
219	0x3ea91f57	0.33031723
220	0x3dae2ed9	0.08505029
221	0x3d85330b	0.06503876
222	0x3ed9032a	0.42385226
223	0xbf20cf2d	-0.62816125
224	0xbec94af8	-0.3931501
225	0x3e46badc	0.19407219
226	0x3d6fdc61	0.05855978
227	0xbe0fb5bf	-0.14034174
228	0x3ec51458	0.38492084
229	0x3dc6640a	0.0968705
230	0x3d9c8089	0.07641704
231	0xbd148fb0	-0.036269844
232	0xbde931c2	-0.11386444
233	0x3d615fc7	0.05502298
234	0xbe45b6ca	-0.1930801
235	0x3edaffbd	0.42773238
236	0x3db3df0e	0.08782779
237	0x3f10f47e	0.56623065
238	0xbd6c9b30	-0.057765186
239	0x3d9173da	0.07102175
240	0xbf028659	-0.5098625
241	0x3c1a2165	0.009407376
242	0xbda93228	-0.0826152
243	0x3ebce0bb	0.36890206
244	0xbe760584	-0.24025542
245	0xbe3a8338	-0.18214118
246	0xbf049b07	-0.5179905
247	0xbedb391d	-0.4281701
248	0xbdb8fa4c	-0.09032115
249	0xbed1595f	-0.40888497
250	0x3e1a7aa9	0.15085854
251	0x3bb07bf4	0.00538587
252	0x3eacd881	0.3375893
253	0x3f92aa2a	1.145818
254	0xbf0a00bf	-0.5390739
255	0x3f23e80a	0.6402594

linear.0.bias f4 [128]
0	0x3e80e3e4	0.25173867
1	0x3ec4d06f	0.38440272
2	0xbeee84de	-0.46585745
3	0x3e572cc4	0.2101317
4	0x3e15e013	0.14636259
5	0x3dfc564d	0.12321148
6	0x3ea06045	0.31323448
7	0xbf34aa0e	-0.7057198
8	0xbf0b0068	-0.54297495
9	0x3f041375	0.5159219
10	0xbf04c4f3	-0.5186302
11	0xbf20d928	-0.62831354
12	0x3ee5907a	0.4483679
13	0x3ee7b930	0.45258474
14	0xbefcf757	-0.49407455
15	0x3d0a03a6	0.033694886
16	0xbf21f28c	-0.6326072
17	0xbe32ffbb	-0.17480366
18	0x3f116e93	0.5680935
19	0xbf4c24c2	-0.7974359
20	0xbced3956	-0.028958004
21	0xbf103cbb	-0.5634267
22	0xbdb66354	-0.08905664
23	0x3e62444f	0.2209637
24	0x3ee36bf1	0.4441829
25	0x3ef1d2eb	0.4723123
26	0xbe963e36	-0.29344338
27	0x3cce8ea6	0.025214504
28	0xbec55a66	-0.3854553
29	0xbf1c8956	-0.6114706
30	0x3ed3dc5b	0.41379055
31	0x3eb0eb27	0.34554407
32	0xbe3ade8a	-0.18248954
33	0xbec36ee5	-0.38170543
34	0x3e81bbec	0.25338686
35	0xbf0c8c9f	-0.5490207
36	0x3c6b2fcd	0.014354658
37	0x3ef1bc4b	0.4721397
38	0x3d719bff	0.05898666
39	0x3eb42056	0.3518092
40	0xbe396ab9	-0.18107118
41	0x3ebdd734	0.3707825
42	0xbe19d2d3	-0.1502183
43	0x3c421ba8	0.011847414
44	0xbf04cf2f	-0.5187864
45	0x3e08078d	0.1328413
46	0xbe9d8e6f	-0.3077273
47	0x3eddf1c2	0.4334851
48	0x3ef500ce	0.47852176
49	0xbf15258a	-0.58260405
50	0x3eb9a9a2	0.36262232
51	0xbe957295	-0.29188982
52	0x3e4fdd78	0.20299327
53	0x3db2cff3	0.087310694
54	0xbf188533	-0.59578246
55	0xbea84797	-0.3286712
56	0xbf4711cc	-0.7776153
57	0x3ee06f81	0.4383507
58	0xbece4f03	-0.40294656
59	0xbf685d8a	-0.9076773
60	0xbe1f5917	-0.15561329
61	0x3e47f59c	0.19527286
62	0x3da3e12b	0.08001932
63	0x3ea75e99	0.3268936
64	0xbf11afb2	-0.56908715
65	0x3ea57c71	0.32321504
66	0x3e4d1d9a	0.20030823
67	0xbeceb8e8	-0.40375447
68	0xbea90212	-0.33009392
69	0xbf13cb1b	-0.5773179
70	0x3e13a5bd	0.14418693
71	0x3ed0d9a9	0.40791062
72	0xbef9f104	-0.48816693
73	0xbf1d300e	-0.6140145
74	0x3e8d0ff9	0.2755125
75	0xbf1dd04b	-0.61645955
76	0x3e07108f	0.1318991
77	0x3e9db3a2	0.3080111
78	0xbefff5e8	-0.499923
79	0xbf1c3bb1	-0.6102858
80	0x3e0d1966	0.1377922
81	0xbf8e79ec	-1.1130958
82	0xbf166b61	-0.587576
83	0xbf2c0220	-0.6719074
84	0xbeb3abd9	-0.35092047
85	0x3ea8c114	0.32959807
86	0xbf15a100	-0.5844879
87	0x3dd2236a	0.10260661
88	0xbecd7a5f	-0.40132424
89	0x3e011faf	0.12609743
90	0xbeb3fa3c	-0.3515185
91	0x3e02590a	0.12729278
92	0xbf853aaa	-1.0408528
93	0xbf3680e2	-0.7129041
94	0x3e377ef9	0.1791953
95	0x3cffb391	0.031213554
96	0xbf18b56c	-0.5965183
97	0x3eb180dd	0.34668627
98	0x3d1d6f0b	0.038435977
99	0x3d0c2227	0.034212258
100	0xbe8bbbb4	-0.27291644
101	0xbeeec20d	-0.46632424
102	0x3db3d902	0.08781625
103	0xbe4aee6b	-0.19817512
104	0xbed8303d	-0.42224303
105	0x3dda245e	0.10651468
106	0x3e934172	0.28760868
107	0x3eb5956a	0.35465556
108	0xbe9bc616	-0.30424565
109	0x3d75fb15	0.060053904
110	0xbe9ccd05	-0.30625167
111	0xbeea5d53	-0.45774326
112	0xbf15500d	-0.5832527
113	0xbf04c325	-0.51860267
114	0x3ec0b3dc	0.37637222
115	0x3e30462e	0.17214271
116	0xbf3b6208	-0.7319646
117	0x3eb505fb	0.35356125
118	0x3e2498e7	0.16073953
119	0xbf3f8240	-0.7480812
120	0xbf80d42f	-1.0064753
121	0xbedd16a1	-0.43181327
122	0x3e8a1071	0.2696567
123	0xbe827fe5	-0.254882
124	0x3d392616	0.045202337
125	0x3ede2f42	0.4339543
126	0x3ea41146	0.3204443
127	0xbdd603bc	-0.10449931

linear.2.weight f4 [64, 128]
0	0xba194e30	-0.00058481377
1	0x3d3a1617	0.045431223
2	0x3d47096f	0.04859298
3	0x3e93c391	0.28860143
4	0x3d4fde87	0.050749328
5	0x3ddbd946	0.10734801
6	0x3da4802b	0.080322586
7	0x3dba30aa	0.09091313
8	0xbe144988	-0.14481175
9	0x3e3d9cc8	0.18516839
10	0x3e6a04ae	0.22853348
11	0x3f1535e3	0.5828535
12	0x3d4bf20a	0.049791373
13	0x3d14efb7	0.036361422
14	0x3d8791fb	0.066196404
15	0xbbd25f83	-0.0064200773
16	0xbdb0c400	-0.08631134
17	0x3d21ee09	0.03953365
18	0x3dbb1145	0.09134153
19	0xbc0f55c6	-0.008748477
20	0x3bc2546c	0.005930474
21	0xbe0085a4	-0.1255098
22	0x3d924980	0.07142925
23	0xbcbec29d	-0.023286158
24	0x3e410312	0.18848827
25	0x3e00d20c	0.12580127
26	0x3df1767c	0.11790177
27	0x3dc84a1e	0.09779762
28	0xbde6795f	-0.112536184
29	0xbd29bb13	-0.041438174
30	0x3de99182	0.114047065
31	0x3d63afd2	0.055587597
32	0x3ea2bd73	0.31785163
33	0x3c86bd63	0.016447728
34	0x3da2f14a	0.079561785
35	0xbe165de9	-0.14684261
36	0x3e0dc673	0.13845234
37	0x3e2e62f4	0.17029935
38	0x3d9115dc	0.070842475
39	0x3d7bb216	0.061449133
40	0xbd8fac43	-0.07015278
41	0x3cab8ff1	0.02094266
42	0xbdaf392d	-0.08555827
43	0x3e206005	0.15661629
44	0xbde80c80	-0.11330509
45	0x3e22ed9e	0.15910956
46	0x3d29b1b8	0.04142925
47	0x3e069347	0.1314212
48	0x3e3afe2e	0.18261024
49	0xbed7cbb7	-0.4214761
50	0x3d547000	0.051864624
51	0x3f11a040	0.5688515
52	0x3e062f15	0.13103898
53	0x3dc00e09	0.09377677
54	0xbf416f62	-0.7556058
55	0xbc6066ff	-0.013696431
56	0x3f3ec293	0.74515647
57	0x3d012140	0.03152585
58	0x3e955b12	0.29171044
59	0xbed20d9b	-0.41026005
60	0xbde68dba	-0.11257501
61	0x3d8f8aba	0.07008882
62	0x3e340786	0.17580995
63	0x3e34cf52	0.17657211
64	0xbe83f382	-0.2577172
65	0xbd3b4d58	-0.045728058
66	0x3df6bd8f	0.12047874
67	0xbdc5639c	-0.096381396
68	0xbcedd606	-0.029032718
69	0x3d232630	0.03983134
70	0xbd0eb276	-0.034838162
71	0x3dd8ce9b	0.10586282
72	0xbe16f5ac	-0.14742154
73	0xbec35e8d	-0.38158074
74	0x3aadb462	0.0013252611
75	0xbdd39128	-0.10330421
76	0xbae14684	-0.0017187153
77	0x3de0e235	0.109806456
78	0xbd667652	-0.056265183
79	0xbe8d8d11	-0.27646688
80	0x3e2dc80c	0.16970843
81	0xbeb3ee21	-0.35142615
82	0xbd178fb0	-0.037002265
83	0xbe0bec11	-0.13664271
84	0xbc92b313	-0.017907655
85	0x3e2ca3c0	0.1685934
86	0xbc44f560	-0.012021393
87	0x3de3ff7e	0.11132716
88	0xbda83300	-0.082128525
89	0x3d475eab	0.048674267
90	0x3c02f50d	0.007992995
91	0x3de8db86	0.11369996
92	0xbf1f0645	-0.6211894
93	0xbd23b72a	-0.0399696
94	0x3e11dc53	0.14244203
95	0x3e315ab7	0.17319761
96	0xbdf9141c	-0.12162039
97	0x3e377ddf	0.1791911
98	0x3e8f513e	0.2799167
99	0x3d26d668	0.040731817
100	0x3d24819e	0.040162675
101	0x3d31f4b0	0.043446243
102	0xbd19c61d	-0.03754245
103	0xbd8b576c	-0.06803784
104	0xbd12b29f	-0.035814878
105	0x3dda6004	0.10662845
106	0x3e0b68bf	0.13614176
107	0x3db9e911	0.09077657
108	0xbcc0b31c	-0.023522906
109	0x3e9b7bdb	0.30367932
110	0x3e19d112	0.1502116
111	0xbdaacda8	-0.08340007
112	0xbe02a818	-0.12759435
113	0xbe4f8bf1	-0.20268227
114	0x3e0e80b4	0.13916284
115	0x3e00ec34	0.12590104
116	0x3cda8624	0.026675291
117	0x3dbcbc40	0.09215593
118	0xbc5b3c23	-0.013381037
119	0xbef956df	-0.4869909
120	0xbf923fca	-1.1425717
121	0xbe0fdb50	-0.14048505
122	0x3e20ed9e	0.15715644
123	0x3d5e3494	0.05424936
124	0x3d27f9f0	0.041009843
125	0x3d9800cd	0.07422028
126	0x3e1bd7a3	0.15218978
127	0xbe1f7f09	-0.15575804
128	0xbcf93b9a	-0.030423928
129	0xbc52a5ac	-0.012856882
130	0x3f1e1872	0.6175605
131	0xbe4ba1d4	-0.19885951
132	0x3e41183f	0.18856905
133	0x3dd527fb	0.10408016
134	0x3ddbea8e	0.10738097
135	0xbe015d18	-0.12633169
136	0x3d96cc83	0.07363226
137	0x3e30e0c6	0.17273244
138	0x3e897425	0.26846424
139	0x3ead641d	0.33865443
140	0x3e39e0f5	0.1815222
141	0x3b8fb831	0.004385971
142	0xbd72bd6a	-0.05926267
143	0x3d50826d	0.050905634
144	0xbcfb7b1f	-0.030698357
145	0xbba34fda	-0.0049838843
146	0x3c8f4f81	0.017493965
147	0xbf000cf3	-0.5001976
148	0x3ccfc991	0.025364669
149	0x3e93e0d3	0.28882465
150	0x3f0f959c	0.5608766
151	0xbc2176e2	-0.009855004
152	0x3dea96fa	0.11454578
153	0x3d24541d	0.04011928
154	0x3ef095f9	0.4698942
155	0xbdd63093	-0.104584835
156	0xbe3d2072	-0.18469408
157	0x3e011a16	0.12607607
158	0x3d398763	0.04529513
159	0x3daee543	0.08539822
160	0xbefaffc8	-0.4902327
161	0xbeead3e4	-0.45864785
162	0xbbca82da	-0.0061801495
163	0x3e47f0c0	0.19525433
164	0x3e0eb1a6	0.13934955
165	0xbd5e1bb9	-0.054225657
166	0x3e04bec3	0.12963395
167	0x3e7f9db6	0.24962506
168	0xbe5d5136	-0.21613011
169	0xbc26bb07	-0.010176427
170	0xbe3fb2bd	-0.18720527
171	0x3b453b35	0.0030095105
172	0xbf1bd33d	-0.608692
173	0x3e09e3d7	0.1346582
174	0x3d90b48e	0.07065688
175	0xbdab688b	-0.08369549
176	0x3d903b62	0.070425764
177	0xbec68088	-0.38769937
178	0x3db640dd	0.088990904
179	0xbddd08a9	-0.107926674
180	0x3a9db090	0.0012030769
181	0x3d16ae5e	0.036787383
182	0x3f60107e	0.87525165
183	0x3d162d16	0.03666409
184	0x3e3de7b6	0.18545422
185	0x3dabf140	0.08395624
186	0x3e069602	0.13143161
187	0xbf258229	-0.64651734
188	0x3f133faa	0.5751902
189	0x3eca8e97	0.39561912
190	0x3d4b9119	0.049698923
191	0x3dae24ef	0.08503138
192	0xbf1c99ff	-0.6117248
193	0x3d60af38	0.0548546
194	0x3d8ddd87	0.069270186
195	0xbd805ea4	-0.06268051
196	0x3e0a13ed	0.13484164
197	0xbf687183	-0.90798205
198	0x3c811924	0.015759058
199	0xbd43ab45	-0.047770757
200	0x3d908564	0.07056692
201	0xbedc1017	-0.42981026
202	0xbe228cc3	-0.15874009
203	0xbeacd022	-0.33752543
204	0x3dfb626e	0.12274633
205	0xbd1ee670	-0.03879398
206	0x3d2dc952	0.042428322
207	0xbe1a7129	-0.1508223
208	0x3e3a33cf	0.18183826
209	0x3dafed39	0.085901685
210	0xbe42aee0	-0.19012022
211	0xbec7437c	-0.38918674
212	0xbf4c0f5a	-0.79710925
213	0x3de220ec	0.110414356
214	0x3e04f52e	0.12984154
215	0x3d961f92	0.0733024
216	0xbf5b276b	-0.8560702
217	0x3ba9b5ac	0.0051791277
218	0x3cbd29a3	0.023091143
219	0x3e20edf9	0.1571578
220	0xbee7397b	-0.45161042
221	0x3f959623	1.1686443
222	0x3dfd684e	0.1237341
223	0xbd9d341c	-0.07675955
224	0xbea8a675	-0.32939497
225	0x3b962ae1	0.0045827483
226	0xbe9e5695	-0.30925432
227	0x3c6f6b30	0.014612958
228	0xbe7a6da3	-0.24455886
229	0xbe7263e9	-0.23670925
230	0x3c2d603a	0.010582024
231	0xbd4a9a23	-0.049463402
232	0xbe708b69	-0.23490681
233	0x3c08b358	0.00834354
234	0x3cdb4fa6	0.026771378
235	0x3e001b0b	0.12510316
236	0xbe2ff4df	-0.17183255
237	0x3e844260	0.2583189
238	0xbebeb913	-0.37250575
239	0x3d47c97d	0.04877614
240	0xbe64c1c0	-0.22339535
241	0x3eb39b3e	0.35079378
242	0x3e5cf466	0.21577606
243	0xbe80a6ef	-0.2512736
244	0xbe411d36	-0.188588
245	0xbeb15d3c	-0.34641445
246	0xbbbec87f	-0.005822241
247	0xbf1cd609	-0.6126409
248	0xbf7896ed	-0.97105294
249	0xbd183403	-0.037158977
250	0x3dbbe4e7	0.09174519
251	0xbd5023c0	-0.050815344
252	0x3a9a4fb7	0.0011773024
253	0xbda11fe1	-0.078674085
254	0x3cde075e	0.027103122
255	0xbe6e0711	-0.23244883

linear.2.bias f4 [64]
0	0x3e5f86a0	0.21828699
1	0x3e1e7efb	0.15478127
2	0xbc04c323	-0.008103165
3	0x3e6f4330	0.23365474
4	0xbd0e1344	-0.034686342
5	0x3ceb336a	0.02871104
6	0x3e166ca5	0.14689882
7	0xbdb1bc01	-0.08678437
8	0x3e25f33f	0.16206072
9	0x3e0f9889	0.14023031
10	0xbd52e03b	-0.051483374
11	0xbc9824af	-0.01857218
12	0x3e432cfc	0.19060129
13	0x3ea93a39	0.33052233
14	0x3e255f61	0.16149665
15	0xbc75b15b	-0.014995898
16	0x3e0aa632	0.13539961
17	0x3d492394	0.049106196
18	0x3e4152dc	0.18879265
19	0x3e9d8af1	0.30770066
20	0xbcbaae08	-0.022788063
21	0xbdae3c05	-0.085075416
22	0x3caea110	0.021317035
23	0xbcec44d4	-0.028841414
24	0x3c9b3232	0.018944833
25	0x3d9ea2c0	0.07745886
26	0x3d9884b5	0.07447187
27	0x3cdc887e	0.026920553
28	0xbcc8de59	-0.024520086
29	0xbd8b27a3	-0.067946695
30	0xbd9c0810	-0.07618725
31	0xbd951985	-0.07280258
32	0x3e026b1a	0.12736169
33	0xbd94b27f	-0.07260608
34	0x3ba6b552	0.005087533
35	0x3e332ff0	0.17498755
36	0xbdb978b7	-0.09056228
37	0x3c882c37	0.016622646
38	0x3e520c37	0.20512472
39	0xbdf2a8e5	-0.1184862
40	0x3e1e43ff	0.15455626
41	0xbda13160	-0.07870746
42	0xbcff287a	-0.03114723
43	0x3e3dbb25	0.18528421
44	0x3e8579e7	0.26069567
45	0x3e4c5b7c	0.19956774
46	0x3e0478dc	0.12936729
47	0x3e063490	0.13105989
48	0xbcdcf737	-0.02697335
49	0x3e8dbc8e	0.27682918
50	0x3e0dd303	0.13850026
51	0xbba07119	-0.004896295
52	0x3e71ccf0	0.23613334
53	0x3e54363d	0.20723815
54	0x3e88127c	0.26576602
55	0x3caedec8	0.021346465
56	0xbde65633	-0.1124691
57	0x3e70489a	0.23465195
58	0x3e58fb5e	0.21189639
59	0x3ded5512	0.115884915
60	0x3e6eb534	0.23311311
61	0x3daf75c2	0.085673824
62	0xbdcf2992	-0.10115351
63	0x3cea494f	0.02859941

linear.4.weight f4 [3, 64]
0	0xbc55cf2e	-0.013049884
1	0xbdab824c	-0.083744615
2	0xbee383bf	-0.44436452
3	0xbde725fa	-0.1128654
4	0xbcea9338	-0.028634652
5	0xbf04576d	-0.516959
6	0xbd389e7f	-0.04507303
7	0x3d574ace	0.052561574
8	0xbde8b12b	-0.11361917
9	0xbe3afaad	-0.18259688
10	0xbe781a75	-0.24228843
11	0xbdfa517e	-0.12222575
12	0xbe43631e	-0.19080779
13	0xbe764c00	-0.24052429
14	0xbcab8cde	-0.020941194
15	0xbd930d39	-0.071802564
16	0x3f5b8e1c	0.85763717
17	0x3de3c7f9	0.11122126
18	0xbda248b9	-0.07924027
19	0xbe963214	-0.29335082
20	0xbd0a7a02	-0.033807762
21	0xbd03f530	-0.03221625
22	0xbd08db38	-0.03341219
23	0x3d9156d6	0.07096641
24	0xbd32b22c	-0.04362695
25	0xbe33a606	-0.17543802
26	0x3f3365df	0.7007732
27	0xbc9c5c21	-0.0190869
28	0xba2aedee	-0.00065204396
29	0x3dfa7517	0.12229364
30	0xbd2a2d72	-0.041547246
31	0xbddd7516	-0.10813348
32	0xbde4a0b7	-0.111634664
33	0xbb066740	-0.002050832
34	0x3d9d2c87	0.076745085
35	0xbe0cf5be	-0.13765618
36	0x3dbc4bbd	0.091941334
37	0x3d4fb56c	0.050710127
38	0x3ab67a72	0.001392199
39	0x3c4b8b4d	0.012423349
40	0xbd8bb7b9	-0.06822152
41	0x3d95beb7	0.073117666
42	0xbb2780d0	-0.0025558956
43	0xbd80c942	-0.06288387
44	0xbe3bf580	-0.1835537
45	0xbdbd9611	-0.092571385
46	0xbdb2c272	-0.08728494
47	0xbe23e112	-0.16003826
48	0xbefa33ac	-0.48867548
49	0xbe376490	-0.17909455
50	0xbdf7e3cd	-0.121039964
51	0x3d452dfa	0.04813955
52	0xbe37542e	-0.17903206
53	0xbe0b5eb0	-0.13610339
54	0xbdafcb47	-0.08583694
55	0xbe878d75	-0.2647511
56	0xbde87356	-0.113501236
57	0xbca6db77	-0.02036832
58	0xbe276015	-0.16345246
59	0x3f8fa249	1.12214
60	0xbe002320	-0.12513399
61	0xbed97825	-0.42474476
62	0xbc37c4e2	-0.011216374
63	0x3d83b3e0	0.06430793
64	0xbe1ae9a7	-0.15128194
65	0xbda20bcd	-0.07912407
66	0xbed58453	-0.41702518
67	0xbdb470e9	-0.088105984
68	0xbdae64b0	-0.08515298
69	0xbef7b90e	-0.48383373
70	0xbdc05934	-0.09392014
71	0x3c8975b8	0.016779765
72	0xbe1a14ac	-0.15046948
73	0xbe0bd042	-0.13653663
74	0xbd3f9d84	-0.046781078
75	0x3d472518	0.04861936
76	0xbc9086ac	-0.017642342
77	0xbe1d2ed4	-0.15349895
78	0xbe386cec	-0.180103
79	0x3d8c05c9	0.06837041
80	0x3fa00871	1.2502576
81	0xbd0ecbd8	-0.03486237
82	0xbd85c00c	-0.06530771
83	0xbe5bbd6e	-0.2145898
84	0xbc84e7ab	-0.01622375
85	0xbc49c8e4	-0.012315962
86	0x3d9fd0eb	0.0780352
87	0xbcd1a95f	-0.025593458
88	0x3db64408	0.08899695
89	0xbe636000	-0.2220459
90	0x3f911bf6	1.1336658
91	0xbd5f97bb	-0.05458806
92	0x3da34673	0.079724215
93	0x3e92fb71	0.2870746
94	0x3d233885	0.039848823
95	0x3d449b44	0.047999635
96	0xbdf43ab0	-0.11925256
97	0x3c390779	0.0112932855
98	0xbda59f86	-0.08087067
99	0xbdac799f	-0.08421635
100	0x3b92f9ad	0.00448533
101	0xbb47d7be	-0.0030493583
102	0xbdd726d3	-0.10505452
103	0x3e03b1d6	0.12860808
104	0xbe0d97a4	-0.13827378
105	0xbd0f3098	-0.034958452
106	0x3cfbe90a	0.03075077
107	0xbde691e6	-0.11258297
108	0xbe445f1d	-0.19176908
109	0xbe09fd68	-0.13475573
110	0xbc09b954	-0.008406002
111	0xbda1cc33	-0.07900276
112	0xbee3343d	-0.44375792
113	0xbdbcd99b	-0.092211924
114	0xbdfb51de	-0.12271474
115	0x3dc1b9f2	0.094592944
116	0xbe3aa2d5	-0.18226178
117	0xbe067309	-0.1312982
118	0xbd79d427	-0.06099334
119	0xbea0bbfa	-0.31393415
120	0x3cd53158	0.026024505
121	0xbdfbfb0a	-0.12303741
122	0xbe2abb0d	-0.16672917
123	0x3f9d0ff0	1.2270489
124	0xbe2ffd43	-0.17186455
125	0xbf1453f3	-0.57940596
126	0xbcb84dd5	-0.02249805
127	0x3d6507da	0.05591569
128	0xbe37d0c1	-0.17950727
129	0xbe3225c9	-0.17397226
130	0xbef2fd65	-0.4745895
131	0xbc057309	-0.008145102
132	0x3d604a60	0.05475843
133	0xbed8c518	-0.4233787
134	0xbdca4ba3	-0.09877708
135	0xbe0271c1	-0.12738706
136	0xbe1a1dec	-0.15050477
137	0xbdbfc250	-0.09363234
138	0x3f08336a	0.5320345
139	0x3b9c1241	0.004762918
140	0xbda5253f	-0.08063745
141	0xbe7254be	-0.23665139
142	0xbe4615b5	-0.19344218
143	0x3c130c09	0.008975037
144	0x3f845f97	1.0341672
145	0xbd8ac3cb	-0.06775626
146	0xbe0b31b2	-0.13593176
147	0xbdd64a36	-0.10463373
148	0x3d80f4e7	0.062967114
149	0x3c964575	0.018343667
150	0x3cec42a7	0.028840376
151	0xbd9e805d	-0.07739327
152	0x3d008b79	0.03138301
153	0xbe2f59f1	-0.17124154
154	0x3f1fb287	0.62381786
155	0x3de50bd4	0.11183897
156	0x3d950c0e	0.0727769
157	0x3e83e29d	0.2575883
158	0x3dcf582f	0.101242416
159	0x3d735baa	0.05941359
160	0xbce4dd06	-0.027937423
161	0x3d6f5de4	0.05843915
162	0x3d517172	0.05113358
163	0xbe42cbec	-0.19023103
164	0xbcdd7a05	-0.027035723
165	0xbde0025d	-0.10937951
166	0xbe05a9ff	-0.1305313
167	0xbd4dfdf9	-0.050291035
168	0xbd8e63e9	-0.0695265
169	0x3cbd4a8e	0.02310684
170	0x3dcce039	0.100037046
171	0xbe1b1fc6	-0.1514884
172	0x3a27901e	0.00063920196
173	0xbe11f1e7	-0.14252435
174	0xbdeb366a	-0.11484988
175	0xbdcb796a	-0.09935267
176	0xbf218b1d	-0.63102895
177	0xbe50baba	-0.2038373
178	0xbdab6082	-0.08368017
179	0xbc84b9a1	-0.016201796
180	0xbdb76ac9	-0.089559145
181	0xbccd90c3	-0.025093442
182	0xbe0ab5fa	-0.13545981
183	0xbe2e4d75	-0.17021735
184	0xbc45c399	-0.01207056
185	0xbe0a773b	-0.13522045
186	0xbe47da6f	-0.1951692
187	0x3faa5f0e	1.3310258
188	0xbe261139	-0.16217507
189	0xbf12acb3	-0.5729477
190	0x3d44c01f	0.048034783
191	0xbd8bf984	-0.06834701

linear.4.bias f4 [3]
0	0xbe3ab723	-0.18233924
1	0xbe31ba7c	-0.17356294
2	0xbea3ba0f	-0.3197789
