model/model_700.pth (torch, 39383 bytes, 6 tensors)

linear.0.weight f4 [128, 6]
0	0x3e2c0c50	0.16801572
1	0x3f7c2e87	0.98508495
2	0xbeb5e891	-0.35528997
3	0xbf2d9a87	-0.67813915
4	0x3e19d89c	0.15024036
5	0x3e402411	0.18763758
6	0x3ea791a6	0.32728308
7	0xbf14525a	-0.5793816
8	0x3f06721f	0.52517885
9	0xbd5f4920	-0.054513097
10	0x3e9b332f	0.30312487
11	0x3e08b44b	0.13350026
12	0xbfc191e2	-1.5122645
13	0x3e8260ae	0.25464386
14	0xbf6c7da3	-0.92379206
15	0xbf15715e	-0.5837611
16	0xbec22448	-0.37918305
17	0xbe88edb4	-0.26743853
18	0xbfdb20cb	-1.7119383
19	0x3da26620	0.07929635
20	0xbe916d3b	-0.2840365
21	0xbed4de5e	-0.41575903
22	0xbc2f9ed8	-0.010719024
23	0x3e26b4b4	0.1627987
24	0xbf78e046	-0.97217214
25	0xbe8ca36c	-0.2746843
26	0xbf191c0a	-0.5980841
27	0x3def9743	0.11698773
28	0x3f3bc3d9	0.73345715
29	0x3b3ba17a	0.0028630183
30	0x3f1605d9	0.5860267
31	0xbddd9dc6	-0.108211085
32	0x3f05f43e	0.5232581
33	0x3e575e9c	0.21032184
34	0x3e87240a	0.26394683
35	0xbd85d227	-0.06534224
36	0xbea18ed7	-0.3155429
37	0xbf7006f5	-0.93760616
38	0xbf3b2b43	-0.7311289
39	0xbba033a5	-0.004888969
40	0xbdd87fb7	-0.10571235
41	0xbc72c47d	-0.014817354
42	0xbefacc1d	-0.4898385
43	0x3f2250d4	0.63404584
44	0x3f87da72	1.0613539
45	0x3f339627	0.7015099
46	0xbf2544ab	-0.64557904
47	0xbecd603d	-0.40112486
48	0x3cd33ae9	0.025784926
49	0x3e79397a	0.24338332
50	0xbfd2e253	-1.6475319
51	0xbd35ec71	-0.04441494
52	0xbec401ad	-0.3828253
53	0x3d3ab205	0.04557993
54	0x3ee798af	0.45233676
55	0x3e225634	0.15853196
56	0x3e0cb45b	0.13740675
57	0x3edca891	0.43097356
58	0xbe563036	-0.20916829
59	0xbcb5bf94	-0.022186078
60	0x3e64a7a8	0.22329581
61	0xbf0f3924	-0.55946565
62	0x3c821e2f	0.015883533
63	0xbf2c4623	-0.6729452
64	0x3f46a66e	0.775977
65	0x3ebb2414	0.36550963
66	0xbfa8042d	-1.3126274
67	0x3ecdb94b	0.4018043
68	0x3d86be3d	0.06579254
69	0x3f642c42	0.8913003
70	0x3e3bdd0b	0.1834604
71	0x3e66650e	0.22499487
72	0x3d6dc1a1	0.058045987
73	0x3f160cbf	0.586132
74	0x3e7275c0	0.2367773
75	0xbde3b693	-0.11118808
76	0xbe804e9f	-0.25059983
77	0xbda33bc7	-0.07970386
78	0x3c876875	0.016529301
79	0x3f19573c	0.59898734
80	0x3f2bd1b9	0.67116886
81	0xbe33e35e	-0.17567202
82	0xbd86edd9	-0.065883346
83	0x3eaf38c5	0.34223
84	0xbe9eb55f	-0.3099775
85	0x3f94aadc	1.1614642
86	0xbf98af15	-1.1928431
87	0x3e9f3325	0.31093708
88	0xbe836ee8	-0.25670552
89	0x3e89dba4	0.26925385
90	0xbfafd66a	-1.3737309
91	0x3f8f43d8	1.1192579
92	0xbe31100b	-0.17291276
93	0x3f3c7cb3	0.73627776
94	0x3ea52de2	0.32261568
95	0x3e606bdd	0.21916147
96	0xbfabe94a	-1.3430569
97	0x3f33052c	0.69929767
98	0x3ea27989	0.3173335
99	0x3ecc3faa	0.39892322
100	0xbe38f159	-0.18060817
101	0xbebf531e	-0.373681
102	0xbf6d5c6e	-0.9271916
103	0xbf9b7377	-1.2144612
104	0x3d96f878	0.073716104
105	0xbeec5a58	-0.46162677
106	0x3f3732b5	0.7156175
107	0x3e8f16c9	0.2794707
108	0xbd022313	-0.03177173
109	0x3e4bc418	0.19899023
110	0x3c05c62b	0.008164923
111	0x3ce03787	0.027370228
112	0x3e840371	0.25783876
113	0x3e247a48	0.16062272
114	0xbe2d5c2c	-0.16929692
115	0x3ef1b96d	0.4721178
116	0xbf9efba3	-1.2420543
117	0xbf3d0d08	-0.7384801
118	0x3f126932	0.57191765
119	0x3ec85534	0.39127505
120	0x3f1f08d7	0.62122864
121	0xbed8c29a	-0.4233597
122	0x3f000810	0.500123
123	0xbf63cbf5	-0.8898309
124	0xbeaa9faf	-0.33324954
125	0x3e490f00	0.19634628
126	0xbed2f6df	-0.41203973
127	0xbf9dc5c2	-1.2325976
128	0x3d3a9c25	0.045559067
129	0xbf3a9d1d	-0.72895986
130	0xbf216838	-0.6304965
131	0xbf02902a	-0.51001227
132	0xbef63159	-0.48084524
133	0x3f01d8f7	0.5072169
134	0xbf3addb8	-0.72994566
135	0x3f032935	0.5123475
136	0x3e841d6d	0.258037
137	0x3ec169c3	0.37776002
138	0xbf090e3b	-0.5353734
139	0x3fc7a66e	1.5597665
140	0xbee1203d	-0.43969908
141	0xbed0c7c3	-0.40777406
142	0x3d88bf11	0.06677068
143	0x3ef23d82	0.47312552
144	0x3f0651a5	0.5246833
145	0x3f0406a1	0.51572615
146	0x3e9ec2da	0.31008035
147	0x3eab309a	0.33435518
148	0x3c8cb988	0.017178312
149	0xbe10f2db	-0.14155142
150	0x3df1a913	0.117998265
151	0x3ecf5ea4	0.40501893
152	0x3e0b599c	0.13608402
153	0xbe3e8f2b	-0.18609302
154	0xbd0dbe99	-0.034605596
155	0xbe08876d	-0.13332911
156	0xbfda58e2	-1.7058375
157	0xbe2fc529	-0.17165054
158	0xbe0cf99f	-0.13767098
159	0xbe9f9de0	-0.31175137
160	0xbebd098e	-0.36921352
161	0xbef16dee	-0.47154182
162	0xbe8414a4	-0.25796998
163	0x3eca1296	0.39467305
164	0xbf616e25	-0.8805869
165	0x3edeaf0a	0.4349292
166	0x3f01d90d	0.5072182
167	0xbe16c91b	-0.14725153
168	0x3def5506	0.11686139
169	0x3e8bb72e	0.27288193
170	0x3e4de0ee	0.20105335
171	0x3f103473	0.5633003
172	0xbf17786b	-0.5916812
173	0xbeb464a1	-0.35233024
174	0xbf0fdedb	-0.56199425
175	0x3ed49142	0.41517073
176	0xbf1ac167	-0.6045136
177	0xbe87e13f	-0.26539037
178	0x3e9af28f	0.30263183
179	0x3ef0fcd3	0.4706789
180	0x3edbd077	0.42932484
181	0xbf6ef695	-0.93345004
182	0x3d4a6e1c	0.049421415
183	0x3ed57bdf	0.4169607
184	0x3da52745	0.08064131
185	0x3d2e43db	0.04254518
186	0xbf6cbc27	-0.924746
187	0x3e637067	0.22210847
188	0x3db0fbd0	0.086417794
189	0x3e1a4640	0.15065861
190	0xbf35e768	-0.7105622
191	0xbe06dc4d	-0.13169976
192	0xbf47956a	-0.7796236
193	0x3e1ba5e0	0.15199995
194	0xbf035ef1	-0.51316744
195	0xbf79cb5e	-0.9757594
196	0xbe9bfab9	-0.30464724
197	0x3e602de8	0.21892512
198	0xc00136d2	-2.018971
199	0xbe2ec7fe	-0.17068478
200	0x3f88fe52	1.0702612
201	0x3f12c1b6	0.5732683
202	0x3e941ae2	0.2892676
203	0x3e019b26	0.1265684
204	0x3f109f58	0.5649314
205	0xbfbe0879	-1.4846336
206	0xbe24d95a	-0.16098538
207	0x3f1a2209	0.60208184
208	0x3e4d119a	0.20026246
209	0xbeb35780	-0.35027695
210	0xbe0ad308	-0.13557065
211	0x3fb22d2a	1.3920033
212	0xbfb8fd91	-1.4452382
213	0xbe04b228	-0.12958586
214	0x3c2c7f9e	0.010528473
215	0x3eb028a3	0.34406003
216	0x3f8f359c	1.1188235
217	0xbf0c745a	-0.5486504
218	0x3e874464	0.26419365
219	0xbe1a25ba	-0.15053454
220	0x3e04229d	0.12903829
221	0x3e356502	0.17714313
222	0x3f3865bd	0.7203024
223	0xbe63bf3a	-0.22240916
224	0xbe18a369	-0.14906086
225	0x3e1f0362	0.15528634
226	0xbe1306d5	-0.14358075
227	0xbd829a1d	-0.06377051
228	0x3ec34d30	0.38144827
229	0x3f431cbc	0.7621572
230	0x3f0889f3	0.53335494
231	0x3e84144f	0.25796744
232	0xbe93d26a	-0.2887147
233	0xbd7a2691	-0.061071936
234	0x3ed74cca	0.42050773
235	0x3f09ad4d	0.5378006
236	0x3e7788c7	0.2417327
237	0x3f1c37f7	0.61022896
238	0xbe0f0a6f	-0.13968824
239	0xbe38cb50	-0.18046308
240	0xbf88f2c6	-1.0699089
241	0x3ea5338f	0.322659
242	0xbd059ded	-0.032621313
243	0x3e8a8fe9	0.2706292
244	0xbf02f77b	-0.51158875
245	0xbedec7b5	-0.4351174
246	0xbfb9a1e9	-1.4502536
247	0xbf19e6c4	-0.60117745
248	0xbe0be355	-0.13660939
249	0xbfb5f507	-1.4215401
250	0xbea0f4f5	-0.31436887
251	0x3b5ac317	0.0033380443
252	0xbf53e8a7	-0.82776874
253	0x3fa773f0	1.3082256
254	0xbfa3ddea	-1.2802098
255	0x3d8dba9a	0.06920357

linear.0.bias f4 [128]
0	0xbe2fb08a	-0.17157188
1	0x3f0f65ae	0.56014526
2	0xbf6aa6d0	-0.91660786
3	0xbf9c2dfc	-1.2201533
4	0xbfa30a47	-1.2737511
5	0x3d4c915e	0.04994332
6	0x3e93ff59	0.28905752
7	0xbf7ebaaa	-0.99503577
8	0xbfc218f8	-1.516387
9	0x3f2237e5	0.6336654
10	0xbf9579b1	-1.1677762
11	0xbf4c46f5	-0.7979577
12	0x3f051ea7	0.51999897
13	0x3f370058	0.714849
14	0xbfa4b182	-1.2866671
15	0xbf9e175a	-1.2350876
16	0xc003df7e	-2.0605159
17	0xbf881c8d	-1.0633713
18	0x3f5136b7	0.81724113
19	0xc00da1a6	-2.2129912
20	0x3a25c0ab	0.000632296
21	0xbfb60002	-1.4218752
22	0xbfcdcda8	-1.6078386
23	0xbe435af3	-0.19077663
24	0x3f321edb	0.6957833
25	0x3f365903	0.7122957
26	0xbf4378e4	-0.7635634
27	0xbf4efe7d	-0.8085707
28	0xbfb63255	-1.423411
29	0xbf865658	-1.04951
30	0x3ed0a52a	0.4075101
31	0xbf6c8fe0	-0.92407036
32	0xbfcaa3da	-1.5831254
33	0xbf259b4b	-0.64690083
34	0x3e4d381c	0.20040935
35	0xbfa4e419	-1.288211
36	0x3db3a968	0.08772546
37	0x3f311ad0	0.6918154
38	0x3ebbdb82	0.3669091
39	0x3e8c75e7	0.27433702
40	0xbf9f54f2	-1.2447798
41	0xbe948f41	-0.29015544
42	0xbf8491f7	-1.0357045
43	0x3e6754c5	0.22590931
44	0xbfd25ba5	-1.6434218
45	0x3d5783d6	0.052615963
46	0xbf40bfed	-0.75292856
47	0x3f5efa49	0.87100655
48	0x3f1fcbdb	0.62420434
49	0xbfe095c6	-1.7545707
50	0x3ee2df01	0.44310763
51	0xbfa1dbb3	-1.2645172
52	0xbf667950	-0.9002886
53	0x3de8075a	0.11329527
54	0xbfc877f0	-1.5661602
55	0xbf1f4040	-0.6220741
56	0xbf0e349c	-0.55549026
57	0x3ec619be	0.38691515
58	0xbfd61288	-1.6724405
59	0xc00c5131	-2.1924555
60	0xbf976961	-1.1829034
61	0xbe0f9508	-0.14021695
62	0xbe04fda3	-0.1298738
63	0x3ecfb7d5	0.4056994
64	0xbffd0e85	-1.9770056
65	0x3f1a6de3	0.60323924
66	0xbcc98e36	-0.024603944
67	0xbf5d82ba	-0.865276
68	0xbe56d5e8	-0.20980036
69	0xbfa71003	-1.3051761
70	0xbd23e5c1	-0.040014032
71	0x3ed7af91	0.42126134
72	0xbfc1d075	-1.5141741
73	0xbfc670e8	-1.5503206
74	0xbe06a7f4	-0.13150007
75	0xbfed776f	-1.8552073
76	0xbe965497	-0.29361412
77	0x3eaddbe2	0.3395682
78	0xc000b6e2	-2.0111623
79	0xbfe44e42	-1.7836382
80	0x3d7a61e1	0.0611285
81	0xc01c59ad	-2.4429734
82	0xc006dcb9	-2.1072218
83	0xbffffe85	-1.9999548
84	0xbf96dfe9	-1.1787082
85	0x3f1c99a0	0.61171913
86	0xbfc8855d	-1.5665699
87	0xbe8712f0	-0.26381636
88	0xbf7a22e0	-0.97709465
89	0xbe653ad8	-0.22385728
90	0xbd09fa88	-0.03368619
91	0x3e8471c9	0.2586806
92	0xbff634e9	-1.9234897
93	0xbf957b9a	-1.1678345
94	0x3edd87c4	0.43267643
95	0x3e892886	0.2678873
96	0xbf9459b6	-1.1589878
97	0x3f0ea7b9	0.55724674
98	0x39e3dcd3	0.0004346134
99	0x3e2141b1	0.15747716
100	0xbf5eb87b	-0.87000245
101	0xbfb3e3fc	-1.405395
102	0x3e28060d	0.16408558
103	0xbf426587	-0.7593617
104	0x3e8db695	0.27678362
105	0x3dab87a1	0.083754785
106	0x3eafc8ec	0.3433298
107	0x3ca84626	0.020541262
108	0xbfd75dbe	-1.6825483
109	0xbf72be26	-0.94821393
110	0xbf8663b0	-1.0499172
111	0xbfb3c97f	-1.4045867
112	0xbfa0773a	-1.2536385
113	0xbfab882d	-1.3400933
114	0x3f0807d9	0.53136975
115	0xbf1d8e92	-0.6154567
116	0xbf540525	-0.8282035
117	0xbf277a51	-0.65421015
118	0xbeec3b97	-0.46139213
119	0xc00b5fa8	-2.1777134
120	0xbfc80b77	-1.5628499
121	0xbfd59d02	-1.668854
122	0x3ec41662	0.38298327
123	0xbf387cc3	-0.7206537
124	0xbfa89d74	-1.3173051
125	0x3e5dc4ec	0.21657151
126	0x3eae018d	0.33985558
127	0xbf1d2443	-0.61383456

linear.2.weight f4 [64, 128]
0	0xbecce013	-0.40014705
1	0xbc98c439	-0.018648254
2	0xbfcb1ce6	-1.5868194
3	0xbf0cbbbc	-0.5497396
4	0x3efaf9b0	0.4901862
5	0xbf39888a	-0.7247397
6	0x3ebb1fb3	0.36547622
7	0x400d2588	2.2054157
8	0x3eb4b738	0.35296035
9	0x3e6f2063	0.23352198
10	0x3762e88e	1.3524796e-05
11	0x3f25a8b3	0.6471054
12	0xbdf5bf44	-0.11999372
13	0xbe52aa97	-0.20572887
14	0xbf29d8ce	-0.6634644
15	0xbf211ca9	-0.62934357
16	0xbf99b270	-1.200758
17	0xbc1c2547	-0.009530372
18	0x3dda30ee	0.10653864
19	0xbeb415f4	-0.35173
20	0xbe37972e	-0.17928764
21	0xc0238c83	-2.5554512
22	0x3f07364f	0.52817243
23	0x3e28ad8e	0.16472456
24	0x3e72a5cd	0.2369606
25	0x3e47902c	0.19488591
26	0xbe9771e2	-0.29579073
27	0x3e066621	0.13124897
28	0xc01132df	-2.26873
29	0xbec28f60	-0.3800001
30	0x3e6abbc6	0.22923192
31	0xbfae3086	-1.3608558
32	0xbe92692a	-0.2859586
33	0x3f1b753c	0.6072576
34	0xbee46f38	-0.44616103
35	0xbd69ecc8	-0.057110578
36	0x3e48ff45	0.19628628
37	0x3e6a5f26	0.22887859
38	0xbcdd07c0	-0.026981235
39	0xbdbd88e2	-0.09254624
40	0xc04daa82	-3.213532
41	0xbe0cdb7f	-0.13755606
42	0xbeaaadd7	-0.33335754
43	0x3da93665	0.08262328
44	0xbf5502af	-0.8320722
45	0x3ca6ef21	0.020377697
46	0x3f16bd02	0.58882153
47	0x3e9d69b9	0.30744722
48	0x3e042415	0.12904389
49	0xc064fc05	-3.577882
50	0x3ce09a13	0.027417218
51	0xbfbece37	-1.4906682
52	0x3e441acc	0.19150847
53	0xbdb3c634	-0.087780386
54	0xbfd1791f	-1.6365088
55	0xbd82a5a0	-0.06379247
56	0x3f199b03	0.60002154
57	0xbe6104dd	-0.21974511
58	0xbfa2baaf	-1.2713221
59	0xc08baff9	-4.365231
60	0x3d76ced2	0.060255833
61	0xbeab72ec	-0.33486116
62	0x3e6f6c68	0.23381197
63	0x3d82bd91	0.06383813
64	0xc038dcc2	-2.888474
65	0x3cb2e337	0.02183686
66	0x3d635fd2	0.055511303
67	0xbe12deb3	-0.14342766
68	0x3d85392e	0.06505047
69	0x3cba70fb	0.022758951
70	0xbe8236ab	-0.25432333
71	0x3e00e30f	0.12586616
72	0xbfb89abf	-1.4422225
73	0x3d51a55d	0.051183093
74	0xbf1f0c97	-0.62128586
75	0xbeaa64eb	-0.3328012
76	0x3f47fa7f	0.781166
77	0xbe629cf4	-0.22130185
78	0xbf8bf880	-1.0935211
79	0xbfb5f623	-1.421574
80	0x3e77ab2e	0.24186394
81	0xc0679e14	-3.6190233
82	0x3ecbd5e3	0.3981162
83	0xc0afcec5	-5.4939904
84	0xbdcf0b60	-0.101095915
85	0x3e3ef746	0.18649015
86	0x3e5a552c	0.21321553
87	0xbecb2f2c	-0.39684427
88	0x3ec66784	0.3875085
89	0x3e12164e	0.14266321
90	0x3e09fdb5	0.13475688
91	0xbcb60b01	-0.022222044
92	0xbfdb7b53	-1.714701
93	0xbfdcf6da	-1.7262833
94	0x3e2d60be	0.16931435
95	0x3d936387	0.07196718
96	0xbe0224b7	-0.12709318
97	0xbd3e9b65	-0.046534915
98	0xbe4d52bc	-0.20051092
99	0x3eed0e61	0.46300033
100	0xbde7667c	-0.11298844
101	0x3f4030e0	0.7507458
102	0xbd956367	-0.0729435
103	0xbf5f6b7a	-0.8727337
104	0xbf34fbbd	-0.7069662
105	0x3de47037	0.11154216
106	0x3d243404	0.04008867
107	0xbdeab1e4	-0.11459711
108	0xbe33c51a	-0.17555657
109	0xbf418c92	-0.7560512
110	0x3e49f343	0.19721703
111	0x3e8c8230	0.27443075
112	0xbedeb743	-0.43499193
113	0xbf5f42c9	-0.8721128
114	0x3ddcdf62	0.107847944
115	0x3e21f194	0.15814811
116	0x400f159b	2.2356937
117	0xbf8ccd61	-1.1000177
118	0x3ed03a08	0.40669274
119	0xc0e0868a	-7.016423
120	0xbf8d15a4	-1.1022229
121	0x3f39e33a	0.72612345
122	0xbc8ad70d	-0.016948247
123	0x3e1a7d60	0.1508689
124	0x3e87fb7f	0.26559064
125	0xbef7cc45	-0.48398033
126	0x3e1c0d2b	0.15239398
127	0xbbfb680e	-0.0076723164
128	0x3e7f4e07	0.24932109
129	0x3a9ce5f6	0.0011970389
130	0xbfd780e4	-1.6836209
131	0x3f0ae3a5	0.5425361
132	0x3e71c60d	0.23610707
133	0xbdff44b1	-0.12464274
134	0xbdd34e9f	-0.1031773
135	0x4013c54b	2.3089168
136	0x3ecda3bf	0.4016399
137	0x3e5d7c72	0.21629503
138	0xbe6f1fc8	-0.23351967
139	0x3fac114d	1.344278
140	0x3e43d82f	0.19125436
141	0xbe52a6f0	-0.20571494
142	0xbf75b76f	-0.9598302
143	0xbf24e4c6	-0.6441158
144	0xbfc8162f	-1.563177
145	0xbbe4d265	-0.006983089
146	0x3e0324e8	0.12807047
147	0xbf812b77	-1.009139
148	0xbe0f8d7d	-0.14018817
149	0xbfff25bb	-1.993339
150	0x3f06968b	0.5257346
151	0xbe942903	-0.2893754
152	0x3e8285b9	0.25492647
153	0x3e8d836b	0.27639326
154	0x3f331e67	0.69968265
155	0x3e3a063b	0.18166439
156	0xbe217ba7	-0.15769826
157	0xbe77c986	-0.24197969
158	0x3c97016b	0.018433293
159	0xbed96a26	-0.42463797
160	0xbf9e2d28	-1.235753
161	0xbf8f59e7	-1.1199311
162	0xbda596bd	-0.08085392
163	0xbe7071b3	-0.23480873
164	0x3e5075e1	0.20357467
165	0x3ad29aef	0.0016067902
166	0x3e70f3d6	0.23530516
167	0x3e88799d	0.26655284
168	0xbfffaa32	-1.9973814
169	0x3fa33b29	1.2752429
170	0x3ef9254f	0.48661277
171	0xbde1732a	-0.11008294
172	0x3f657b9a	0.89641726
173	0x3e35a85e	0.17740008
174	0xbebb3472	-0.3656345
175	0x3d74a498	0.05972728
176	0x3e616923	0.22012763
177	0xbfa5204b	-1.290048
178	0x3d71d4ca	0.059040822
179	0xbf32801a	-0.6972672
180	0xbe9bdcbb	-0.3044184
181	0x3d0399b4	0.032129005
182	0xbe624435	-0.22096331
183	0xbc32df89	-0.010917553
184	0x3f92b4e0	1.1461449
185	0x3e0f45f2	0.13991526
186	0xc043c4e7	-3.058893
187	0xc008d987	-2.1382768
188	0x3e4bfdf8	0.199211
189	0xbb3972d2	-0.0028297198
190	0x3eadf1c3	0.33973512
191	0x3e2b7fdf	0.16747998
192	0x3e3080c8	0.17236626
193	0x3ea61ecd	0.32445374
194	0x3e482e0a	0.19548813
195	0x3e4b4fbb	0.19854634
196	0x3e5cd997	0.21567379
197	0xc0122517	-2.2835138
198	0x3e9995b2	0.2999702
199	0x3e05c37c	0.13062853
200	0xbfc33492	-1.5250418
201	0xbfbcefc6	-1.4760673
202	0xbe407990	-0.18796372
203	0x3f0aae81	0.5417252
204	0xbf0057d2	-0.50134003
205	0xbef5b48b	-0.47989306
206	0xbea30f4c	-0.31847608
207	0xbf95be02	-1.1698611
208	0xbe5c74b8	-0.215289
209	0xbfe139c1	-1.759575
210	0x4005509f	2.0830457
211	0x3f2cbd40	0.6747627
212	0xbfb81906	-1.4382637
213	0x3e2fef65	0.17181166
214	0xbee7f026	-0.45300406
215	0xbe485ed9	-0.19567432
216	0xbf99b4f8	-1.2008352
217	0x3f33934d	0.7014664
218	0x3dd05e53	0.10174241
219	0xbe51678a	-0.20449653
220	0xc0820b1a	-4.063855
221	0x3f4dff35	0.8046754
222	0x3e630c08	0.22172558
223	0xbbb80bfd	-0.0056166635
224	0xbf399085	-0.72486144
225	0xbe3d1adc	-0.18467277
226	0xbf34d9e5	-0.7064498
227	0x3e61e431	0.22059704
228	0x3f00d7cc	0.5032928
229	0xbfe57352	-1.7925818
230	0xbc6a2035	-0.014289905
231	0x3f74fd43	0.95698947
232	0x3ede46de	0.43413442
233	0xbdd3cd67	-0.10341912
234	0xbe78fbe2	-0.24314836
235	0x3e347803	0.17623906
236	0x3c79a2cd	0.015236569
237	0xbe768203	-0.24073033
238	0xbf60f99d	-0.8788088
239	0xbebbc2ca	-0.3667205
240	0xbeb958b9	-0.36200503
241	0xbe651e5d	-0.22374864
242	0x3e9b2b12	0.30306298
243	0xbef2264d	-0.47294846
244	0xbe1de2ea	-0.15418592
245	0xbe2afd2a	-0.16698137
246	0xbd768ed3	-0.0601948
247	0xc014bf71	-2.3241847
248	0xbf4f5cbb	-0.8100087
249	0xbf92c29f	-1.1465644
250	0xbea82a0f	-0.32844588
251	0xbf50edbd	-0.8161276
252	0xc09068a2	-4.5127726
253	0xbe948746	-0.29009455
254	0x3df90cdb	0.12160655
255	0xbed776c0	-0.42082787

linear.2.bias f4 [64]
0	0x3edb9406	0.4288637
1	0x3eda91e3	0.42689428
2	0x3e2a6843	0.16641335
3	0x3ea39519	0.3194969
4	0xbd878761	-0.06617618
5	0xbc6e2dab	-0.014537255
6	0x3ecaa8df	0.39581963
7	0xbdb1bc01	-0.08678437
8	0x3ece060a	0.40238982
9	0x3ec4b472	0.3841892
10	0x3dff435d	0.124640204
11	0xbd6b857c	-0.057500347
12	0x3eeff583	0.46866998
13	0x3f133a30	0.5751066
14	0x3f01c225	0.50686866
15	0xbc75b15b	-0.014995898
16	0x3de8da39	0.11369748
17	0x3c8e7889	0.01739146
18	0x3f1d350b	0.6140906
19	0x3ef81e8c	0.48460805
20	0xbcbaae08	-0.022788063
21	0xbdae3c05	-0.085075416
22	0xbc29ab03	-0.010355714
23	0xbd75a4c2	-0.05997158
24	0x3c9b3232	0.018944833
25	0x3d47ca4e	0.048776917
26	0x3d9884b5	0.07447187
27	0x3cdc887e	0.026920553
28	0xbd65b29b	-0.056078535
29	0xbd8b27a3	-0.067946695
30	0xbd9c0810	-0.07618725
31	0xbdf3681a	-0.1188509
32	0x3ee5ea76	0.44905442
33	0xbd94b27f	-0.07260608
34	0x3ba6b552	0.005087533
35	0x3ed52e8a	0.4163707
36	0xbdb978b7	-0.09056228
37	0x3c882c37	0.016622646
38	0x3edaac06	0.42709368
39	0xbe19c568	-0.15016711
40	0x3efc542d	0.4928297
41	0xbda13160	-0.07870746
42	0xbcff287a	-0.03114723
43	0x3ee41ac1	0.44551662
44	0x3ef64611	0.4810033
45	0x3f045e26	0.5170616
46	0x3eca4943	0.3950902
47	0x3ec3d810	0.3825078
48	0xbe35c617	-0.17751347
49	0x3f1c682c	0.61096454
50	0x3e925f90	0.28588533
51	0xbba07119	-0.004896295
52	0x3eb6e6e4	0.3572303
53	0x3ef5d347	0.48012754
54	0x3f106d7f	0.5641708
55	0xbda9758e	-0.08274375
56	0x3b5d1865	0.0033736464
57	0x3ef20db6	0.47276086
58	0x3ec5468c	0.38530385
59	0x3ee233f4	0.44180262
60	0x3eca644f	0.39529654
61	0xbd1a23f4	-0.037631944
62	0xbdcf2992	-0.10115351
63	0x3cea494f	0.02859941

linear.4.weight f4 [3, 64]
0	0xbf4300c7	-0.7617306
1	0xbf503aed	-0.81339914
2	0xc01fd36d	-2.4972794
3	0xbed223ea	-0.41043025
4	0x3b2d7a75	0.0026470695
5	0xc0487605	-3.1322033
6	0xbe9cb4c5	-0.30606666
7	0x3d574ace	0.052561574
8	0xbf48f37c	-0.7849653
9	0xbf40c47b	-0.75299805
10	0x3f80f38c	1.0074325
11	0xbda40064	-0.08007887
12	0xbf2aa992	-0.66664994
13	0xbf3e726f	-0.7439336
14	0xbd4c84ea	-0.049931444
15	0xbd930d39	-0.071802564
16	0x3f5b9d89	0.85787255
17	0x3da6c744	0.08143476
18	0xbcbd23ea	-0.023088414
19	0xbf464340	-0.77446365
20	0xbd0a7a02	-0.033807762
21	0xbd03f530	-0.03221625
22	0xbd08db38	-0.03341219
23	0x3d9156d6	0.07096641
24	0xbd32b22c	-0.04362695
25	0xbeb2a3fd	-0.34890738
26	0x3f3365df	0.7007732
27	0xbc9c5c21	-0.0190869
28	0xba2aedee	-0.00065204396
29	0x3dfa7517	0.12229364
30	0xbd2a2d72	-0.041547246
31	0x403022a9	2.7521155
32	0xbf3ca7a9	-0.7369333
33	0xbb066740	-0.002050832
34	0x3d9d2c87	0.076745085
35	0xbf1266d3	-0.5718815
36	0x3dbc4bbd	0.091941334
37	0x3d4fb56c	0.050710127
38	0x3d6a2008	0.057159454
39	0x3c4b8b4d	0.012423349
40	0x3e9b2997	0.30305168
41	0x3d95beb7	0.073117666
42	0xbb2780d0	-0.0025558956
43	0xbe926e63	-0.28599843
44	0xbf68be60	-0.9091549
45	0xbeb0e773	-0.34551582
46	0xbf623b3a	-0.8837162
47	0xbf395bf0	-0.7240591
48	0xbe950327	-0.29103968
49	0xbf17b1e9	-0.59255844
50	0xbf72e3cc	-0.9487884
51	0x3d452dfa	0.04813955
52	0xbefea98f	-0.49738738
53	0xbf4d4966	-0.8019012
54	0xbee77f14	-0.4521414
55	0xc05c2fcb	-3.440417
56	0xc00186f8	-2.0238628
57	0x3f1edb4a	0.6205336
58	0xbf2e6774	-0.68126607
59	0x4083e8ab	4.122152
60	0xbf6177c7	-0.8807339
61	0xbfbbc5bf	-1.4669722
62	0xbc37c4e2	-0.011216374
63	0x3d83b3e0	0.06430793
64	0xbeb95ae1	-0.36202148
65	0xbf2f85de	-0.6856364
66	0xc0644bbc	-3.5671225
67	0x3e05e749	0.1307651
68	0xbdae64b0	-0.08515298
69	0xbfbb7958	-1.4646406
70	0xbf6ef488	-0.93341875
71	0x3c8975b8	0.016779765
72	0xbe43f5b6	-0.191367
73	0xbeba9a6c	-0.3644594
74	0x4089e74f	4.309486
75	0x3cba1caf	0.022718756
76	0x3e95b860	0.2924223
77	0xbf14e02e	-0.5815457
78	0xbf4eb045	-0.80737716
79	0x3d8c05c9	0.06837041
80	0x3f9ffe18	1.2499418
81	0xbd0ecbd8	-0.03486237
82	0xbf9b5b51	-1.2137243
83	0xbf150c47	-0.5822186
84	0xbc84e7ab	-0.01622375
85	0xbc49c8e4	-0.012315962
86	0x3d3f6253	0.04672463
87	0xbc30f56e	-0.0108007025
88	0x3db64408	0.08899695
89	0xbfd41c2d	-1.6571099
90	0x3f911bf6	1.1336658
91	0xbd5f97bb	-0.05458806
92	0x3d557a75	0.052118737
93	0x3e92fb71	0.2870746
94	0x3d233885	0.039848823
95	0x402b6515	2.6780446
96	0xbfa29fcd	-1.2705017
97	0x3c390779	0.0112932855
98	0xbda59f86	-0.08087067
99	0x3adc188c	0.0016791984
100	0x3b92f9ad	0.00448533
101	0xbb47d7be	-0.0030493583
102	0xbeb3ee1b	-0.35142598
103	0x3e03b1d6	0.12860808
104	0xbf5dd127	-0.86647266
105	0xbd0f3098	-0.034958452
106	0x3cfbe90a	0.03075077
107	0xbcde765b	-0.027156046
108	0xbe8e2ee3	-0.27770147
109	0xbebccad6	-0.36873502
110	0xbe09bbbb	-0.1345052
111	0x3cdf1dfe	0.027235981
112	0xbf289003	-0.65844744
113	0xbf1c17f0	-0.60974026
114	0xbedecc97	-0.43515465
115	0x3dc1b9f2	0.094592944
116	0xbed3f9fe	-0.41401666
117	0xbd27d797	-0.040977087
118	0xbf5b9029	-0.85766846
119	0xbff165bb	-1.8859171
120	0xc070c3ee	-3.7619586
121	0xbeed0e60	-0.4630003
122	0xbf899d32	-1.0751097
123	0x404d80c4	3.2109842
124	0xbf66259b	-0.8990113
125	0xbffdf735	-1.9841067
126	0xbcb84dd5	-0.02249805
127	0x3d6507da	0.05591569
128	0xbf4a065f	-0.7891597
129	0xbf0bcef2	-0.5461265
130	0xc014350b	-2.3157375
131	0x3f376582	0.71639264
132	0x3d604a60	0.05475843
133	0xbfe173ca	-1.7613461
134	0xbf44f584	-0.7693713
135	0xbe0271c1	-0.12738706
136	0xbf057cdb	-0.5214364
137	0xbf074c03	-0.5285036
138	0x409f39b7	4.9757953
139	0xbcd4c6fe	-0.025973793
140	0xbf01481f	-0.50500673
141	0xbf3b82ef	-0.73246664
142	0xbf12b3c3	-0.57305545
143	0x3c130c09	0.008975037
144	0x3f821186	1.0161598
145	0xbd8ac3cb	-0.06775626
146	0xbf270ab5	-0.6525071
147	0x3e015b4e	0.12632486
148	0x3d80f4e7	0.062967114
149	0x3c964575	0.018343667
150	0x3cec42a7	0.028840376
151	0xbd9e805d	-0.07739327
152	0x3d008b79	0.03138301
153	0xc029edc1	-2.6551363
154	0x3f1fb287	0.62381786
155	0x3de50bd4	0.11183897
156	0x3d950c0e	0.0727769
157	0x3e83e29d	0.2575883
158	0x3dcf582f	0.101242416
159	0x4013f9cd	2.3121216
160	0xbf1110ac	-0.56666064
161	0x3d6f5de4	0.05843915
162	0x3d517172	0.05113358
163	0xbf845beb	-1.0340551
164	0xbcdd7a05	-0.027035723
165	0xbde0025d	-0.10937951
166	0xbf28bf11	-0.65916544
167	0xbcb87b78	-0.022519812
168	0xbf2b2b8b	-0.66863316
169	0x3cbd4a8e	0.02310684
170	0x3dcce039	0.100037046
171	0xbf97b67d	-1.1852566
172	0xbeb09b37	-0.3449342
173	0xbf619191	-0.8811274
174	0xbf4dc436	-0.8037752
175	0xbf2d6afb	-0.67741364
176	0xbf067e92	-0.5253688
177	0xbef70ad6	-0.48250455
178	0xbeeddfbb	-0.46459755
179	0xbc84b9a1	-0.016201796
180	0xbefa8d14	-0.4893576
181	0x3e985be6	0.29757613
182	0xbf4ec51f	-0.8076953
183	0xbe5eb27c	-0.21747774
184	0xc09b7f06	-4.859256
185	0xbeab34f2	-0.33438832
186	0xbe97b99f	-0.29633805
187	0x4002c36e	2.043178
188	0xbe7650e3	-0.24054293
189	0xc0186291	-2.381016
190	0x3d44c01f	0.048034783
191	0xbd8bf984	-0.06834701

linear.4.bias f4 [3]
0	0xbe0adfbb	-0.13561909
1	0x3d59adef	0.05314439
2	0x3e43d0b1	0.19122578
